saved-model/logmel/unetidnn/logmel-unetidnn-pump-2.pkl (torch, 144398 bytes, 32 tensors)

encoder.0.0.weight f4 [64, 256]
000000 2d ee 09 bc 8f f5 94 bc 9f a5 95 bc 4d ea 68 bd
       -0.008418602 -0.018183498 -0.01826745 -0.05686407
000010 20 b5 26 bd 69 15 a9 3c f9 ab e3 3c 5c 15 9e 3b
       -0.040700078 0.020640092 0.027791964 0.0048243236
000020 a0 bd ab 3c 9b 01 dc bc be a6 e8 bc fb 9e 4d 3c
       0.020964444 -0.026856234 -0.028399821 0.012550111
000030 3f 7e 2d bd 6c bb cb 3b f0 60 17 bc 18 ea c0 bc
       -0.042356726 0.006217411 -0.00923942 -0.023549125
000040 65 2c 21 3d a5 b3 de 3d f9 65 82 3c 82 85 ef bc
       0.03934898 0.10874108 0.015917765 -0.029238466
000050 85 ea ec 3b 4b 4c 1c bd bb 7c df bb 27 0f f6 bc
       0.0072301053 -0.038158696 -0.006820289 -0.030036522
000060 a2 b3 b6 bc 5c 0b 4f bc 53 e1 f8 3c e0 1a 10 bd
       -0.022302452 -0.012636986 0.03038088 -0.03518188
000070 43 12 a4 bb c1 de b8 bd b7 19 37 bb e7 67 ec 3c
       -0.00500706 -0.09026862 -0.0027938911 0.028858138
000080 a5 0c 3e 3d f7 cc 04 3d 55 bc 79 bc bf 3c 50 3c
       0.046398778 0.032422032 -0.015242656 0.0127097955
000090 3f 70 f6 bb 0f 74 82 bd f7 c4 8b 3d 86 d7 d4 3d
       -0.007520705 -0.06369793 0.068246774 0.1039267
0000a0 9c 6c b2 bd 91 c3 c0 bc 10 e9 77 3c a3 dd 1d bb
       -0.08712122 -0.023530753 0.01513125 -0.0024088405
0000b0 9a 17 15 bc 8c 11 c7 3d 0f ce e7 3b ee 31 32 3c
       -0.009099865 0.09720144 0.0070741246 0.010876162
0000c0 45 02 5d bc 64 f7 79 3d 39 7e e0 bb 15 82 89 3b
       -0.013489311 0.061026946 -0.0068509844 0.004196415
0000d0 86 e1 5d bb 33 7d 22 3c b9 4b 01 bd 2f 2d ed bc
       -0.0033856346 0.009917545 -0.031566355 -0.02895221
0000e0 fa e0 4f 3d 65 44 7d bc 79 1b b9 3c 19 2e c8 3c
       0.050751664 -0.015458201 0.022596108 0.024436044
0000f0 82 55 50 3c 1f 98 71 3d ad 93 f8 3c 13 89 c7 bb
       0.012715699 0.058982965 0.030343855 -0.0060893386
000100 87 30 65 bc a1 05 c8 bc 0f b3 39 bd a6 ad 87 bd
       -0.013988621 -0.024416747 -0.04533678 -0.06624918
000110 6f 69 2c bd f7 ff 2f 3d b9 72 1a bb d8 49 ae 3c
       -0.042092737 0.042968716 -0.0023566915 0.021275446
000120 9b 42 51 bc 84 1f ec bc 58 59 01 bd 33 4b cb 3c
       -0.012772228 -0.028823622 -0.031579345 0.024816131
000130 5a 8a cc bd 5b 00 87 3b 5f b1 21 bd 6d ef c2 bc
       -0.09987326 0.0041199154 -0.039475795 -0.023795808
000140 43 17 24 3d 93 27 02 3e b4 62 71 3d 80 26 73 bd
       0.040061247 0.12710409 0.05893202 -0.05936289
000150 91 82 e3 bb 89 42 93 bd 90 47 6f bd 6d 4d b4 bd
       -0.006943055 -0.07190425 -0.058417857 -0.0880383
000160 66 16 28 bd 34 8e 2c bd de 08 af 3c de 91 df bc
       -0.041036986 -0.042127803 0.021366533 -0.027291235
000170 d0 3c d0 bd 26 13 5a bd ea 3e 20 bc b3 c3 01 3c
       -0.10167849 -0.053240918 -0.009780625 0.0079201935
000180 fc ae 33 3c ec a5 43 3d e8 6d 4c bd 9e 99 b8 bd
       0.0109670125 0.047765657 -0.049909502 -0.09013675
000190 30 24 c7 bd 29 18 8e bd 5a 02 e3 3d 3e 90 28 3e
       -0.09723699 -0.06938202 0.11084433 0.16461274
0001a0 ac 3c ef bd 01 48 37 bd b8 a6 0d bb 98 07 99 bb
       -0.11681494 -0.044746403 -0.0021614265 -0.0046700947
0001b0 60 dc ee 3c 75 c3 0c 3e a4 61 27 3e c3 54 76 3d
       0.029157817 0.13746436 0.1634584 0.06013943
0001c0 4a f6 8a 3d 1e 5d f0 3c e0 39 80 3d ba 64 1d bd
       0.06785257 0.029341277 0.06261039 -0.03842614
0001d0 01 19 80 bd 8d 19 82 bd 51 13 f2 bd 9c 09 5e bc
       -0.06254769 -0.0635253 -0.118200906 -0.013552096
0001e0 cc c3 05 3c 4e d0 87 bc cb 79 82 3c ae c1 4d 3d
       0.008164357 -0.01657882 0.015927216 0.050233535
0001f0 9b 87 57 3d a6 e1 6f 3d 5c 49 7a 3d 7c 09 0b bc
       0.052619558 0.058564804 0.061105117 -0.008486148
000200 bd a6 38 bc e7 5f 0c bc 93 bb 12 bd c4 07 4a bd
       -0.011270222 -0.008567787 -0.035823416 -0.049323812
000210 32 24 7a bc 01 7d 3e 3b 38 b3 d4 3c 31 42 27 3c
       -0.015267419 0.0029066207 0.025964364 0.010208652
000220 fd 4b 8e 3c f4 ef 59 bd 3c fc a3 bc 47 26 b3 bc
       0.017370218 -0.053207353 -0.020017736 -0.021868838
000230 d8 e6 76 bd 53 db 0e bd b7 06 4d bc 78 c9 0b bd
       -0.060278744 -0.034877133 -0.012513808 -0.034127682
000240 ba f3 60 3d 3c 64 12 3e b1 d8 90 3d 1b e6 8f bd
       0.054919936 0.14296049 0.070725806 -0.07026311
000250 b8 6b 20 3c 27 ee 2f bd 20 c2 6e bd c7 c9 c7 bd
       0.009791307 -0.04295173 -0.0582906 -0.09755283
000260 84 6a 98 bd 3c 2a f6 bc 9f 0f de 3b 32 a2 5f bd
       -0.07442191 -0.030049436 0.0067767645 -0.05459804
000270 bc 92 49 bd cc 49 ac bd a0 de 28 bc e4 8d 95 3b
       -0.049212202 -0.08412513 -0.010306984 0.004564034
000280 e4 29 ed 3c 21 7f 44 bc bb 4b 8e bb 2f ef cd bd
       0.02895064 -0.0119932005 -0.004342524 -0.10055386
000290 23 52 cf bc 19 46 f2 bd 9e ac f2 3d d6 79 19 3e
       -0.02530772 -0.11829776 0.1184933 0.14987883
0002a0 a9 69 be bd 15 b6 b2 bd 59 43 35 bd 1c 36 0d 3d
       -0.09297497 -0.08726136 -0.04425368 0.03447543
0002b0 1e 44 3f 3d ea 1b ce 3d f3 ae d8 3d bb ca 8a 3c
       0.04669582 0.10063918 0.10580244 0.016942373
0002c0 a7 eb 0c 3d d1 b2 96 3d 3b ae 1f 3d 63 79 0f bd
       0.034404423 0.07358325 0.03898452 -0.035027873
0002d0 19 25 51 bd 5e 40 ab bd a3 15 d0 bd 61 f5 dc bc
       -0.05106077 -0.083618864 -0.10160377 -0.026972475
0002e0 f9 68 43 bd c1 60 3f 3d 4d 59 b9 3b 7d 1f 30 3b
       -0.04770753 0.04672313 0.0056563974 0.0026874237
0002f0 4e e7 ab 3d d5 b4 23 3d d6 6e 2b 3d d8 8a 8f 3b
       0.08393727 0.039967377 0.04185375 0.004380565
000300 c8 47 20 bc 09 b5 00 bc 58 72 ef bc a4 b2 02 bd
       -0.009782739 -0.007855662 -0.029229328 -0.031908646
000310 6d a2 49 bd 22 71 10 3d 3a f8 24 3d eb ce aa 3c
       -0.049227167 0.03526414 0.04027579 0.02085062
000320 ad 49 60 3c 2c 18 2c bd 9e 6a 85 bc 43 1b 39 3c
       0.013689441 -0.04201524 -0.01628619 0.011298004
000330 f1 91 4b bd 15 81 13 bc 87 12 01 3d 27 dd c0 bc
       -0.049699727 -0.0090029435 0.03151181 -0.023542954
000340 0f c6 19 3d 37 c4 a9 3d 76 68 91 3d 76 4e 6c bd
       0.0375424 0.08289378 0.071000025 -0.057692014
000350 c9 84 1a b9 20 01 07 3b ac 08 80 bc 76 88 3f bc
       -0.00014736051 0.0020600036 -0.015629135 -0.01169025
000360 e4 d5 10 bd 02 21 1a bd 91 1c 73 3d dd 03 99 bc
       -0.035360232 -0.037629135 0.059353415 -0.0186786
000370 37 3a 33 bd fe ce 79 bd cc 82 80 bc de 0f 18 3d
       -0.04375669 -0.06098842 -0.015687369 0.037124507
000380 44 af 30 3c 78 63 fc 3c 1a b1 c8 3b c1 d7 13 bd
       0.010783974 0.03080915 0.006124628 -0.03609443
000390 6a 53 a5 b8 93 54 62 bd 83 71 3d 3d e1 34 0b 3e
       -7.88335e-05 -0.055256438 0.04625083 0.1359439
0003a0 7e b4 88 bd b0 c3 6b bd 06 44 c8 3c 10 01 00 bd
       -0.06675051 -0.05755967 0.024446499 -0.031251013
0003b0 ce 59 25 3d 36 cc 76 3d 38 44 a6 3d c2 45 13 3d
       0.040368848 0.060253344 0.081184804 0.035955198
0003c0 64 0f 23 bd 7b 36 b1 3c 19 b5 1d 3d 63 45 1c 3d
       -0.0398096 0.021632424 0.038502786 0.03815211
0003d0 a5 96 59 bd 32 9a 77 bc 5b f1 3f 3a ea 38 6c bd
       -0.05312218 -0.015112447 0.00073220365 -0.057671465
0003e0 86 16 69 3d 88 15 26 3c b4 0f 4a 3c 39 6b 60 3d
       0.056906246 0.010136969 0.0123328455 0.054789755
0003f0 60 42 2f 3d c3 28 07 3d c9 d3 8c 3c e2 66 7b 3b
       0.04278791 0.032997858 0.01719083 0.0038360883

encoder.0.0.bias f4 [64]
000000 0c 3e 54 b9 00 0f b5 b8 22 9c ee b9 67 4f 1a 39
       -0.0002024101 -8.6335465e-05 -0.00045511225 0.00014716164
000010 ce da 82 b8 f2 81 32 b8 cf 0b 93 b9 09 7d 59 ba
       -6.2396386e-05 -4.2559528e-05 -0.00028046823 -0.0008296525
000020 6a 43 73 37 40 c9 80 b9 6f 3d 12 39 8d 31 6b 39
       1.4499625e-05 -0.00024564005 0.00013946531 0.00022429806
000030 35 c5 38 b9 87 ba 9f 38 38 5a b4 b7 52 fd 58 b8
       -0.00017621073 7.616454e-05 -2.1499683e-05 -5.1734336e-05
000040 26 0b 86 38 67 03 04 b8 d8 56 ad b8 62 83 c5 36
       6.3916945e-05 -3.147442e-05 -8.265459e-05 5.8863525e-06
000050 4b 13 21 b8 64 b0 44 39 ec de 0e b8 3e f4 b7 b7
       -3.840336e-05 0.00018757727 -3.406305e-05 -2.1929034e-05
000060 f4 86 d1 b9 59 86 01 b8 bc b7 b6 b8 29 84 40 38
       -0.00039964134 -3.0881118e-05 -8.7126595e-05 4.589945e-05
000070 45 9d cc 39 74 ec 8e 38 7a 9c bd 37 6d 22 81 38
       0.00039027087 6.8151305e-05 2.260342e-05 6.157612e-05
000080 ec 8a b2 b9 c5 7c 0f b9 d5 1d 6e 38 84 d7 25 b6
       -0.0003405431 -0.00013684023 5.6771405e-05 -2.4712363e-06
000090 06 bc 52 b8 be 70 fd b8 0f e8 73 b8 0f c1 11 39
       -5.0243012e-05 -0.0001208498 -5.8151836e-05 0.00013900198
0000a0 57 21 16 37 eb 59 70 39 73 20 2e 39 e5 58 3b 39
       8.948459e-06 0.0002292168 0.00016606021 0.00017866826
0000b0 19 67 a6 b9 30 0b 4b b9 13 bf 9c b8 32 38 34 b7
       -0.000317388 -0.00019363756 -7.47425e-05 -1.074192e-05
0000c0 7b a5 e8 b7 4d 26 2d b9 f1 8b 1f 39 07 2a bd b8
       -2.7733613e-05 -0.00016512834 0.00015215554 -9.0200505e-05
0000d0 4e a1 85 36 73 aa 53 38 e6 c6 98 b8 8e 81 82 b8
       3.982487e-06 5.0465063e-05 -7.2849725e-05 -6.2230145e-05
0000e0 7d 14 c6 38 0a c1 6a b8 a0 75 ce 38 27 db 8e b8
       9.445192e-05 -5.596973e-05 9.844755e-05 -6.811908e-05
0000f0 d2 ac 72 39 ee 10 3f b6 1e a4 85 39 0a f1 10 38
       0.00023143299 -2.8471072e-06 0.00025490014 3.455676e-05

encoder.0.1.weight f4 [64]
000000 e9 65 bb 3f 37 1d b9 3f ac fa b9 3f 88 5b ba 3f
       1.4640476 1.4462041 1.4529624 1.4559183
000010 8f 81 b9 3f 28 ff bf 3f 7b 87 b7 3f 3b e7 ba 3f
       1.4492663 1.4999743 1.433822 1.4601816
000020 1b f0 b7 3f 8d 78 ba 3f 58 c5 c0 3f a8 05 ba 3f
       1.4370149 1.4568039 1.5060225 1.4532976
000030 5e 5e bb 3f 30 09 ba 3f bf 7e b8 3f ce 26 bb 3f
       1.4638174 1.4534054 1.441368 1.4621217
000040 fe b1 bf 3f 69 89 be 3f b0 cb b9 3f f4 ba bb 3f
       1.4976194 1.4885684 1.4515285 1.4666429
000050 42 60 be 3f ec 40 bc 3f 8f 16 bb 3f b6 be b9 3f
       1.4873126 1.4707313 1.4616259 1.4511325
000060 f8 62 ba 3f 4a c0 bc 3f 86 b1 b9 3f 09 2f bb 3f
       1.4561453 1.4746182 1.4507301 1.4623729
000070 ef 58 b8 3f 20 a9 bd 3f c6 d1 ba 3f 6f c4 ba 3f
       1.440214 1.4817238 1.4595268 1.4591197
000080 82 84 ba 3f cd b9 b8 3f 8a c0 bf 3f 0a c6 be 3f
       1.4571688 1.4431702 1.4980633 1.4904187
000090 3f ed b9 3f 1f 2f bb 3f ef af b9 3f 38 a6 ba 3f
       1.4525527 1.4623755 1.4506816 1.4581976
0000a0 d6 d2 b9 3f ab ec ba 3f b5 1a c1 3f 9a 6f ba 3f
       1.4517467 1.4603475 1.5086275 1.4565308
0000b0 1c a1 ba 3f 7c 1a bb 3f 3e a6 bc 3f d1 f7 ba 3f
       1.4580417 1.4617457 1.4738233 1.4606878
0000c0 a3 dc ba 3f 54 b1 c0 3f c8 86 ba 3f 14 99 b7 3f
       1.4598583 1.5054116 1.4572382 1.4343591
0000d0 8b 0a b9 3f 45 fa ba 3f ec 7d bb 3f 24 fa ba 3f
       1.4456342 1.4607626 1.4647803 1.4607587
0000e0 15 d2 b9 3f e5 7f ba 3f 08 8e be 3f aa 5d b9 3f
       1.4517237 1.457028 1.4887094 1.4481709
0000f0 95 6e bc 3f eb 82 bc 3f e4 c5 b6 3f cb 49 be 3f
       1.4721247 1.4727453 1.4279141 1.486627

encoder.0.1.bias f4 [64]
000000 0b a5 ea 3e eb 74 f8 3e 80 c5 f7 3e 5d 4c f1 3e
       0.45829043 0.485267 0.48392868 0.47128573
000010 05 9c eb 3e d0 06 fb 3e 77 29 e8 3e f0 75 f4 3e
       0.4601747 0.49028635 0.45344135 0.4774623
000020 b4 53 ed 3e 4d e1 f0 3e 53 fd f8 3e 30 ab e7 3e
       0.46352923 0.4704689 0.4863077 0.45247793
000030 17 67 f3 3e a2 b2 ec 3e 65 90 e7 3e 88 78 fb 3e
       0.4753959 0.46230036 0.45227352 0.49115396
000040 f0 70 f5 3e 79 21 fe 3e 92 77 e4 3e 6a f7 e7 3e
       0.47937727 0.49634913 0.44622475 0.4530595
000050 75 02 04 3f 18 6f f6 3e 42 51 fd 3e 82 dd e8 3e
       0.5156625 0.48131633 0.49476057 0.45481497
000060 4e d3 f3 3e 2c d0 f6 3e 5a 6a e9 3e 88 14 f0 3e
       0.4762215 0.48205698 0.45588952 0.46890664
000070 a7 26 ee 3e 37 9b ea 3e f0 c9 ea 3e a4 a3 f6 3e
       0.46513864 0.45821545 0.4585719 0.48171723
000080 6f 75 f6 3e 0e fd f2 3e 34 ae f7 3e 5f e1 f7 3e
       0.4813647 0.4745869 0.48375094 0.48414132
000090 d7 61 f5 3e 42 6b f0 3e d6 c7 ed 3e 7d 38 f6 3e
       0.47926208 0.4695683 0.46441525 0.48089972
0000a0 93 74 eb 3e b0 26 ea 3e e6 a7 f5 3e 17 e5 f2 3e
       0.45987377 0.4573264 0.4797966 0.47440407
0000b0 50 f2 ec 3e 7e d1 f0 3e 8f 8a 01 3f 17 e8 ea 3e
       0.4627862 0.4703483 0.5060205 0.45880195
0000c0 f6 34 f3 3e 2f 25 f8 3e e5 11 eb 3e 06 a0 dd 3e
       0.47501343 0.4846587 0.4591209 0.4328615
0000d0 d9 7c f7 3e ae 0d e7 3e 68 d6 f2 3e 12 fd ee 3e
       0.4833744 0.45127624 0.47429204 0.46677452
0000e0 dd 08 fc 3e 3a 42 eb 3e 0a 7e f3 3e c7 cf f1 3e
       0.49225512 0.45948964 0.47557098 0.47228834
0000f0 46 15 f7 3e a3 00 ef 3e 65 ef eb 3e 9d 3c f8 3e
       0.48258418 0.46680173 0.4608108 0.48483744

encoder.0.1.running_mean f4 [64]
000000 e9 73 91 c1 4f 1f ae 41 57 23 62 42 68 c2 a6 c0
       -18.181597 21.765287 56.53451 -5.211231
000010 70 e9 03 41 57 a4 e8 40 1f da bf 41 7a 96 d8 41
       8.244492 7.270061 23.981504 27.073475
000020 e5 be 97 41 2b 79 cb 41 e8 49 12 3f af 0e a2 c0
       18.96821 25.434164 0.5714402 -5.0642924
000030 c4 41 d5 41 44 92 f5 40 12 cb a3 c0 6b 7f 01 41
       26.657112 7.6741047 -5.118539 8.093608
000040 f7 92 95 bf 25 79 62 41 ba 8a 3a 41 60 cb 31 c1
       -1.1685475 14.154576 11.658869 -11.112152
000050 06 bf 35 40 3e ab 7a 41 05 ed 4b c1 49 2c ba 40
       2.8397841 15.666807 -12.745366 5.817906
000060 cf 19 2a 42 4b 47 4e 41 32 b8 aa 40 e1 44 21 41
       42.525204 12.8924055 5.334985 10.079316
000070 b6 55 24 c2 85 06 5e c2 01 e5 de 40 63 11 fe 41
       -41.083702 -55.506367 6.9654546 31.75849
000080 d7 b0 b1 41 85 fe 95 41 7b 29 aa c0 8d 59 e7 40
       22.211348 18.749277 -5.3175635 7.2296815
000090 0a 2f 54 c1 eb c4 6e 41 46 b0 de be 01 6d e7 c0
       -13.261484 14.923076 -0.4349386 -7.232056
0000a0 0a 5b 98 40 07 45 eb 41 59 aa b4 c0 71 0a 04 42
       4.761113 29.408705 -5.6457944 33.010197
0000b0 40 5f 25 42 35 12 fc c0 3c 31 8a c0 bc 7b 07 40
       41.343018 -7.8772225 -4.31851 2.1169271
0000c0 74 02 d1 3f 03 81 4b 41 fd 7b eb c0 a7 62 08 3f
       1.6328874 12.718997 -7.3588853 0.5327553
0000d0 90 02 c6 41 3c d6 a7 40 72 ce 95 3f 47 32 6c 41
       24.751251 5.2449017 1.1703627 14.762275
0000e0 5a 31 f6 41 5b 3b aa c1 aa 8e 1a c1 ef ba 33 c0
       30.774097 -21.278982 -9.65983 -2.8082845
0000f0 59 cd f6 40 9a 45 d4 c1 f4 4a 4f c2 e6 78 54 40
       7.712567 -26.533985 -51.823196 3.319879

encoder.0.1.running_var f4 [64]
000000 48 24 02 42 4f 77 38 42 a4 8d 7f 42 3d c5 13 42
       32.53543 46.116512 63.88832 36.942616
000010 2b 3d 00 42 0b fd d2 41 aa 6a 05 42 82 39 01 42
       32.059734 26.373556 33.354164 32.30616
000020 9b d7 c2 41 59 c6 1d 42 a3 9e c4 41 96 2a c3 41
       24.355276 39.4437 24.57746 24.395794
000030 32 48 3a 42 f5 10 bd 41 11 6a 31 42 8d d3 97 41
       46.570503 23.63328 44.35358 18.978296
000040 74 c9 9f 41 43 ec de 41 d1 7e 1e 42 a2 18 45 42
       19.973366 27.865362 39.623844 49.274055
000050 81 3a d6 41 48 86 d6 41 e1 f5 04 42 ff 23 d5 41
       26.778566 26.815567 33.240116 26.642576
000060 12 b2 5c 42 47 35 09 42 01 98 ba 41 5f 86 fa 41
       55.173897 34.30203 23.32422 31.31561
000070 fc 05 bd 42 47 50 98 42 20 8c 0c 42 12 22 72 42
       94.51169 76.15679 35.13684 60.53327
000080 09 4d 13 42 13 fc 42 42 c5 29 23 42 92 1b e5 41
       36.82523 48.746166 40.79079 28.638462
000090 a1 ec 5b 42 d0 bd b7 41 5b 9f d2 41 4d ea c4 41
       54.981083 22.967682 26.32781 24.614405
0000a0 d8 a2 da 41 a9 49 05 42 71 9d 9c 41 fc 19 4d 42
       27.329514 33.321934 19.576876 51.275375
0000b0 e7 3e 80 42 11 ac d6 41 21 f8 ba 41 ce e6 08 42
       64.122856 26.834017 23.371157 34.225395
0000c0 fa 16 d3 41 ce b0 25 42 a0 b2 7b 42 19 0b a3 41
       26.386219 41.42266 62.92444 20.380419
0000d0 4c 15 1b 42 3e 7f 58 42 c5 6a aa 41 7c 31 1e 42
       38.770798 54.12426 21.302134 39.548325
0000e0 4e 5c 3c 42 20 dd e7 41 d2 91 d9 41 f1 01 0e 42
       47.09014 28.982971 27.196201 35.501896
0000f0 68 1c c9 41 f1 bf 72 42 c5 4f 8a 42 c1 e0 de 41
       25.13887 60.687443 69.1558 27.859743

encoder.1.0.weight f4 [32, 64]
000000 98 5f bc 3d 0e 33 9d 3d 09 08 e6 3c 8e 12 af bb
       0.091979206 0.076757535 0.028080003 -0.005342788
000010 0e 39 d4 3d 62 14 4d 3d d3 fd cf bc 83 0c ee 3c
       0.10362445 0.050068267 -0.025389588 0.0290587
000020 52 66 4f 3b 72 5a 8d 3d 2e 0a 04 3e 7a c1 ef 3d
       0.003164668 0.06902017 0.12894508 0.117068246
000030 2e 8f 5a 3e 4c a8 a8 3c 54 c3 4e 3e e9 42 04 bb
       0.21343681 0.020588063 0.201917 -0.0020181483
000040 fd 38 55 bd 47 6d bd 3c 90 01 05 3d 76 a0 69 3d
       -0.0520563 0.023123397 0.032472193 0.057037793
000050 0b f7 ef 3c 3f b8 35 3d 00 58 80 3c 17 09 2a bd
       0.029292604 0.044365164 0.015666962 -0.041512575
000060 59 bd 97 bd dc d0 ef 3d 18 18 05 3e a0 92 1f 3d
       -0.07409162 0.11709759 0.12997472 0.038958192
000070 85 36 2e 3e 26 f6 35 3e 66 c3 4f 3d b3 94 98 bd
       0.17012985 0.1776968 0.050723456 -0.07450237
000080 48 cf df 3d 31 60 08 3d 62 1d d0 3d d6 49 f0 bb
       0.10928208 0.03329486 0.10161854 -0.0073330207
000090 2e 3f 18 3c d1 8c 80 3d e7 24 f4 3d e4 e3 4b 3b
       0.009292407 0.062768586 0.11921101 0.0031111175
0000a0 b5 9d 18 3d 08 a4 33 3d 01 b2 85 3c 6b ba 9f 3c
       0.037259776 0.043857604 0.01632023 0.01949807
0000b0 e7 23 38 3d 03 d4 ff 3c 0f e9 e3 3c ac 27 12 3e
       0.044956114 0.031229025 0.027821092 0.14272946
0000c0 a0 6e 32 3d 82 db f9 3c e5 3f 98 bd 13 57 a5 3d
       0.04356253 0.030500177 -0.07434062 0.08073249
0000d0 35 43 b0 3d 2c df ec 3d a8 66 c3 bc e6 af 06 3e
       0.08606569 0.11566004 -0.023852661 0.13153037
0000e0 e4 2c a2 3d cb de 09 3e 78 36 d3 bc e8 19 c3 3d
       0.079187185 0.13463895 -0.025782809 0.095264256
0000f0 c4 a6 b9 3d 35 48 8c 3d c8 9e 55 3e 07 eb c9 3c
       0.09065011 0.0684971 0.20861351 0.024648203
000100 b5 e9 ba bd ae cb 4c 3c ab 6a 53 3d 1a ad 89 bd
       -0.09126607 0.012499733 0.0516154 -0.0672247
000110 57 8b d3 bd ff 86 ef 39 f5 8d c2 bd f2 72 cc bc
       -0.10329311 0.00045686212 -0.094997324 -0.024957154
000120 b5 0e 65 3b 35 29 81 bd 61 5d 0f bd 29 6e a7 bd
       0.0034951393 -0.06306688 -0.035001162 -0.08175308
000130 54 be ff bd 99 e2 1a be 2b 3e 1e be 7b a2 b1 bd
       -0.12487474 -0.15125503 -0.15453403 -0.08673569
000140 d5 1f 70 bc 52 b6 3a bc 2b 7d 2c bd c5 f6 d3 bc
       -0.014656027 -0.011396008 -0.042111557 -0.025874505
000150 26 3d 0e bd 59 80 84 bd 63 9c 68 bd 9b ed 0b bd
       -0.034726284 -0.06469793 -0.056789767 -0.034162145
000160 53 4e f7 3d de a1 4e 3b 63 75 93 bd 9c 19 d5 bd
       0.12075486 0.0031529586 -0.07200124 -0.10405275
000170 a8 e1 60 be 34 7f 2a be 36 76 01 be e4 64 91 bd
       -0.21961081 -0.16650087 -0.1264275 -0.070993215
000180 31 ee 28 be 88 2b f5 bd 6f a3 61 bc 99 00 3b bd
       -0.16497113 -0.119711936 -0.013771876 -0.045654867
000190 18 74 f2 bd 3f 2c 0f be 9a 64 52 3c 81 47 00 be
       -0.118385494 -0.13981722 0.012841368 -0.12527277
0001a0 c8 b4 1d bc 51 6c 14 3d 08 51 e7 bd e9 43 ad 3b
       -0.009625621 0.03623611 -0.11294752 0.0052876365
0001b0 cc f7 1c bb 24 b3 de bc df 50 dc bd 3c e8 a4 bd
       -0.002395141 -0.02718503 -0.107576124 -0.08052108
0001c0 2a 21 b9 bd 11 43 be bc bf 7c c6 bd a9 8c 7a bd
       -0.09039529 -0.02322534 -0.09691762 -0.0611693
0001d0 6e 45 47 bb 8a b4 93 bc 9b 9c 1a be 0b ce 0d bd
       -0.0030406374 -0.018030424 -0.15098803 -0.034620326
0001e0 c0 54 1d 3d 86 09 91 bd 98 0b 10 bb 22 6d f8 bd
       0.038410902 -0.070818946 -0.0021979567 -0.121301904
0001f0 15 e9 70 bd 53 3e 45 bd 95 6e 44 be 9b 59 c5 3b
       -0.058816034 -0.04815514 -0.19182809 0.0060226447
000200 86 80 50 bd e1 9b d1 3a 8d a4 96 ba d7 c4 fb bc
       -0.05090382 0.001599189 -0.0011493132 -0.030733509
000210 97 a3 0a 3e 40 f3 a1 3c b3 fe be bc e3 a4 08 3e
       0.13538967 0.019769311 -0.02331481 0.1334415
000220 fd 3d 14 3b 01 f0 17 bd 42 26 53 3d 58 b2 d4 3d
       0.0022619956 -0.03709412 0.051550157 0.10385579
000230 d4 d7 0f 3e 6f a2 93 3c 31 63 9b 3d 39 4b f1 3c
       0.14047176 0.01802179 0.07587279 0.029454814
000240 ad f3 07 bd 0c ee b5 bc 16 50 84 3d 27 74 56 3d
       -0.03319137 -0.022208236 0.06460588 0.052356865
000250 5b 50 bc 3c 34 19 ed 3d 6d 3a 6d 3d 2d d6 17 bc
       0.022987535 0.11577073 0.057917047 -0.009267372
000260 99 a4 fa bd 94 02 14 3d 62 85 d0 bb d1 64 2b 3e
       -0.12238426 0.03613527 -0.0063635567 0.16737677
000270 e0 8a 32 3e 56 4c b1 3c f7 cf ce 3d 3b ec c9 3c
       0.17435789 0.021642845 0.1009826 0.024648776
000280 85 16 b5 3c 85 9a 9a 3d b9 1b b7 bd 08 0a 17 3e
       0.022105465 0.075490035 -0.089408346 0.1474992
000290 d4 90 0a 3d a1 10 3b bd e1 06 b0 3d 60 e4 39 3d
       0.033829525 -0.045670155 0.08595062 0.04538381
0002a0 10 f0 2c 3d 56 ad 60 bd 16 ef b2 bd a1 3d 1b 3d
       0.04222113 -0.054852806 -0.08737008 0.03790057
0002b0 33 0b 0f bd b3 c6 b6 3d bc 2c 43 bc 04 70 3f 3e
       -0.03492279 0.089246176 -0.011912521 0.18695074
0002c0 3f 9a df 3d 08 17 85 3d 18 f8 ff bc 8d 79 7e 3c
       0.10918092 0.064985335 -0.03124623 0.01553191
0002d0 02 20 a1 bd 90 0c 81 3d 5f 3c c3 bb 8d 55 f7 3d
       -0.07867433 0.06301224 -0.0059581245 0.120768644
0002e0 44 9e b9 3d 40 a6 80 3d 71 6c c8 3c 63 65 13 3e
       0.0906339 0.0628171 0.024465771 0.14394145
0002f0 1c 80 37 3e ad e4 93 3d fe ef 36 3e 53 f2 f5 3d
       0.17919964 0.07221351 0.17864987 0.1200911
000300 fa 3a ef bd 41 21 7d 3d 58 b7 fb 3c ab 71 21 bd
       -0.11681171 0.06179929 0.030727074 -0.039415043
000310 ce 05 c9 bd c7 73 37 3d 0e 2b 0e be 8e d0 44 bc
       -0.0981556 0.04478815 -0.13883612 -0.012012614
000320 2b a7 85 bb bb 14 26 3d c9 a2 65 bd b3 91 31 be
       -0.004078766 0.040547114 -0.056063447 -0.17340736
000330 bc a7 1d be 7c 0e 08 bc aa f6 7d bd 11 42 5f 3c
       -0.15396017 -0.008304235 -0.062002815 0.013626591
000340 fc a4 c2 bb f4 3b 68 3c 77 a5 0e be d2 2c 88 bd
       -0.005940078 0.01417445 -0.13930307 -0.06649174
000350 5e 6b 9d bd 61 35 d8 bb f2 dd 92 bd 75 f5 08 3c
       -0.07686494 -0.00659816 -0.07171239 0.008359303
000360 46 11 ef bc 8b 41 64 bd 7d 2f f9 bd 9d c3 c8 bc
       -0.029183041 -0.05572657 -0.12167261 -0.024507338
000370 b6 6a 34 bd 49 75 1f be 6a a4 2f 3d 6d b3 97 3d
       -0.04404708 -0.15572084 0.042881407 0.074072696
000380 41 a1 9e bd f4 47 07 be 81 ea 55 bd 0d 33 31 bd
       -0.077456005 -0.13211042 -0.052225593 -0.043261576
000390 fb d6 30 3d 59 84 8b bd eb 62 89 3b 48 c6 bd bd
       0.04317377 -0.06812353 0.0041927 -0.09266335
0003a0 73 72 5a 3d 28 1b 81 3d ca 0b b3 bd eb a9 94 bd
       0.053331804 0.06304008 -0.08742483 -0.07258972
0003b0 1a 3e b2 bc c2 f1 f8 bd 4a d9 bb 3b 53 bf c6 3c
       -0.021758128 -0.12155487 0.00573269 0.024261152
0003c0 2a ad 88 bd 31 70 53 3c 42 d5 33 3c 3b d9 87 bd
       -0.066736534 0.0129051665 0.010976138 -0.0663323
0003d0 34 9d 9d bd b4 95 e4 bd b0 db 26 3d e4 4d 58 bd
       -0.07696 -0.11161366 0.040736854 -0.052808657
0003e0 d0 29 55 3d d7 08 e3 bd 30 9e 29 3c d1 b9 4d bd
       0.05204183 -0.110856704 0.010352656 -0.050226036
0003f0 99 25 1b bd 22 64 82 bd 93 92 4c be b8 6e 84 bd
       -0.037877653 -0.06366755 -0.19977789 -0.064664304

encoder.1.0.bias f4 [32]
000000 ed ae 36 b9 76 29 63 b9 8b 60 96 b8 2b 69 49 39
       -0.00017422037 -0.00021663852 -7.17054e-05 0.00019208032
000010 4b 79 fc b8 52 cb 4c b6 58 ee 7d 3a fa 25 0a 39
       -0.00012038889 -3.0516717e-06 0.00096867 0.00013174853
000020 bc 20 a2 38 9e b3 23 38 50 7e 2d 38 77 47 7a 38
       7.730859e-05 3.902951e-05 4.1364052e-05 5.96712e-05
000030 e0 80 3a 3a 70 09 71 b8 0e 89 e5 b9 03 dd 71 3a
       0.0007114541 -5.7467667e-05 -0.00043780397 0.0009226354
000040 19 30 d7 38 a4 7a 03 39 10 ac 15 b7 81 e8 45 3a
       0.00010260958 0.00012538821 -8.9211535e-06 0.00075495994
000050 bf 3a ea 38 50 79 c0 b8 48 3c 1f b9 45 51 b8 b7
       0.00011168932 -9.17787e-05 -0.00015185878 -2.1972353e-05
000060 84 e0 ae 38 62 b7 bb b8 e1 ee 0b ba 95 29 4a 39
       8.338786e-05 -8.9510126e-05 -0.0005338025 0.00019279712
000070 0c cd 8b b6 15 37 77 b9 71 d1 12 39 f0 e2 e6 b8
       -4.1663934e-06 -0.00023576275 0.00014001668 -0.00011009525

encoder.1.1.weight f4 [32]
000000 0a f3 90 3f 18 09 70 3f 0d 8c 4c 3f 45 bd 7a 3f
       1.132417 0.93763876 0.799012 0.9794505
000010 97 c6 64 3f 0a f2 5e 3f 5e 28 8e 3f 66 67 7e 3f
       0.89365524 0.8708807 1.1106069 0.99376523
000020 07 25 92 3f 6b d2 6d 3f b4 58 5f 3f 84 ad 7a 3f
       1.141755 0.928992 0.87244725 0.97921014
000030 57 be 61 3f 95 a2 59 3f 1c 0a 77 3f 38 c3 99 3f
       0.8818106 0.85013705 0.964998 1.2012701
000040 82 35 62 3f fc d9 5d 3f 79 9c 65 3f c4 59 6d 3f
       0.88362896 0.8666074 0.89691883 0.92715096
000050 a2 c9 76 3f a7 91 81 3f a9 8e 6d 3f d2 bc 67 3f
       0.9640142 1.0122575 0.9279581 0.9052249
000060 39 58 8b 3f 43 62 60 3f 74 8b 64 3f d0 16 80 3f
       1.0886298 0.87649935 0.8927529 1.0006962
000070 72 59 71 3f ff 33 74 3f 3a 42 72 3f f6 4e 6f 3f
       0.9427711 0.9539184 0.94632304 0.9347986

encoder.1.1.bias f4 [32]
000000 0a 87 06 be 77 1c 9b 3e 76 a2 b9 bd ee 3d 16 3a
       -0.13137451 0.30295154 -0.0906419 0.0005731274
000010 cc 6a 99 3d 41 ff be bc 13 dc f2 bd 49 c2 f3 3d
       0.07491073 -0.023315074 -0.11858382 0.11902291
000020 46 bf fc bd b2 8d ab bc 9a 13 3d bd 72 94 d4 bb
       -0.1234117 -0.020941589 -0.04616127 -0.0064874226
000030 b2 61 81 3e 8c 66 15 be e8 03 9c bc f0 98 fa bd
       0.25269848 -0.145899 -0.019044831 -0.12236202
000040 5e 8c c3 3c ce fd 16 3c a2 50 c0 3b 81 17 8d 3e
       0.023870643 0.009215785 0.005868987 0.27556995
000050 83 aa 18 3e ae 93 2a be 35 46 c4 bd 59 97 4a bd
       0.14908795 -0.16657898 -0.095837034 -0.049460743
000060 0d 07 51 be 2e 76 1d 3e 6f 28 58 bd b7 23 04 bd
       -0.20412846 0.15377113 -0.052772935 -0.032260623
000070 74 ae b4 39 3f a3 5b 3d e1 6f 4a bc f9 d2 dd 3c
       0.00034462253 0.05362248 -0.012355776 0.027078139

encoder.1.1.running_mean f4 [32]
000000 fe b6 44 40 a9 1a 52 c0 4d cf 17 40 17 31 11 c0
       3.073669 -3.2828772 2.3720276 -2.2686212
000010 ad e5 0a 40 f4 dc 92 be 49 9a 32 40 28 d0 04 c0
       2.1702683 -0.286842 2.7906668 -2.0752048
000020 64 c8 21 40 3d 17 24 be 5a 7e 32 be 7e 57 8d bf
       2.5278559 -0.1602449 -0.17431012 -1.1042325
000030 91 b0 16 c0 ad 2d ab bf d5 dc aa bf 6e 4e 27 40
       -2.3545268 -1.3373314 -1.3348643 2.614162
000040 57 e9 75 be 43 17 56 bf cc 50 57 3e b0 28 2f c0
       -0.24014793 -0.83629245 0.21026915 -2.7368584
000050 3b 5c 3a c0 9b f0 3b 40 44 fe 1a c0 b7 88 5e bf
       -2.9118793 2.9365604 -2.4217691 -0.8692736
000060 be bf 43 40 8e 07 95 bf 39 b8 02 c0 1b 35 55 40
       3.058578 -1.164293 -2.042494 3.3313663
000070 a5 14 ef bf fb 21 cf bf 3b f1 01 c0 40 35 c7 3e
       -1.8678175 -1.6182245 -2.0303485 0.38907814

encoder.1.1.running_var f4 [32]
000000 70 bf 9a 3f 36 7f 27 3f 7f 1a 99 3f d7 d6 ed 3e
       1.2089672 0.65428483 1.1961211 0.46452972
000010 8a 2e 11 3f 35 c7 97 3f d3 3e 57 3f 0a de 87 3f
       0.5671164 1.1857668 0.8408024 1.0614636
000020 6f 8e 2a 3f 47 24 a9 3f 00 3d ce 3f 5f 0d b5 3f
       0.66623586 1.3214196 1.6112366 1.4144706
000030 d6 d6 88 3f 75 e4 b5 3f ee 39 b6 3f 06 8f 3e 3f
       1.0690563 1.4210345 1.4236429 0.74436986
000040 be 71 6d 3f d3 cf a7 3f 79 a5 33 3f de b8 8f 3f
       0.9275168 1.3110298 0.70174366 1.1228292
000050 ca 75 58 3f d2 8b 69 3f 45 e4 77 3f bf c8 93 3f
       0.8455473 0.91228974 0.96832687 1.1545638
000060 69 3a 45 3f 51 8a 7a 3f 95 13 37 3f 9f e6 88 3f
       0.7704225 0.97867304 0.71514255 1.069538
000070 d6 8f b5 3f b8 47 c6 3f 28 2f 9d 3f f0 18 76 3f
       1.418452 1.5490637 1.2280016 0.961318

encoder.2.0.weight f4 [16, 32]
000000 bd 20 56 be 03 b0 9b 3d 2d 6f 17 be a5 2b 98 3d
       -0.20910926 0.07601931 -0.14788504 0.074301995
000010 be f4 ac bd 71 27 b4 bc 18 c5 6a be 92 d8 b6 3d
       -0.08445118 -0.021991463 -0.22926748 0.08928026
000020 b3 af fd bd 93 72 11 3d 68 aa 82 3d 30 c3 1c be
       -0.123870276 0.035509657 0.06380159 -0.15308833
000030 5b df 12 3b 14 9c e4 3d 39 fc ad 3d 08 fa 39 be
       0.0022410962 0.11162582 0.08495373 -0.18161786
000040 1f 7b 12 bd 9a 6f f5 bd d5 55 6a 3d 68 8c a1 3c
       -0.03576195 -0.11984177 0.057210762 0.019720271
000050 28 14 fe 3d fb 9f cb bb 16 a9 28 3e 59 d3 a2 bb
       0.12406188 -0.0062141395 0.16470751 -0.0049690423
000060 46 0f 4b be 16 24 8b bd 51 cc 28 3d c6 5a 88 3c
       -0.19830045 -0.06793992 0.041210476 0.016644847
000070 d1 b1 f1 bd 49 78 3c 3d 8c ca 7c bc 98 44 0d 3e
       -0.11801494 0.04601315 -0.01542915 0.13795698
000080 35 0c 1e be 94 a5 7e 3d 4e 3d 50 3d 17 36 cf 3d
       -0.15434344 0.062169626 0.050839715 0.10117739
000090 0a c9 83 3d b8 e1 1c bd cb 8e 45 be 18 8d 98 3d
       0.064348295 -0.0383012 -0.19292752 0.074487865
0000a0 6f 20 81 be 64 d5 ea bd f3 67 b5 3d b5 7a e0 bd
       -0.25220057 -0.11466482 0.08857717 -0.109609045
0000b0 b4 d2 0d 3e 26 f0 bc 3d 47 21 6b 3c 15 b9 eb bd
       0.13849908 0.09225492 0.014351196 -0.11509911
0000c0 ef 40 51 3d 95 64 53 3b 3a 50 61 bc 1d 05 a9 bc
       0.051087316 0.0032255996 -0.013752038 -0.020632321
0000d0 7b 82 51 bd ce 57 fc bd ef 09 00 3e 13 13 11 ba
       -0.051149826 -0.12321435 0.1250379 -0.00055341533
0000e0 00 81 30 be 8d 38 5e 3d fa ec d9 bd 4f ea 55 bd
       -0.1723671 0.05425315 -0.10640903 -0.052225407
0000f0 c4 08 82 bd c6 6c b8 3d 3f db 96 3d 45 90 c6 3d
       -0.06349328 0.09005122 0.073660366 0.09695486
000100 c4 98 e6 3d 67 b9 e1 bd 13 f7 e8 3d eb d6 03 be
       0.112596065 -0.11021691 0.11375251 -0.12874953
000110 7f 31 7d bc ae e2 2a 3d 22 08 21 3e 4e 54 f2 3d
       -0.015453695 0.041720085 0.15725759 0.11832486
000120 7a 0f 89 3d d3 db 84 3d 7b bd 12 3b 98 7b db bd
       0.06692405 0.06487241 0.0022390771 -0.10716933
000130 44 e1 15 3d 41 ed 63 3d 59 9f 9d 3d ce ef 66 3e
       0.036591783 0.055646185 0.07696409 0.22552416
000140 e5 ae 20 bc 57 19 8b 3d bc 32 68 3d 7e 28 9f 3c
       -0.009807323 0.067919426 0.05668901 0.019428488
000150 fd a6 b9 bd 68 7a 5a 3e 2a 93 3a 3d a3 64 b4 3c
       -0.090650536 0.21335757 0.045550503 0.022020644
000160 8c d1 21 3e 5f 1e a1 bd 42 a4 c7 bd 34 6d 33 3e
       0.15802592 -0.07867121 -0.097481266 0.17522126
000170 40 85 2b bd 4e 18 01 be a2 1e 00 be 54 85 a4 3d
       -0.041875124 -0.12606928 -0.12511685 0.08033243
000180 ca eb 8e be 23 cb 8a 3d 76 a2 e0 bd 48 15 f8 bc
       -0.27914268 0.067770265 -0.10968487 -0.030283585
000190 4b 96 c3 bd d2 1d 1f 3e 8f 83 16 be 1f c2 80 bd
       -0.095501505 0.1553872 -0.14698623 -0.06287026
0001a0 a1 9f 55 be c4 6a d5 bd 2b 9f d5 bd d3 94 26 3e
       -0.20861675 -0.104207546 -0.104307495 0.1626771
0001b0 1e 83 5c 3d 0f 70 70 bd c5 d5 2b bd 98 06 6b be
       0.05383598 -0.058700617 -0.041951913 -0.22951734
0001c0 ef 91 b7 3c c4 c1 f1 bb 1c 2e 17 bc 21 3c c2 3d
       0.022408454 -0.007377835 -0.009227302 0.09484125
0001d0 64 ae 09 be 13 ec 1d be ff 66 e4 3d 59 a0 db bd
       -0.13445431 -0.15422086 0.111524574 -0.10723943
0001e0 c5 97 14 be a2 94 7c bd 86 ea 5c bd 11 9f dc bd
       -0.1451102 -0.061665185 -0.053934596 -0.10772527
0001f0 d0 aa fe 3d 3f 04 17 3e 8b 1a 4b 3d 1a 4f 32 bd
       0.12434924 0.14747714 0.04958586 -0.04353247
000200 cb d1 75 be be 41 47 3e f1 04 7b be 53 e0 aa 3c
       -0.24005811 0.19458672 -0.24513604 0.02085892
000210 73 a7 67 3d f4 27 57 bc d6 ea 43 be 2a d7 2d be
       0.056556176 -0.013132084 -0.19132552 -0.1697661
000220 d5 8d 76 be b6 38 a2 3d 7a 57 10 be 8e 29 00 be
       -0.24077542 0.07920973 -0.1409587 -0.12515852
000230 18 f5 a6 bd bd 9e 1d ba bb 2f 46 3b f9 07 50 be
       -0.08152217 -0.00060127286 0.0030240852 -0.20315541
000240 ed d1 7c bd 57 2f b0 bd 67 c8 2f 3e 04 12 62 3d
       -0.06172364 -0.08602779 0.17166291 0.055192962
000250 41 61 e0 3d 90 ba 09 be a8 e9 6f 3d eb 1a f2 bd
       0.1095605 -0.13450074 0.05857244 -0.118215404
000260 66 b1 1a 3d 88 d3 18 bc 4f f1 21 3e 47 30 b3 bd
       0.037766837 -0.009327777 0.15814708 -0.087494425
000270 d4 c3 3c bd ee f9 b3 3c 2e 70 53 3e eb 98 ad 3d
       -0.046085194 0.021969762 0.20648262 0.084764324
000280 0d 35 1f be da 7b 0f be 58 f7 0c 3e 06 cf d7 3d
       -0.15547581 -0.1401209 0.13766229 0.105375335
000290 42 84 8a 3d 54 ec 0a bc ec ed 86 3c e2 af 43 3d
       0.067635074 -0.008479197 0.016470872 0.047775157
0002a0 94 90 03 be 7c 4a c0 3d c0 cb c0 bd fa 98 c1 bd
       -0.12848121 0.09389207 -0.09413862 -0.09453006
0002b0 69 9b 28 be 95 34 ab 3d 32 e7 bd bc 7d e3 77 be
       -0.16465534 0.083596386 -0.023181532 -0.24207874
0002c0 58 d1 22 bb 39 47 f6 3c c1 72 6c 3d 2f 16 19 be
       -0.0024844017 0.030063258 0.057726625 -0.14949869
0002d0 ad d9 89 3c 41 b9 5b be d6 34 10 be fd c8 cd 3d
       0.016827429 -0.21457388 -0.14082655 0.10048101
0002e0 b9 ea 86 be 99 5a 47 bc d4 d4 c8 3d 78 84 15 bd
       -0.26350954 -0.012167596 0.09806219 -0.036503285
0002f0 b8 c9 91 bc b5 7b 8f bd c1 bd 0e 3d 74 41 f7 bd
       -0.017796382 -0.07006017 0.034848932 -0.12073031
000300 c8 0e 03 bd be ea 49 be 44 63 84 bd 4b 40 a0 be
       -0.03199652 -0.19718453 -0.06464246 -0.31299052
000310 98 bb 5e bd 3a 2d 49 3c 89 d4 1a 3e 6c c8 19 bd
       -0.054378122 0.012278849 0.15120138 -0.037544653
000320 d6 44 b6 3c ee 81 ca bb ac 24 f3 3c e6 c3 9d 3d
       0.02224962 -0.0061800396 0.029680572 0.0770338
000330 81 88 79 be 2d b4 2a bd 2a cd f4 3d ac af 29 3e
       -0.24368478 -0.041675735 0.119531944 0.1657092
000340 b4 30 55 3d db c1 39 bd c9 9e 7b bb b4 cf fe bd
       0.0520484 -0.04535089 -0.0038394204 -0.1244196
000350 a4 90 47 bd 00 94 fb bc ec 60 18 3e 14 87 15 3c
       -0.048721924 -0.03071022 0.14880723 0.009126443
000360 55 ec 5e bc cf bb ab bd f8 d0 e4 3c 83 f9 92 3d
       -0.013606151 -0.08385431 0.027931675 0.07176497
000370 57 07 ef 3b 66 d8 09 be b5 cb e9 3a 18 30 77 bd
       0.007294576 -0.13461456 0.0017837199 -0.0603486
000380 df 46 bf 3d 50 6d fa 3b 1a 01 aa bc 8c f1 25 bc
       0.093396895 0.0076424256 -0.020752478 -0.01012839
000390 44 53 97 bd ca 18 17 be 81 c6 1a 3e 70 1f ad 3c
       -0.073889285 -0.1475555 0.15114786 0.021133155
0003a0 11 d6 3d 3e 6f 9d 21 3e b6 a5 b9 bd 81 9f 16 3e
       0.18538691 0.15782712 -0.0906481 0.14709283
0003b0 fa 3b db bd 29 dc 96 bd eb 7c 15 3c b9 b4 7f 3e
       -0.10704799 -0.07366211 0.009124021 0.24971284
0003c0 52 49 88 bd 00 56 db bc ea 99 1d be bf 87 14 be
       -0.0665461 -0.026774406 -0.15390745 -0.14504908
0003d0 a9 3b fe bd ef 25 18 3e f4 c0 3b bd 65 4e 56 be
       -0.12413723 0.1485822 -0.04583831 -0.20928343
0003e0 9e f6 83 bc a1 12 99 3c db 6a d2 bd 4f 87 fd bc
       -0.016108807 0.01868564 -0.10274287 -0.03094831
0003f0 9a 3c 70 3d 29 9a 03 3e 81 69 11 3e 02 c3 05 be
       0.058651544 0.12851776 0.14200403 -0.13062671

encoder.2.0.bias f4 [16]
000000 43 dc ac 37 f5 49 32 3a 27 57 bd 39 4a bf 74 38
       2.0606565e-05 0.00068011816 0.00036113823 5.8352285e-05
000010 e2 27 90 38 6e 1d 36 b9 88 14 88 3a 1d 5a cf b7
       6.873884e-05 -0.00017367836 0.0010382095 -2.4718285e-05
000020 53 18 05 39 63 c6 1e b9 cb 72 ac 39 79 7a e8 38
       0.0001269293 -0.00015141959 0.00032891924 0.000110854344
000030 7d c0 24 b7 4d bf a5 38 6e c0 2c b9 f1 e3 a9 3a
       -9.819979e-06 7.903446e-05 -0.00016474884 0.0012961609

encoder.2.1.weight f4 [16]
000000 a6 bb 79 3f f5 1a 78 3f 00 bb 8e 3f bc 50 8b 3f
       0.97551954 0.96916133 1.1150818 1.0884013
000010 b8 d0 79 3f 32 94 59 3f c8 99 8e 3f 11 e8 53 3f
       0.97584105 0.84991753 1.114068 0.8277598
000020 f5 e0 83 3f 98 33 8a 3f 1b 73 70 3f ad 4e 5d 3f
       1.0303026 1.0796995 0.93925637 0.86448175
000030 79 18 83 3f cc 20 68 3f 6d db 77 3f 69 6e 6a 3f
       1.0241843 0.90675044 0.9681919 0.9157472

encoder.2.1.bias f4 [16]
000000 95 36 cc 3d f6 fb 9d bd d4 d8 14 be b9 b5 2c 3e
       0.09971348 -0.07714073 -0.14535838 0.16866197
000010 a2 72 0c bd 71 4a d5 3d 1c cc 55 be 7e de 05 be
       -0.03428901 0.10414589 -0.20878643 -0.13073155
000020 2d 68 c4 3d a4 ab 14 3d 02 5c 8f 3e 02 9f f2 bd
       0.095901825 0.0362965 0.27999884 -0.118467346
000030 fe 05 4b 3c 20 25 37 3e 5f c5 10 bd ec fd 55 bd
       0.012391565 0.17885256 -0.035344478 -0.052244112

encoder.2.1.running_mean f4 [16]
000000 75 95 51 be de 97 13 be a7 90 af 3e ae 97 f6 be
       -0.2046717 -0.14413401 0.34290048 -0.48162597
000010 93 c0 a5 be 0e 9b 0a bf b9 11 a8 be 8c 54 88 bc
       -0.32373485 -0.54142845 -0.3282602 -0.016641878
000020 87 d0 bd be 4a 45 01 bf 7c 3f d1 be 01 ea cc be
       -0.37073156 -0.5049635 -0.40868747 -0.4002228
000030 1b e9 0f bf a7 a9 b7 be 20 50 e4 be fc c2 cc 3e
       -0.56215066 -0.35871622 -0.4459238 0.3999251

encoder.2.1.running_var f4 [16]
000000 1c 40 2c 3f 72 ab 1f 3f 19 ea 03 3f 73 4a 3a 3f
       0.67285323 0.6237098 0.5152908 0.7276985
000010 20 d4 2c 3f 05 76 8b 3e 75 8f a8 3e b7 ea 2b 3f
       0.6751118 0.2723848 0.3292195 0.6715502
000020 3b fa 33 3f d0 c7 26 3f 55 74 d4 3e da 80 c2 3e
       0.70303696 0.6514864 0.41495004 0.3798893
000030 bf 24 81 3e 50 46 b7 3e 4a c1 84 3f 55 b5 fa 3e
       0.25223348 0.35795832 1.0371487 0.4896647

decoder.0.0.weight f4 [32, 16]
000000 50 63 8d be 49 0f 00 3e c6 e9 5f be a7 5c ca bd
       -0.27614832 0.12505831 -0.21866521 -0.09880953
000010 59 70 be 3d 13 90 39 3d 0f 61 97 3d 19 49 dd 3b
       0.09298772 0.045303416 0.07391559 0.0067530987
000020 94 e5 39 be 17 8f 86 be 64 a0 1c 3e 3f b9 c9 bc
       -0.18153983 -0.26281044 0.15295559 -0.024624465
000030 32 b5 59 be 8e de fd bb 0d f0 6b be 9f fe 4c 3e
       -0.21260527 -0.007747478 -0.23040791 0.20019005
000040 0d 61 76 be 82 13 a3 3d 57 71 ba be ac f3 55 bd
       -0.2406046 0.07962705 -0.36414596 -0.052234337
000050 14 55 33 bd b2 09 f8 3c d4 c6 8c be 33 60 e7 3d
       -0.04378231 0.03027806 -0.27495444 0.112976454
000060 18 40 b0 3d 89 cf c1 be 1e a6 83 3d 89 73 d8 bc
       0.08605975 -0.3785365 0.06428169 -0.026422279
000070 7a a1 ee 3d 62 bb 1e be 8e 5e 04 be ad 07 93 bd
       0.11651893 -0.15501168 -0.12926695 -0.071791984
000080 2b f1 17 be ee ee 1e be c5 c8 f4 bd 22 38 bb bd
       -0.14838092 -0.15520832 -0.11952356 -0.09141566
000090 5d 4f 1e be 23 1c 6b bb 44 be 3f 3e 76 b9 82 3d
       -0.15459962 -0.0035874925 0.18724924 0.0638303
0000a0 e0 cd ec bd 77 01 72 be 51 43 fb bd 67 ee f2 bd
       -0.11562705 -0.23633371 -0.12268699 -0.11861878
0000b0 67 10 2b be b0 05 16 be ff 29 d6 bd 18 76 4d 3c
       -0.16705476 -0.14650607 -0.10457229 0.012540363
0000c0 89 d7 96 3d 2d 90 81 bd 9d 11 48 3e 23 0c 2e be
       0.07365329 -0.063263275 0.19537969 -0.16996817
0000d0 30 04 36 be e8 ff 3d bd 8e 1c 5d bb 8c 68 42 be
       -0.17775035 -0.04638663 -0.0033738944 -0.18985194
0000e0 d4 14 8c be 3a 17 8a be 22 9f 9a be 22 ba 25 be
       -0.2735964 -0.26970845 -0.30199534 -0.16184285
0000f0 23 56 95 be ee e7 96 be 99 74 bc 3c ee 44 a7 bc
       -0.2916728 -0.29473823 0.023004817 -0.02041861
000100 c4 25 c9 bd d4 8d 17 3e 25 99 54 3e 28 aa 08 be
       -0.09821656 0.14800197 0.20761545 -0.1334616
000110 6b fe 1e be 93 4a 19 3d 1e df bc be 90 f2 c5 3d
       -0.1552674 0.037424635 -0.36888975 0.09665406
000120 9f 68 fd bd b7 78 0f 3e 05 55 03 bd fa 8e 5f be
       -0.123734705 0.14010893 -0.032063503 -0.21831885
000130 b6 d1 2a 3d 23 03 df bc 76 ce ab 3d be 4a 68 be
       0.041703902 -0.027223175 0.08388989 -0.22684762
000140 d2 11 c7 bc 4c 81 af 3d 6a b1 d5 3d 37 61 88 be
       -0.02430049 0.08569583 0.1043423 -0.2663667
000150 85 13 18 be 97 be 1d bd b3 bf 3b be 0b a9 0c 3d
       -0.14851196 -0.03851184 -0.18334846 0.0343409
000160 4b 0f 87 3c db e1 9f be 0f cf 84 3d d6 3e c5 bd
       0.016486784 -0.31227002 0.06484806 -0.09631126
000170 4d c9 46 bd cf b7 37 be 24 36 0f be ee d3 e7 bd
       -0.04853182 -0.17941211 -0.13985497 -0.11319719
000180 91 d1 6e 3d 91 8e 94 bd 48 00 3e be f9 9b 8f be
       0.058305327 -0.07253755 -0.18554795 -0.28048685
000190 c0 13 c8 3d b0 22 f6 3d d8 25 bd bc 26 20 25 be
       0.09769392 0.12018335 -0.023089334 -0.16125545
0001a0 5e 7e 31 3e c1 72 23 3d d3 97 08 bd ff d9 49 bd
       0.17333362 0.03990436 -0.033347916 -0.049280163
0001b0 ed 80 44 3c 6b 8f 29 be a9 da 64 be 3a 24 54 be
       0.011993629 -0.16558616 -0.22349037 -0.20716944
0001c0 6a b8 1b 3e 80 d1 83 38 dc d8 48 3e 02 76 b4 3e
       0.15207067 6.285589e-05 0.19613975 0.35246283
0001d0 a8 f5 a7 bd 90 af 0a be 81 1b 57 be e7 88 93 3d
       -0.08201152 -0.13543534 -0.21006586 0.072038464
0001e0 00 8f 2c be f8 90 59 3e ba e1 b1 3d 10 59 5f be
       -0.16851425 0.21246707 0.08685632 -0.21811318
0001f0 82 fa 44 3e f0 ed a0 bd 58 cd 1f bd 0c 06 15 be
       0.19236186 -0.07857883 -0.03901419 -0.14553088
000200 41 1e 05 bd b8 37 c7 3d fe e8 a3 be 12 9a be 3d
       -0.032499555 0.097274244 -0.32013696 0.0930673
000210 9e 85 09 3e 17 bf 8d 3d 75 d8 67 bd 27 86 45 3b
       0.13429877 0.06921213 -0.056602914 0.0030139775
000220 1b 4f 8f 3e 71 1c f0 3d b1 be bc 3c ea a7 2c 3e
       0.2799004 0.11724175 0.023040147 0.16860929
000230 a1 24 63 3e a9 e2 9b bd 49 db 58 3e 1e 1f 9e bc
       0.22181942 -0.07611591 0.211774 -0.019301947
000240 23 25 df 3d ce 95 9a 3d 6b b7 bb be 41 ff 59 3e
       0.10895755 0.07548104 -0.36663374 0.21288778
000250 bb 01 c9 3d b7 f9 c9 3d fa 0b aa 3c ee 47 a1 3d
       0.09814783 0.098620825 0.020757664 0.078750476
000260 a7 1b 54 3e df ac 0d 3e f9 b8 72 3e d4 fc 17 3e
       0.20713674 0.13835476 0.23703374 0.1484254
000270 62 ff 99 bd 89 88 a6 bd 6c 58 d5 bd cb 26 ab 3d
       -0.075194135 -0.08131511 -0.10417256 0.083570085
000280 19 2d 87 bc a1 d6 65 3e c9 34 0e 3e bf 77 d7 3d
       -0.016500996 0.22445156 0.13887323 0.10520887
000290 b6 34 d0 3d a3 40 04 3e 83 24 20 be 14 5e 62 bd
       0.10166304 0.12915282 -0.15638928 -0.0552655
0002a0 b0 3f 0a 3e 1f 6d 5f 3d f1 8b ac bc 56 3e 81 bd
       0.13500857 0.054547425 -0.021062823 -0.06310718
0002b0 ea c8 00 be f4 10 90 bc bb 31 03 3e 0f 2c a5 3c
       -0.12576643 -0.017586209 0.1281194 0.02016261
0002c0 15 4f 7d 3e d5 a6 17 3a 61 59 26 3e 74 3d 58 3d
       0.24737199 0.0005785053 0.16245033 0.05279298
0002d0 8f f4 3b 3d 4f f1 57 be 26 33 24 3e 2f 2b be 3d
       0.045887526 -0.21088146 0.16035137 0.0928558
0002e0 05 62 b2 bd a6 2c 8e bc 70 f9 ce bd 5e 59 5d 3a
       -0.08710102 -0.017355274 -0.1010617 0.00084437977
0002f0 f7 76 f6 bd e1 e8 62 bd 07 80 20 3c 1d 4e 0b 3e
       -0.120344095 -0.055397872 0.009796149 0.13604017
000300 f3 a4 73 bc 89 6a 50 be 9c 37 c9 be 02 41 94 3e
       -0.01487087 -0.2035314 -0.3930024 0.28955847
000310 2c 8b 4e 3e 5e 1a b5 3d 38 df 83 3d 63 91 ba 3c
       0.20170277 0.0884292 0.0643906 0.022774404
000320 2e 70 ef 3c 51 26 9f bd 0b b5 cb 3c 0d e7 1b be
       0.029228296 -0.0777098 0.024866601 -0.15224858
000330 41 13 30 3e 44 c3 28 be 1a a9 57 3e 4b cf 74 3d
       0.17194845 -0.16480738 0.21060601 0.059768002
000340 9c 77 1c be bc 6e 0f 3e 0b 0f a7 bd a6 3e 68 be
       -0.15280002 0.14007086 -0.08157166 -0.22680148
000350 f6 6b 5c 3d 96 59 94 be fc 43 67 3d 8e 09 fa bc
       0.053813897 -0.289746 0.05646132 -0.030522134
000360 0c cd 5b be 83 8d 70 be 65 2e 5b bc bf 75 cc bc
       -0.21464938 -0.23491482 -0.013377761 -0.02495849
000370 76 76 ed bd e4 f0 03 be a7 f8 a8 3d 46 0f c1 3d
       -0.1159486 -0.12884861 0.08250552 0.09426741
000380 25 5c 8b 3e 19 7f df bc df 70 2b bd 26 59 44 be
       0.27218738 -0.027282285 -0.04185569 -0.19174632
000390 d9 c2 71 3e 9d 93 4b be e6 98 df bd 6c 6c a7 bc
       0.23609485 -0.19880529 -0.10917835 -0.020437442
0003a0 1f d3 cd bd e0 49 a6 bd 57 ad f9 bd 9d 64 0a 3e
       -0.10050034 -0.08119559 -0.12191265 0.13514943
0003b0 8d 83 d0 bd 86 53 bf bd 1a 4b 98 3e 7d 96 81 3e
       -0.10181341 -0.09342103 0.29744798 0.25310126
0003c0 31 a9 18 3e 2a 32 fc bd fb e3 98 be 8d c9 73 3e
       0.14908291 -0.123142555 -0.29861435 0.23807354
0003d0 eb a4 62 be 9c ce 23 be 13 01 37 be f7 75 88 be
       -0.22133224 -0.15996784 -0.17871504 -0.266525
0003e0 f1 f5 12 3d 17 7b 36 3e c4 c9 fb bd 7a 4e 39 3e
       0.03587908 0.17820393 -0.12294343 0.18096343
0003f0 f6 5f 0b 3e 18 f0 8b 3c ab e4 94 3c 82 61 a0 be
       0.13610825 0.017082259 0.018175444 -0.31324393

decoder.0.0.bias f4 [32]
000000 ae 3e d3 b9 18 56 a5 b8 53 51 40 b9 64 42 52 37
       -0.00040291756 -7.883849e-05 -0.00018340843 1.2532433e-05
000010 ed 18 29 39 c3 d7 12 b9 32 a4 ad b8 42 46 34 b9
       0.00016126382 -0.00014004023 -8.2798666e-05 -0.00017192311
000020 b9 13 71 38 bb 01 92 b8 52 4a 5e 39 a6 06 b8 b9
       5.7477246e-05 -6.962145e-05 0.00021199256 -0.00035100168
000030 e3 5e 9c b8 e9 68 5e 39 d4 a4 39 39 8f bb 69 39
       -7.456334e-05 0.00021210652 0.00017704378 0.00022290483
000040 0d 7f 93 b9 98 ba 36 ba 96 95 4a 39 21 af 0c b8
       -0.00028132685 -0.00069705537 0.00019319946 -3.3541703e-05
000050 10 7d 9f 38 86 e6 c4 b7 92 af 39 39 c4 07 40 39
       7.6050055e-05 -2.3472367e-05 0.0001770838 0.0001831344
000060 2f 83 46 3a d0 a0 a4 b9 43 50 3b b9 80 7d 81 39
       0.00075726485 -0.00031400332 -0.0001786361 0.00024698302
000070 3b b0 cf 37 30 e8 b0 b8 1d 23 49 b9 e9 33 8e 38
       2.4758387e-05 -8.435582e-05 -0.00019181934 6.780757e-05

decoder.0.1.weight f4 [32]
000000 9a 6b 8f 3f 6d cc 82 3f 4e 85 95 3f 01 c9 8a 3f
       1.1204712 1.0218636 1.1681306 1.0842592
000010 06 17 69 3f 1b ee 62 3f f2 47 78 3f 09 16 77 3f
       0.91050756 0.8864457 0.9698478 0.96518
000020 ce 87 61 3f ac fd 63 3f cd 8e 7b 3f 07 53 93 3f
       0.88097847 0.8905895 0.9826477 1.1509713
000030 6a 87 76 3f 7a 3f 9c 3f a7 e3 76 3f fb ef 84 3f
       0.96300375 1.2206872 0.9644112 1.0385736
000040 be 7c 88 3f fd ff 8f 3f 49 95 95 3f 6a 78 75 3f
       1.0663068 1.1249996 1.1686183 0.9588686
000050 c9 8e 8c 3f 0a c1 89 3f 19 f3 8d 3f cd 7b 88 3f
       1.0981075 1.0762036 1.1089813 1.0662781
000060 24 d6 89 3f 1e 0c 90 3f 07 ba 83 3f 59 1e 90 3f
       1.0768476 1.1253698 1.0291146 1.1259261
000070 93 8e 88 3f ae b7 8e 3f 61 02 85 3f e3 9d 8a 3f
       1.066851 1.1149805 1.0391351 1.0829433

decoder.0.1.bias f4 [32]
000000 f0 3f 0a be d5 71 7c 3e 74 03 40 bb 43 98 cb bd
       -0.13500953 0.24652798 -0.0029298933 -0.09941151
000010 6a bf 8a bd 13 d8 41 bd 7f ce 29 3e 3a 74 16 3d
       -0.067747906 -0.047325205 0.16582678 0.036731936
000020 96 fa 4c 3e 76 ae 68 3e f6 dc fb 3c 4d 60 83 be
       0.20017466 0.22722802 0.03074501 -0.2565941
000030 98 a8 54 3e 4d 03 aa be ec f0 7f be f0 c0 89 3d
       0.20767438 -0.33205643 -0.24994248 0.06726253
000040 11 d5 52 3b 24 5b 5d be 80 78 bc bd 19 99 b2 3d
       0.0032170455 -0.21616799 -0.09202671 0.08720607
000050 62 48 1c 3e 1b c9 06 3e 72 f8 27 be 0c c4 42 3e
       0.15261987 0.13162653 -0.16403368 0.19020098
000060 e1 a7 b7 be b9 be 7c be 50 a8 0a be 10 7f 77 be
       -0.3587027 -0.2468213 -0.13540769 -0.24169564
000070 61 c4 17 3d 18 7d 3f be 2c f1 d9 3d d2 25 2d 3e
       0.037052516 -0.18700063 0.10641703 0.16908959

decoder.0.1.running_mean f4 [32]
000000 ca 0c af be 63 3f f9 be 59 82 13 bf de 5c 50 bf
       -0.34189445 -0.48681173 -0.5762077 -0.81391704
000010 79 e4 84 be e4 a9 fd be 0a 9c aa be 8e 7c 20 3e
       -0.2595556 -0.4954368 -0.33322173 0.15672514
000020 00 41 b2 3e 9b db c9 3e 8a 6d 5f 3e f0 ca bc 3d
       0.34815216 0.39425358 0.2181913 0.09218395
000030 45 37 c4 3d 35 7d fb be d8 37 42 bd 98 e3 3b be
       0.09580854 -0.49118963 -0.047416538 -0.18348539
000040 7d fe 2c 3e fe 1a d0 3c f7 e4 cd be dd f4 df 3d
       0.16893955 0.025403496 -0.4021375 0.10935376
000050 64 3b 25 be 9c d8 42 be 2d d0 02 be 63 bf 78 be
       -0.16135937 -0.19027942 -0.12774725 -0.24291758
000060 13 ce 1b be 75 b3 22 be 5a 1e a4 be 10 93 99 be
       -0.1521533 -0.1588877 -0.32054406 -0.29995012
000070 65 3e 11 bd de a8 d7 be d1 80 8c bd af 01 0a 3e
       -0.035459895 -0.42121023 -0.06860507 0.13477205

decoder.0.1.running_var f4 [32]
000000 cb 1f 8c 3d 36 b0 04 3e 89 e7 35 3e 60 87 85 3e
       0.068420015 0.12957844 0.17764105 0.26079845
000010 f8 5a 41 3d 3b 72 2f 3d 5d 29 08 3e c2 be cf 3d
       0.047205895 0.042833548 0.13297029 0.10143806
000020 55 b2 75 3e b6 47 1c 3e b9 8a 6c 3d 38 1c 35 3e
       0.2399381 0.1526173 0.057749484 0.17686546
000030 41 e6 41 3e 9f ad ea 3d 50 5c 5f 3d 3a e7 ec 3e
       0.18935491 0.11458897 0.054531395 0.46270162
000040 e9 0e d7 3d e3 56 36 3e 88 21 c4 3d 38 1d 53 3e
       0.10500891 0.17806582 0.09576708 0.20616615
000050 21 3c d9 3e 55 d8 aa 3e dc c2 42 3e 9a 78 c9 3d
       0.42428687 0.33368173 0.19019645 0.09837456
000060 bc 5b f8 3d 8e 71 2a 3e f8 7e 3d 3e c3 e7 5d 3e
       0.12126872 0.1664488 0.18505466 0.21670441
000070 a0 8f 54 3e 8b 0b 60 3e 95 4c b6 3c ee 48 23 3e
       0.20757914 0.21879403 0.022253314 0.15945789
