saved-model/logmel/unetidnn/logmel-unetidnn-slider-4.pkl (torch, 144480 bytes, 32 tensors)

encoder.0.0.weight f4 [64, 256]
000000 20 39 cd 3c 44 53 98 3b 30 26 1a 3d ef 2b 89 b9
       0.025051653 0.004648598 0.037634075 -0.0002616341
000010 0f a6 c4 bc da a8 c1 bb 4f d8 82 3d 6d 0b d6 3c
       -0.024004964 -0.0059100213 0.06388914 0.026128495
000020 45 1f 36 bd 19 a6 f0 bc 8d 1e 81 bc b1 2b 80 bd
       -0.044463415 -0.029376077 -0.015761638 -0.062583335
000030 ad 80 d3 bb 11 dc 90 bc f0 e7 22 bd 54 24 cd 3d
       -0.0064545483 -0.01768306 -0.039771974 0.10016695
000040 21 92 1e 3e 57 5d 90 3d d8 6b 02 bd e9 52 67 bd
       0.15485431 0.07049053 -0.03184113 -0.056475554
000050 d3 c0 cc 3a b5 6c ba bc 10 8b 0c bd 6e 2d 40 bd
       0.0015621431 -0.022756914 -0.034312308 -0.046918325
000060 27 61 b0 bc 3c 91 71 bc 0e 24 c5 bc 94 a5 89 bd
       -0.0215307 -0.014744099 -0.024065044 -0.06721035
000070 81 7b a5 bd b0 99 3b bd 54 76 8b bc fa 6f c7 bd
       -0.08080197 -0.045800865 -0.017024197 -0.09738155
000080 e6 3b 8d bd 81 7c b7 bd e5 62 8f bd de c1 63 bd
       -0.0689619 -0.08959294 -0.070012845 -0.055604808
000090 a9 bf bf bd 34 46 26 bd be ed b3 3b 78 3e 05 bc
       -0.09362728 -0.040594295 0.0054909876 -0.0081325695
0000a0 8f 0e a6 3d 08 93 95 3c c6 ce f7 3c ca bb 84 3c
       0.081082456 0.018258587 0.030249964 0.016202826
0000b0 8e 33 8d 3d 67 81 ee bc 55 db 13 3d 1f 1e bb bd
       0.06894599 -0.029114438 0.036097843 -0.091366045
0000c0 2e 43 cd 3b 5c 97 fc bc 27 a2 d5 bd 5a c5 d9 bb
       0.006264112 -0.030833893 -0.10431319 -0.0066458406
0000d0 5e d4 03 3d 60 3c 28 bd ea 72 8d bd 77 cf 9e 3c
       0.03218495 -0.041073203 -0.06906684 0.019386036
0000e0 c9 06 dd bb 7b 79 5e 3c 30 cd 6e 3c 8e 5c 35 3a
       -0.0067451936 0.013578768 0.014575288 0.0006918394
0000f0 a1 2c 44 bd 5b 74 38 bc a4 16 11 3d f5 76 bd 3c
       -0.047894124 -0.01125821 0.035421982 0.023128012
000100 73 fd a9 3c e9 ab d2 3c b5 f0 e0 3c 05 4e 32 3b
       0.020750737 0.025716739 0.027458528 0.0027207148
000110 c9 85 89 bc 50 9a 0d bd 52 1b 35 3d 59 7c 90 3c
       -0.016787427 -0.034570992 0.044215508 0.017637419
000120 6c 2a 4c bd 22 96 fb bc 4d 09 b9 bc 9d 30 6d bd
       -0.049845144 -0.030711237 -0.022587443 -0.05790769
000130 4f ad 80 bc 8b f3 22 bd 67 ef 5b bd 50 6b 02 3e
       -0.01570764 -0.039783042 -0.05369511 0.12736249
000140 bd 72 3a 3e 01 65 31 3d a0 77 2c bd 73 bb a4 bd
       0.18207832 0.043309215 -0.04210627 -0.080435656
000150 b8 77 34 bd ec bb 21 bd 90 e3 69 bd f5 6a 8e bd
       -0.044059485 -0.039485857 -0.057101786 -0.06953994
000160 09 23 bb b9 7b a3 17 bd 70 43 f1 bc d1 c7 86 bd
       -0.00035693523 -0.03702114 -0.029451102 -0.06581081
000170 11 c4 2c bd b7 70 fa 3c 75 1a 8e 3c d4 bd a7 bc
       -0.04217917 0.030571325 0.0173466 -0.02047626
000180 6b d4 64 bb 9d 35 eb 3b e8 32 14 bd 79 ab 49 bc
       -0.003491665 0.007178022 -0.03618136 -0.012308949
000190 e3 00 1a bd 86 fc bf 3a 3e a6 c8 3c ed 7b f3 bc
       -0.037598502 0.0014647401 0.024493333 -0.029722178
0001a0 41 26 80 3d db 5b 24 bd 3c 7d d3 bc cc 9a 16 bd
       0.06257296 -0.040126663 -0.025816552 -0.03676872
0001b0 79 f7 07 3d c8 ff a2 3c e7 4a bf bc 26 d5 2c bd
       0.033194993 0.019897357 -0.023351146 -0.04219546
0001c0 d3 20 08 bc 80 82 8c bc 3b 1b 01 3d 4e 7e c6 3b
       -0.008308607 -0.017152071 0.03152011 0.006057537
0001d0 cf 2e 63 3d 10 41 50 3c b8 f5 76 bb 6a 98 a5 bc
       0.055464562 0.012710825 -0.003768308 -0.020214278
0001e0 f4 0d 8f 3c 79 d0 4e bc 22 86 bb 3d 00 d6 45 3d
       0.017462708 -0.012622946 0.09156443 0.04829979
0001f0 02 83 0a 3e e9 4e 02 3e 56 d3 e6 3d 00 e5 0d 3e
       0.13526538 0.12725414 0.11270778 0.13856888
000200 32 28 c9 3a 2d bf 94 3c 7d c2 69 3c 7b bc bf 3b
       0.0015347062 0.018157566 0.014267561 0.005851326
000210 af 5e af bc 96 ff 09 bd 4c d2 d7 3c 46 e2 8d 3a
       -0.021407453 -0.03369101 0.026345395 0.0010824881
000220 b3 cc 77 bd 43 a8 56 bd 52 c9 66 bd 35 e2 8e bd
       -0.06049795 -0.05240656 -0.056344338 -0.06976739
000230 88 02 9c bd c7 d9 19 bd 9a 77 af bd 85 b1 0b 3e
       -0.0761767 -0.037561204 -0.08567734 0.13641937
000240 5b 3c 34 3e ba 9b 60 3d 62 21 77 bd 39 a2 83 bd
       0.17601149 0.054836012 -0.06033457 -0.06427426
000250 5b ca 90 bd d0 ee d3 bc 15 ba c4 bd 68 97 22 bd
       -0.07069846 -0.02587071 -0.09605805 -0.039695174
000260 ae 42 b3 bc ce 11 3d 3c d0 65 6e bd c8 90 c8 bc
       -0.021882381 0.0115398895 -0.058202565 -0.0244831
000270 d2 6b 99 bd 0d ad a1 39 88 92 76 3c 80 5c 20 bd
       -0.07491268 0.00030837246 0.015049584 -0.039150715
000280 11 ae b3 bc 8a 43 91 bd 37 01 d7 ba a7 eb b9 bc
       -0.021933587 -0.0709296 -0.001640356 -0.022695376
000290 cf f0 03 bd 60 51 b2 bc 45 65 03 3d 4e 4c df bc
       -0.032212075 -0.021767318 0.032079 -0.027258065
0002a0 c0 cb 18 bc 48 72 56 bd 56 b5 8a bc 75 0a a5 bc
       -0.009325922 -0.05235508 -0.01693217 -0.020146588
0002b0 b3 df 13 3c 53 5b 5e 3c 8a 46 54 bd 59 40 b0 bd
       0.009025502 0.013571578 -0.051825084 -0.08606023
0002c0 f0 cb e0 bc 50 31 27 bd 13 bb b4 bc 89 78 0c 3c
       -0.027440995 -0.040818512 -0.02206186 0.00857366
0002d0 3d b6 36 3c 2b 1e 4b 3d a4 c5 7d 3d 3a bd 30 3d
       0.011151847 0.049589317 0.061956063 0.04314921
0002e0 d4 bf 66 3d ad 93 f3 3c ef ac fb 3c 91 42 94 3d
       0.056335285 0.029733503 0.03072211 0.07239259
0002f0 fe 14 02 3c 98 4a 0e 3d 8a bf da 3c 80 41 0a 3c
       0.007939575 0.034739107 0.026702661 0.008438468
000300 18 61 10 3b c4 7c 47 3c d5 e2 5f 3c b0 b3 fc 3a
       0.0022030529 0.012175743 0.013664921 0.0019279625
000310 08 b3 d0 bc 6e 00 6a bc 72 2f 52 3d 47 5a 8f 3a
       -0.025475994 -0.014282329 0.05131478 0.0010936939
000320 6d 68 61 bd c0 81 14 bd 01 e2 2b bd 6f ad 4c bd
       -0.05503123 -0.03625655 -0.04196358 -0.049970087
000330 43 fc 6b bd 94 d2 46 bd 64 64 0b bd 63 f3 e8 3d
       -0.057613622 -0.048540667 -0.034031287 0.11374547
000340 f6 d5 3a 3e 15 bc 16 3d 3d 53 2e bd d1 82 8f bd
       0.18245682 0.036800463 -0.04255985 -0.07007373
000350 28 44 bd bc d1 26 71 bd 83 c5 45 bd cc 70 78 bd
       -0.023103788 -0.05887491 -0.048284065 -0.060654446
000360 58 a8 1f bd 9f d7 57 3d e3 a4 6a bd e9 db 1f bd
       -0.038978904 0.052695867 -0.057286154 -0.039028082
000370 5b 06 8f bd 77 f1 9d 3b 76 c6 e4 b8 27 a4 35 bd
       -0.06983634 0.0048200446 -0.000109088534 -0.044346
000380 61 71 cd bd 9d 52 9d bd 28 c5 5f bd 0a 91 a4 bd
       -0.10031391 -0.07681773 -0.054631382 -0.080354765
000390 40 8c 63 bd 04 dc 40 bd fd 5e 94 3c ec c1 94 bc
       -0.055553675 -0.047084823 0.0181117 -0.018158875
0003a0 a2 37 8e bc f1 a8 02 3c ba 4c 94 3c ad c4 55 3d
       -0.017360512 0.007974849 0.018102992 0.052189518
0003b0 11 3a ab 3d d3 26 81 3d 34 c0 f9 bb 29 e4 4f 3d
       0.08360685 0.06306233 -0.0076217894 0.0507547
0003c0 58 28 77 3d cf 62 95 bc ab 6e e4 bd 4c 56 6a bc
       0.06034121 -0.018235592 -0.11153921 -0.014302801
0003d0 4b 95 b6 bc f5 0a 2d bb 61 0f f9 3c 19 db 9c 3d
       -0.022287985 -0.0026404236 0.030402841 0.07658977
0003e0 fb 67 06 3d b0 21 1b 3d 61 8e 2e b9 c7 00 be 3c
       0.032814007 0.037873924 -0.00016646973 0.02319373
0003f0 e9 99 28 3d d7 81 c6 bc 56 f3 c3 3c 1c 6d 40 3d
       0.041162405 -0.024231834 0.023919743 0.046979055

encoder.0.0.bias f4 [64]
000000 0d 25 62 38 f6 8d 37 b9 54 ce e3 38 48 df aa 38
       5.3917105e-05 -0.00017505125 0.00010862635 8.147821e-05
000010 d7 0f b8 38 3d eb f2 38 70 ea 41 b8 5c 56 5a 37
       8.776754e-05 0.00011583276 -4.6233123e-05 1.301392e-05
000020 b1 9b 9b b8 55 30 11 b6 bc ff af b7 29 54 c0 b7
       -7.419976e-05 -2.1634817e-06 -2.0980711e-05 -2.2927374e-05
000030 95 f2 52 b8 e0 2a 43 38 49 9f 09 38 e0 1c a6 38
       -5.0293824e-05 4.6531553e-05 3.281169e-05 7.920875e-05
000040 ea 07 3a b8 5f 0a c2 37 4c d6 bb b7 42 5d d1 38
       -4.4353226e-05 2.3131432e-05 -2.2391927e-05 9.983267e-05
000050 57 98 8b 38 55 4a 2b 35 10 f8 0e b9 1a 8e 2c b7
       6.656412e-05 6.381063e-07 -0.00013634586 -1.02850845e-05
000060 2e 5d 0b b8 6e 07 87 b7 9f 9e e1 b8 61 9a 05 37
       -3.3226963e-05 -1.6096714e-05 -0.000107583815 7.963362e-06
000070 4e 81 be b8 8c e1 8c b7 a5 47 1d 36 9f 23 d1 b7
       -9.083991e-05 -1.6794329e-05 2.3436526e-06 -2.4931329e-05
000080 2c 28 da 37 1a 5b 50 38 92 f4 46 b8 53 e3 09 39
       2.6006332e-05 4.967591e-05 -4.7434653e-05 0.00013150023
000090 f7 14 83 b7 39 c9 8a b8 5a b3 02 b9 02 8d 5a 38
       -1.562618e-05 -6.6178334e-05 -0.0001246458 5.2106574e-05
0000a0 b9 26 fd b8 49 bd 34 38 4d 1e 65 b6 51 29 a6 37
       -0.00012071193 4.309163e-05 -3.4141297e-06 1.9807982e-05
0000b0 c1 ab ab b8 18 89 0a 38 5b e5 13 b8 4b f5 95 38
       -8.185907e-05 3.3029442e-05 -3.5261135e-05 7.150563e-05
0000c0 5c 2c 60 b8 2c 69 d6 38 64 81 85 38 2d 1d cd b8
       -5.3447075e-05 0.00010223905 6.366035e-05 -9.780596e-05
0000d0 8c 46 a2 b7 4f 07 98 38 c1 0b 2a b7 7f 8c 8b b8
       -1.9344756e-05 7.249286e-05 -1.0135526e-05 -6.654206e-05
0000e0 5b 52 3c 37 fe c3 41 37 6f 59 7b b7 9e 69 5c 39
       1.1224848e-05 1.1549329e-05 -1.4981589e-05 0.0002102018
0000f0 5e e0 db b7 cd 08 f9 b8 05 d1 18 b7 5b 47 ea 37
       -2.6211314e-05 -0.000118748845 -9.108572e-06 2.7928201e-05

encoder.0.1.weight f4 [64]
000000 8c 0e be 3f 94 eb bd 3f f5 23 b8 3f 2e 05 b7 3f
       1.4848189 1.4837518 1.4385973 1.4298456
000010 5c 9a b7 3f 16 e0 bf 3f fe 5b b8 3f 47 93 b8 3f
       1.4343982 1.4990261 1.4403074 1.4419945
000020 19 0a c1 3f 53 57 b8 3f d1 82 be 3f 2c 81 b7 3f
       1.5081207 1.4401649 1.4883672 1.4336295
000030 cd 09 b8 3f 18 1b bf 3f 9f e8 bf 3f 87 e6 bd 3f
       1.4377991 1.4930143 1.4992865 1.4835976
000040 c2 11 b9 3f b0 55 be 3f 4b c4 bd 3f d2 a4 b8 3f
       1.4458544 1.48699 1.4825529 1.4425299
000050 ed 58 b8 3f f1 f9 b7 3f c5 60 b8 3f 8a ca b8 3f
       1.4402138 1.4373151 1.4404532 1.443681
000060 59 1f c0 3f e7 73 b9 3f 8c 0f b9 3f 63 a8 c0 3f
       1.5009567 1.4488496 1.445787 1.5051388
000070 ef 25 b9 3f c0 84 be 3f 35 2e b8 3f 5d 75 b7 3f
       1.4464701 1.4884262 1.4389101 1.4332691
000080 e9 d8 b8 3f 90 7e b7 3f 1a d7 b6 3f 17 59 bd 3f
       1.4441196 1.4335499 1.4284394 1.4792813
000090 b5 d3 b8 3f 01 c0 b8 3f e7 06 b6 3f 3b 14 b8 3f
       1.4439608 1.4433595 1.4220856 1.4381174
0000a0 63 8f b8 3f bc f2 b7 3f 40 35 be 3f 38 7e b8 3f
       1.4418758 1.4370952 1.4860001 1.4413519
0000b0 6d 40 b7 3f 9f e4 b7 3f f7 24 b9 3f 54 2d b7 3f
       1.4316536 1.4366645 1.4464406 1.4310708
0000c0 15 46 b8 3f 33 c1 be 3f 1a 50 be 3f e0 64 b9 3f
       1.4396387 1.490271 1.4868195 1.448391
0000d0 88 40 b8 3f a8 a9 b7 3f 82 e0 be 3f 85 ad b7 3f
       1.4394693 1.434865 1.4912264 1.4349829
0000e0 40 e5 b7 3f 3c a7 b8 3f 04 19 bd 3f 0e d9 bf 3f
       1.4366837 1.4426036 1.4773259 1.4988115
0000f0 da 16 ba 3f 5f e7 b8 3f 65 ba b7 3f 5f 8c be 3f
       1.4538224 1.4445609 1.4353758 1.4886588

encoder.0.1.bias f4 [64]
000000 95 b2 fe 3e 84 27 f7 3e 65 9b e4 3e bb e7 de 3e
       0.49745622 0.48272336 0.44649807 0.4353617
000010 2c 3c e2 3e 9f 49 f9 3e 9a 20 e2 3e 09 52 e5 3e
       0.44186532 0.4868898 0.44165498 0.4478915
000020 8f 08 00 3f 27 46 e6 3e bf c9 f6 3e 66 1c e2 3e
       0.5001306 0.44975397 0.48200795 0.4416229
000030 1b 77 e4 3e bc 87 fb 3e b0 d9 fb 3e 75 56 f9 3e
       0.4462212 0.49126995 0.4918952 0.48698774
000040 b7 94 e8 3e 28 65 fb 3e 1e ee fa 3e e3 7e e6 3e
       0.4542596 0.49100614 0.49009794 0.45018682
000050 a6 cc e7 3e fe 02 e5 3e 13 ed e4 3e eb b9 e7 3e
       0.45273322 0.44728845 0.44712123 0.45259032
000060 ab 5a fe 3e 26 48 e5 3e 9e 4e e9 3e c0 1f 01 3f
       0.4967855 0.44781607 0.45567793 0.5043907
000070 55 89 e7 3e 22 01 ff 3e 37 d9 e6 3e 9e 2b e3 3e
       0.45221964 0.49805552 0.45087597 0.44369215
000080 04 9e e6 3e 50 10 e4 3e 0a b8 e0 3e d9 45 f8 3e
       0.4504243 0.44543695 0.4389041 0.4849079
000090 bb a8 e4 3e fe 7f e6 3e 0e 7a da 3e 1d e3 e3 3e
       0.4465998 0.45019525 0.42671245 0.4450921
0000a0 7f 7a e5 3e d2 68 e5 3e 8f 03 fc 3e 8b 1a e2 3e
       0.4482002 0.44806534 0.49221465 0.44160876
0000b0 3b ea e1 3e 0d a2 e3 3e a9 d6 e8 3e b1 cf e0 3e
       0.44124016 0.44459572 0.45476273 0.43908456
0000c0 dc f4 e3 3e 53 f6 f8 3e 68 34 fc 3e 5f 6a ea 3e
       0.4452275 0.4862543 0.49258733 0.4578428
0000d0 d9 90 e3 3e 44 61 e4 3e 54 d2 fc 3e d6 a8 e4 3e
       0.44446447 0.44605458 0.49379218 0.44660062
0000e0 15 6f e2 3e c0 83 e3 3e 84 0a f6 3e 1a 9e 00 3f
       0.44225374 0.44436455 0.48054898 0.50241244
0000f0 c5 43 e7 3e 10 58 e7 3e 46 47 e5 3e d8 2a 00 3f
       0.45168892 0.45184374 0.4478094 0.50065374

encoder.0.1.running_mean f4 [64]
000000 b6 cf e0 41 cc b3 19 c2 20 61 82 42 9d 66 86 bf
       28.101421 -38.425583 65.1897 -1.0500065
000010 d5 46 a1 41 03 ae 03 c1 80 83 d2 c1 35 35 d4 40
       20.159586 -8.229983 -26.314209 6.631495
000020 2c d6 67 41 47 84 8b 42 94 6e ac c2 4d 7e 0d c1
       14.489788 69.758354 -86.21597 -8.843335
000030 50 a3 31 41 aa 0b c5 40 f9 27 9d c1 01 59 23 41
       11.102371 6.157674 -19.644518 10.209229
000040 8e 6b d6 3e ba 12 69 41 1e 50 27 41 c7 21 a9 c1
       0.41878933 14.567072 10.45706 -21.141493
000050 90 2b 87 42 c1 75 65 41 bc f2 11 c1 ab 9c c4 c1
       67.58508 14.3412485 -9.121761 -24.576498
000060 7a ea 39 c0 8d 27 73 40 01 cb cc 41 83 c2 6f 40
       -2.9049363 3.799289 25.599123 3.746247
000070 68 17 0c 41 45 79 d6 41 87 37 f7 c0 63 fe 97 41
       8.755714 26.809214 -7.7255282 18.999212
000080 d4 7e 61 41 a4 2c b0 41 e7 92 36 41 4e 3f bf c2
       14.093464 22.021797 11.410865 -95.62364
000090 e2 7b 26 41 12 e4 01 42 75 e1 61 41 7e bb 0d 41
       10.405245 32.472725 14.117543 8.858274
0000a0 59 1c ff 41 14 73 bd 40 e4 1f 0a c1 72 34 69 41
       31.888842 5.9202976 -8.632786 14.575304
0000b0 8d 76 2d 40 2c 27 8e c0 0d be fd 40 39 34 35 41
       2.7103608 -4.4422817 7.9294496 11.32525
0000c0 70 5e 58 40 c8 d5 5e c2 82 d8 b7 bf 29 59 72 c1
       3.380764 -55.70877 -1.4362948 -15.146768
0000d0 e1 29 cf 3f 56 34 b8 41 ac f6 46 40 14 ce 0d c1
       1.6184655 23.025555 3.1088057 -8.862812
0000e0 3f 81 8e 3f ed 63 03 41 7c 90 05 41 dd a8 89 41
       1.1133193 8.211896 8.3477745 17.207453
0000f0 cd 4f 17 c2 11 cc 6d 42 cc f0 1c 42 15 12 52 41
       -37.82793 59.449284 39.235153 13.129415

encoder.0.1.running_var f4 [64]
000000 d6 4d 97 42 07 39 33 43 0f c8 a0 43 cd f3 a7 42
       75.65202 179.22276 321.56296 83.97617
000010 af 27 be 42 61 a6 a4 42 0f e6 a3 42 8a 30 e8 42
       95.07751 82.32496 81.94933 116.0948
000020 ba a4 51 42 8c aa f8 43 5f ac f1 43 97 d5 b1 42
       52.410866 497.3324 483.34665 88.91717
000030 a4 74 37 43 07 08 87 42 06 21 ce 42 33 e1 bf 42
       183.45563 67.51568 103.0645 95.93984
000040 7c 5b c8 42 25 f3 8c 42 29 77 ea 42 fc 26 7b 42
       100.17868 70.47489 117.232735 62.78807
000050 1f 1a 9e 43 9c 17 22 43 9d 26 4c 42 5d 95 7f 42
       316.20407 162.09222 51.03771 63.895863
000060 be 93 a1 42 0d 97 23 42 d2 1b 94 42 75 fe a7 42
       80.78856 40.89751 74.05434 83.99699
000070 c7 d3 94 42 8a ab ab 42 c8 85 ce 42 ac 97 a8 42
       74.41363 85.83504 103.26129 84.296234
000080 ea ce 7b 42 3b ce 33 43 f5 59 e1 42 85 15 ec 43
       62.952065 179.80559 112.6757 472.16812
000090 e0 fa ad 42 99 32 13 43 f0 2b 3d 42 a4 65 c5 42
       86.98999 147.19765 47.292908 98.69852
0000a0 52 43 09 43 ae 05 4c 42 de f4 d7 42 0d b8 b1 42
       137.26297 51.005547 107.97826 88.859474
0000b0 8d fd 5b 42 1b ce 6c 42 95 bf 8a 42 5b 14 76 42
       54.99761 59.201275 69.37418 61.51988
0000c0 39 ca ad 42 32 9f aa 43 49 28 92 42 d7 51 9b 42
       86.894966 341.2437 73.07868 77.65984
0000d0 07 e9 8d 42 9b 16 43 43 ab 6c c8 42 c2 2f 29 43
       70.95513 195.0883 100.21224 169.18655
0000e0 c1 9c a3 42 6b 98 b5 42 4d cf c1 42 70 d6 62 42
       81.80616 90.79769 96.904884 56.70941
0000f0 31 21 ae 42 04 a3 8c 43 10 ee 8d 43 e8 52 a0 42
       87.06483 281.27356 283.85986 80.16193

encoder.1.0.weight f4 [32, 64]
000000 0e a4 af bd 9c 41 28 be ba b7 e0 3d 07 4a 17 3e
       -0.08576213 -0.16431278 0.10972543 0.14774333
000010 84 9d 45 3d 01 4d 2a bd 99 23 55 bc be 77 27 3d
       0.04824592 -0.041577343 -0.013008975 0.04088568
000020 f8 3b 3e bc 55 03 b6 bd 38 e6 56 bd 37 4f 46 3d
       -0.011610977 -0.08887354 -0.052465647 0.04841539
000030 a2 4b 76 3d 24 11 17 3d 10 d6 ca bd 45 1a 60 bd
       0.060130723 0.03688158 -0.099041104 -0.054712553
000040 5a 70 6b bd 3a 1c cd bd 69 a3 ce bd e4 57 ea bc
       -0.057480194 -0.100151494 -0.10089762 -0.028606363
000050 32 1c 37 bc 1f 81 9f bc fd 00 73 3d d3 a1 f5 3c
       -0.011176156 -0.01947075 0.059327114 0.02998439
000060 2b 3a 15 be 4f 59 ca bc 09 6a 04 bd 28 2c 2f be
       -0.1457297 -0.024700789 -0.032327686 -0.17106688
000070 0e 0e 8a 3c 9f c1 cb 3c d5 78 24 bb 6b 73 06 bd
       0.016852405 0.0248726 -0.0025096436 -0.032824915
000080 51 6d ae bd 3c d8 7b 3c 0c 60 c4 3d a6 38 93 3d
       -0.08516944 0.0153713785 0.09588632 0.07188539
000090 6b d0 5d 3c d2 26 26 bc 9c 4f c6 3d bc 72 04 3e
       0.01353846 -0.010141091 0.09683153 0.12934393
0000a0 ef 3f 9d 3d 5b 91 00 3d 16 cc 4b 3d be 7d 8c 3b
       0.0767821 0.03138862 0.04975518 0.0042874506
0000b0 25 a2 b9 3d 8b 69 3a bd 0b 9e 9b 3d 1a 36 17 bd
       0.0906413 -0.04551081 0.07598504 -0.03691683
0000c0 9c 9f ea 3c 35 6c c6 bd 40 52 3a be f8 bd 93 bc
       0.02864056 -0.096886076 -0.18195438 -0.01803492
0000d0 e5 01 26 bd c6 7f 82 3d e1 a1 90 bc e1 48 59 3c
       -0.04052915 0.06372027 -0.017655315 0.013262005
0000e0 ce 93 c5 3d 86 aa 25 bd 50 15 14 3d 4b 65 f2 bc
       0.09647332 -0.040445827 0.036153138 -0.029589316
0000f0 c9 52 d6 3d dd c0 32 3d 4a 50 51 bd 14 99 81 bd
       0.10465009 0.04364096 -0.05110196 -0.063280255
000100 2a c7 c6 bd 2e 58 2a 3d f2 e6 ba ba 8e 1e c7 3d
       -0.09705956 0.041588 -0.0014259501 0.09722625
000110 11 78 d4 bd 71 e9 9d bd 71 0b aa bb ac 36 06 3c
       -0.10374463 -0.07710541 -0.005189352 0.008191746
000120 88 48 ba 3c 5c ac d3 bd b2 31 ca 3c d3 60 5b 3c
       0.022739664 -0.10335609 0.0246819 0.013389784
000130 7b c7 64 bb b3 8e 46 3d 98 0d df bd 31 d4 d0 bd
       -0.0034908939 0.048475932 -0.10891265 -0.10196722
000140 67 fa c6 bc 2b 2d 89 3a 15 16 0f be 9f 28 16 bd
       -0.024289323 0.0010465732 -0.13973267 -0.036659833
000150 9a 10 f9 3d 71 b1 3f bd 5a c1 49 3d 00 f9 08 bc
       0.121613696 -0.04680008 0.04925666 -0.0083601475
000160 68 5a 19 be 04 bc c6 bc 90 64 93 bb 4d 64 83 3c
       -0.14975893 -0.024259575 -0.004498072 0.016039038
000170 e8 bc 13 3d 0d 77 92 3d 7f e7 a6 bd 19 8d a9 3d
       0.036068827 0.071516134 -0.08149623 0.08278865
000180 0b 10 97 bd 9c a0 9c bd d5 2a cb bd 8d 16 a0 bc
       -0.07376107 -0.07647821 -0.09920279 -0.019542003
000190 4d ca 29 3d 7f 03 d5 3d 5a f3 e9 3d 7c 1b 75 3c
       0.041452695 0.104010575 0.11423369 0.014960166
0001a0 eb 27 94 bd 87 ee 10 be ff c0 24 bd 48 df 4d bd
       -0.07234176 -0.14153491 -0.040223118 -0.050261766
0001b0 c5 b8 99 bd dd a7 08 bd 95 7f a2 bd 84 bc 53 3d
       -0.07505945 -0.033363212 -0.079344906 0.051693454
0001c0 2d 2b ac 3c 02 89 13 be de 92 67 bd be 6b 2c 3d
       0.021016682 -0.14407733 -0.056536548 0.04209494
0001d0 72 1e ba 3d ab b7 00 3e ea 8c fc bc 23 c8 fc 3c
       0.09087838 0.12570064 -0.030828912 0.030857151
0001e0 6b 0b c8 3c 49 56 9f 3d 40 8a 63 bd 6e cc b2 3d
       0.024419507 0.077801295 -0.055551767 0.08730398
0001f0 91 9d 73 bc 59 31 d1 bd 87 3c a3 bc ad f7 3c be
       -0.01486911 -0.102144904 -0.019926323 -0.18453856
000200 1a d4 8a bd f0 ee 8b 3c 1b 95 09 bd 84 69 8d bd
       -0.067787364 0.017081708 -0.033589464 -0.06904891
000210 60 e9 3b 3d 16 de ab bd 9f fd 3c bd bb d0 8f 3d
       0.04587686 -0.08391969 -0.04614031 0.07022234
000220 a5 56 c0 bc 18 57 cf 3d 3e b9 65 be 51 f1 5e 3d
       -0.023478815 0.10124034 -0.22433946 0.054429356
000230 b9 ec 09 be 1f e2 13 3d 91 a8 e3 3c 86 8a 8d 3c
       -0.13469209 0.036104318 0.02779034 0.017277967
000240 ae 45 81 bd ab 69 19 bc 37 8b 94 bc a0 8d 02 3d
       -0.063121185 -0.009363572 -0.018132789 0.031873345
000250 75 ac 81 bd 11 f2 52 3d ed 05 c9 3b 61 6e fc 3c
       -0.06331722 0.051500384 0.0061347396 0.030814352
000260 59 75 97 be 3c 31 f1 bd 57 ae 1d bd ca c2 32 bd
       -0.29581717 -0.11776969 -0.03849634 -0.043642797
000270 e3 48 3b 3d d3 68 c3 bd 95 1d ef 3c db 34 08 be
       0.045723807 -0.09541478 0.02918891 -0.13301413
000280 e8 52 ce 3b 20 f8 98 3d 00 47 b1 3c 17 0f 61 3c
       0.0062965043 0.07469201 0.0216403 0.013736508
000290 02 24 ea bd b3 13 04 bd 20 07 82 bc 54 2b 08 be
       -0.11432649 -0.03224535 -0.015872538 -0.13297778
0002a0 f5 e6 e7 3d aa da c7 bb 45 c1 fb bd 13 5a bb 3d
       0.113233484 -0.006099065 -0.122927226 0.0914804
0002b0 5e 1a d8 bd 9b 5c 79 bd 25 d0 66 bc 99 a7 2d bc
       -0.10551904 -0.06087933 -0.014087711 -0.01059904
0002c0 a6 14 8f bd b5 1b b6 39 a8 2e 13 be 9c 67 18 bd
       -0.0698636 0.00034734388 -0.14373267 -0.037208185
0002d0 38 59 c3 3d 38 a4 7f bd 05 44 6b bd a5 0b 9c bc
       0.095385015 -0.06241247 -0.057437915 -0.019048521
0002e0 75 78 7e bd d0 6c 97 3c 18 49 8c bc cc b8 00 3c
       -0.062126596 0.018484503 -0.017124698 0.007856559
0002f0 2c 54 80 3d 5c 91 a1 bd c2 1e 18 3d 15 44 1d bd
       0.062660545 -0.07889053 0.037138708 -0.038395006
000300 eb 64 bb bd 36 3c 62 bd 4a 9a 1a 3c df 25 a1 bd
       -0.09150108 -0.055233203 0.009436199 -0.078685515
000310 4e a2 8b 3d fc 03 59 bd 29 4b 87 3c 4a f2 4f bd
       0.068180665 -0.052982315 0.016515331 -0.050768174
000320 7e 21 60 3d dc 04 a3 3d 9d 0a 4d be d6 77 76 3d
       0.05471944 0.07959911 -0.2002358 0.06017288
000330 ec 73 5f 3d 89 84 2b 3d b5 eb 3e bd ed 1a 01 be
       0.05455391 0.041874442 -0.046611506 -0.12607928
000340 eb ac 6b 3d 0c 56 ee 3b cb 75 84 3d c5 c0 8c bd
       0.057537954 0.007273441 0.0646778 -0.06872705
000350 f0 e0 3d 3e 81 e0 07 3d d3 3b 04 3c 85 3f de bd
       0.18542838 0.033173088 0.008070904 -0.10851959
000360 7d ee 4e be ce 21 e3 bb 8c 15 3a bc b2 30 ed bd
       -0.20208164 -0.00693152 -0.011357676 -0.115815535
000370 1f 8c 96 3c 93 a0 f3 bd 2d 4c bc bd 39 56 82 3d
       0.018377362 -0.118958615 -0.09194217 0.06364102
000380 01 62 04 3d 12 be 9f 3d b4 35 25 bd 59 5f e2 3a
       0.032320026 0.07799925 -0.04033442 0.0017270847
000390 c5 64 7b bc 5e c0 16 bd 9f f0 eb bd 3c d6 8f bd
       -0.01534385 -0.03680455 -0.11520504 -0.07023284
0003a0 a9 65 6e bd 26 d8 b3 3c b5 5f 76 bd bf 1c 10 be
       -0.05820242 0.021953654 -0.060149867 -0.14073466
0003b0 a2 ea 2e bd 32 3a 10 3d 9a ad d0 bd 0f 3f b1 3d
       -0.042704232 0.03521175 -0.10189362 0.086546056
0003c0 2f 91 86 bd b2 16 79 bd 1c c3 2e be 06 06 57 3d
       -0.0657066 -0.06081266 -0.17066616 0.05249598
0003d0 75 c2 cf bc 34 74 2c 3d 6d a7 99 bd 24 6d 8f bd
       -0.025361279 0.042103007 -0.07502637 -0.07003239
0003e0 6a 0c 42 bc db 36 76 3d c6 cf 85 bc 90 dd a2 bd
       -0.01184378 0.060110908 -0.016334426 -0.07952416
0003f0 05 b6 18 3d ca 4c 9e 3d d4 6b 72 3d 0e 02 87 bc
       0.037282962 0.0772949 0.059184864 -0.016480472

encoder.1.0.bias f4 [32]
000000 46 d9 64 b7 33 24 b4 b9 8e 30 88 37 ea cf ec 39
       -1.3640447e-05 -0.00034359246 1.6235073e-05 0.00045168336
000010 9e 4e 14 b9 6d 70 8c b9 c7 be 5b 38 d3 96 dc 38
       -0.00014143667 -0.00026786645 5.2391344e-05 0.00010518511
000020 d0 8c a9 b9 b0 42 4a 39 2f ad 15 b9 89 13 cf 38
       -0.00032339105 0.00019289064 -0.00014274263 9.874168e-05
000030 d2 8d f1 38 43 36 60 b8 49 e5 54 39 95 75 69 b8
       0.000115181916 -5.3456297e-05 0.00020303311 -5.5661036e-05
000040 1e fb 36 3a 17 e9 50 b8 44 48 ce 36 12 d6 8c 38
       0.00069801684 -4.9808146e-05 6.1476912e-06 6.715594e-05
000050 ca 45 6d 3a ce d4 ac 38 07 1d bc 38 ae 0a 26 b9
       0.0009051232 8.241237e-05 8.969945e-05 -0.00015834972
000060 db bc 88 37 c5 79 63 39 64 bf 62 39 17 61 b9 b9
       1.6300406e-05 0.0002169377 0.00021624338 -0.00035358287
000070 ea a2 f6 36 ce 40 29 ba 13 d9 c6 b9 c0 0d 1b ba
       7.350337e-06 -0.0006456495 -0.00037927236 -0.00059148297

encoder.1.1.weight f4 [32]
000000 a4 94 7e 3f 20 1c 6e 3f 07 53 74 3f c7 aa 82 3f
       0.9944556 0.93011665 0.9543919 1.0208367
000010 69 3c 7f 3f 8e 0f 76 3f 89 f4 80 3f 72 94 7f 3f
       0.99701554 0.96117485 1.0074626 0.99835885
000020 2d 58 78 3f cc 5d 77 3f 61 c1 6c 3f eb ce 74 3f
       0.97009546 0.966275 0.9248257 0.9562823
000030 8d c0 77 3f 8c 00 72 3f a8 56 7f 3f 72 b5 83 3f
       0.96778184 0.94532084 0.997416 1.0289748
000040 b7 25 8a 3f f4 0f 6d 3f 2e 01 83 3f ca 1c 6e 3f
       1.079276 0.9260247 1.0234735 0.9301268
000050 1f ec 78 3f bc dc 6b 3f 3d 87 7c 3f 1f 6a 84 3f
       0.9723529 0.9213369 0.9864386 1.0344886
000060 c4 7a 75 3f 88 19 87 3f 7b df 7b 3f 68 05 82 3f
       0.9589045 1.0554667 0.9838788 1.01579
000070 25 53 70 3f 73 60 7e 3f ab 08 79 3f 42 5f 83 3f
       0.9387687 0.9936592 0.9727885 1.0263445

encoder.1.1.bias f4 [32]
000000 89 e5 8f 3d 09 c6 c4 3d 7b f3 46 3e 57 9c b9 3d
       0.07026202 0.09608085 0.19428818 0.090630226
000010 d4 f9 0f 3e c0 51 96 3e 75 68 0e 3e 84 d2 f0 bd
       0.14060146 0.29359245 0.13907035 -0.11758903
000020 cf 8b 1b 3e fa ee b6 bd 51 ac 31 bc de 30 e5 bc
       0.15190051 -0.089323 -0.010844306 -0.027977403
000030 8f 7a 58 bc 6f b7 03 bc e6 cd 1c 3c dd cc 9e bc
       -0.013212814 -0.008039339 0.009570574 -0.019384796
000040 a6 44 b4 bd 3d 7f 92 3d 7a 6a 0c 3d 98 c0 1e 3d
       -0.08802156 0.07153175 0.03428123 0.03875789
000050 3d f2 34 bc ec 3e d4 bc 74 01 93 bd 11 72 ae bd
       -0.011044082 -0.02590891 -0.071780115 -0.0851785
000060 e8 60 40 3e d2 51 c4 bd 34 d2 f2 bd 88 b3 3f 3e
       0.18786967 -0.095859185 -0.11856499 0.1872083
000070 35 b6 a3 3d 4b ed a4 bd 0a 9d f9 3d 73 7c 87 3c
       0.079937376 -0.080530725 0.12188156 0.016538834

encoder.1.1.running_mean f4 [32]
000000 aa 69 8d be 39 aa 6c bf a4 56 b5 bf bf b4 89 bf
       -0.27619678 -0.9244724 -1.4167066 -1.0758284
000010 3d c4 a5 bf f4 ad a5 bf 2b 2a ad 3e 93 b4 be 3f
       -1.2950512 -1.2943711 0.33821234 1.4898857
000020 a4 06 a3 bf 07 45 9f 3c bb b0 f9 be a5 80 15 bf
       -1.2736402 0.019442094 -0.48767647 -0.5839942
000030 fb 47 cf bf 13 95 b9 bf a3 50 6c 3f b2 3d 7b bf
       -1.6193842 -1.4498619 0.9231054 -0.98141015
000040 75 7b c1 3f 23 46 8f bf 8c 5f 1a c0 a8 11 3f bf
       1.5115801 -1.1193279 -2.4120817 -0.74636316
000050 c5 c8 06 3f 51 d8 b6 3e 5b 70 7f bf fe 38 9e bf
       0.526501 0.3571191 -0.99780816 -1.2361143
000060 c5 84 54 3e 23 33 67 bf 50 27 31 bf 02 46 a4 bf
       0.20753773 -0.90312403 -0.6920061 -1.2833865
000070 e4 61 1a bf fc f9 70 bf 70 4e c6 bf 08 6a 8f bf
       -0.6030562 -0.94131446 -1.5492687 -1.1204233

encoder.1.1.running_var f4 [32]
000000 b3 fa e8 3f 46 4d 0d 3f 3d 0c 2d 3f ed 45 b8 3f
       1.8201507 0.55196035 0.675968 1.439634
000010 27 49 8c 3f 3b 98 4e 3f c1 ba c7 3f 90 c8 39 40
       1.0959824 0.80701035 1.5603868 2.9028664
000020 b9 b1 93 3f db f8 f5 3f 82 b9 b8 3f 84 54 07 40
       1.1538612 1.921657 1.4431612 2.1145334
000030 46 59 f3 3f 03 ca c7 3f 66 46 96 3f 44 24 cc 3f
       1.9011619 1.5608524 1.1740234 1.5948567
000040 89 9e c5 3f b9 0b 0c 40 f6 da be 3f f2 43 68 3f
       1.5439006 2.1882155 1.4910572 0.90728676
000050 47 77 de 3f 73 dc 2b 40 74 a8 a5 3f cf bb 88 3f
       1.738015 2.6853302 1.2942033 1.0682315
000060 52 88 d9 3f 68 2d e1 3f ab 1f f6 3f 7e 11 9a 3f
       1.6994727 1.7591982 1.9228414 1.2036588
000070 03 a8 03 40 9a c5 00 40 66 94 03 3f f6 de f1 3f
       2.0571296 2.0120606 0.51398313 1.8896167

encoder.2.0.weight f4 [16, 32]
000000 58 68 36 3e d2 d8 2a be ff 3b 96 bd 2b b6 5f 3c
       0.17813241 -0.16684273 -0.07335662 0.013654272
000010 7f 53 16 be f8 7c 2e be a6 ec 10 be 31 79 0a bd
       -0.14680289 -0.1703986 -0.14152774 -0.033806983
000020 85 6f 95 bd e2 ab 3b bd e4 8d 16 3e 2b 63 aa 3c
       -0.07296661 -0.045818217 0.14702564 0.02079924
000030 19 75 5d 3e ce 34 6f 3c 56 ad eb 3c 7e e4 97 3c
       0.216267 0.014599992 0.028769176 0.01854157
000040 92 7a e2 3d 7f 14 d5 bd 62 21 09 3b 88 ba a2 bb
       0.11058535 -0.104043 0.0020924439 -0.004966084
000050 6d 13 8e 3d c0 03 03 3d 9e ce b9 3d f4 ad e9 3d
       0.06937299 0.031986 0.09072612 0.11410132
000060 a3 7b 30 be e4 b3 f3 3d 6c 9f 0b 3e 99 f1 04 3d
       -0.17234664 0.11899546 0.13635033 0.032456968
000070 a4 ac 69 3b aa 68 09 3d a6 c8 8f 3c e5 a3 68 bc
       0.003565588 0.03354708 0.017551731 -0.014199232
000080 22 67 27 be 51 a2 89 bd 25 7b 36 3c 71 03 22 3e
       -0.16347936 -0.067204125 0.011137758 0.15821625
000090 6a 5d fc bd 81 21 1d 3c 33 c5 bb bd bf 1e 2d be
       -0.12322505 0.0095905075 -0.09168472 -0.1690626
0000a0 df 14 14 3d 92 46 c0 bd e2 3c 97 bd 36 d9 22 3e
       0.036152717 -0.0938846 -0.07384659 0.15903172
0000b0 12 80 01 3e 73 43 49 bd 0b ba de bd c1 83 90 bd
       0.12646511 -0.04913659 -0.10875329 -0.0705638
0000c0 43 15 e0 bd 6a d4 48 be 6a 56 6b be 70 53 d1 bd
       -0.10941555 -0.1961228 -0.22982183 -0.102209926
0000d0 02 fe c3 bd 50 05 6d 3d b8 4d 94 3c 46 c5 fa bd
       -0.095699325 0.057866395 0.018103465 -0.12244658
0000e0 76 d3 4e 3d db 00 70 3c 9e 9a 4d bd d5 4f 5f 3e
       0.050494634 0.014648641 -0.050196283 0.21807797
0000f0 4a 70 38 3e 77 df 27 3d 17 29 c0 39 4f f4 a8 3d
       0.18011585 0.040984597 0.00036651708 0.08249723
000100 5b 56 75 3c 36 f3 98 bd e5 17 06 be 47 ec 34 3e
       0.014974202 -0.07468264 -0.13095053 0.17668258
000110 df 56 ce bd 55 68 5f be e8 0c 70 bd 07 fe 23 3d
       -0.10075163 -0.21817143 -0.05860606 0.04003718
000120 73 7c c6 bb be a5 b5 3d a0 5d d0 bd ed 32 02 3d
       -0.006057316 0.088695034 -0.101741076 0.031786848
000130 bc e7 b3 3d 5b 33 e8 3b 61 39 f4 bd 14 09 03 3e
       0.08784434 0.0070862 -0.11925007 0.12796432
000140 d5 10 ff 3d 8a a3 fb bd 2b 38 aa 3d 10 ba 24 3c
       0.12454382 -0.12287052 0.083114944 0.010054126
000150 f4 8d 4a bd 39 c8 a3 bd 88 19 39 3e fe 89 e0 3c
       -0.049451783 -0.07997174 0.18076146 0.02740955
000160 1d f8 14 be b2 47 f3 3d a4 ff 91 3c f2 c1 cd bc
       -0.14547773 0.11878909 0.017822094 -0.025116894
000170 91 cc 5c bd da bd 1c 3e 05 f9 87 3b 67 27 bb 3d
       -0.053906027 0.15306798 0.0041495585 0.09138375
000180 4a 51 ec 3d a2 68 77 bd e5 79 52 3d 59 12 b3 bd
       0.11538942 -0.06040252 0.05138578 -0.08743734
000190 32 ec 91 bd 01 a8 67 bc 1e 58 03 3e 51 0f 37 3d
       -0.07125129 -0.014139176 0.12826583 0.04469234
0001a0 97 b9 1f 3c 9e 60 79 bd e1 a0 d9 bc 4e 80 a8 3d
       0.009748838 -0.060883157 -0.02656597 0.08227597
0001b0 a2 07 1b bc 91 7c d4 bd 06 e0 3d bd e4 3b a0 bd
       -0.009462269 -0.10375322 -0.046356224 -0.07823923
0001c0 87 57 3c be b8 74 39 be 07 63 cb bd 38 f4 33 3c
       -0.18392764 -0.18110931 -0.09930997 0.010983519
0001d0 07 33 5e be d7 47 68 3d d6 c5 06 bd 90 cd ae bd
       -0.21699153 0.056709137 -0.032903515 -0.08535302
0001e0 1f 72 82 3c 3b b3 60 be 64 de cd 3d ca e6 b6 3a
       0.015923558 -0.21943371 0.10052183 0.0013954279
0001f0 1a 9a 95 3d 3c 7b 30 be 43 65 41 3d 1a 56 ee bd
       0.07304783 -0.1723451 0.04721571 -0.11637516
000200 c2 7a 49 bd 76 80 62 bd a5 89 52 be 08 4a 99 bd
       -0.049189337 -0.05529829 -0.2056032 -0.074848235
000210 b2 d2 83 3c 17 3b 43 bc 6d ef 38 bc b4 7e 99 bc
       0.016091678 -0.011915944 -0.011287552 -0.018737175
000220 9c fd 66 3c a9 a9 f9 3d 81 fa f3 bc 22 73 52 be
       0.014098551 0.12190563 -0.029782536 -0.20551732
000230 86 9f eb bd d6 e6 2b 3d 28 00 c8 bd 01 cc 82 bc
       -0.11505036 0.04196819 -0.09765655 -0.015966417
000240 8b 45 d1 3d 2c 1e 15 be da bd c6 3d 98 f4 99 bd
       0.102183424 -0.14562291 0.0970418 -0.07517356
000250 1c c3 12 bd 67 70 5d 3d 69 9d da bd 20 e7 96 be
       -0.035830602 0.054062273 -0.10674555 -0.2947321
000260 72 c8 66 be 7d 17 c2 bc a9 ad 54 bd 18 97 83 bd
       -0.22537401 -0.02369284 -0.051923428 -0.06425303
000270 56 f5 bd bc 60 e4 08 be 65 5c 99 3c f7 3a 57 bd
       -0.023188274 -0.13368368 0.018720815 -0.052546468
000280 c1 f6 19 bd 74 a9 e7 bd fd 82 17 3c f1 17 5f be
       -0.03758884 -0.113116175 0.009247539 -0.21786477
000290 ad 98 37 3c 30 75 a3 3d 1a 7d 80 3d f7 71 60 be
       0.011205834 0.07981336 0.06273861 -0.21918474
0002a0 35 99 18 be 1e 68 92 bd 50 40 55 3d 19 9c 17 be
       -0.14902194 -0.07148765 0.052063286 -0.1480564
0002b0 55 ec 42 bc 7c 9f 11 3e 40 e5 f5 bc 4e 55 a1 bd
       -0.011897166 0.14220995 -0.030016541 -0.07877599
0002c0 06 2d dd bd fa 8b c8 3d ff 09 84 3c cf 25 75 bd
       -0.10799603 0.097923234 0.016118048 -0.05985051
0002d0 bc 4c 01 be 84 35 1d be 60 c0 7d bd 11 33 16 be
       -0.12626928 -0.15352446 -0.06195104 -0.14667918
0002e0 45 8a 3c be 47 81 5d 3d 97 be 3b be ea c5 ba bc
       -0.1841212 0.054078367 -0.18334423 -0.02279945
0002f0 ba 1f 29 be 94 8d 02 be ef 6a c1 3d f4 85 17 3d
       -0.16516009 -0.1274932 0.09444224 0.036992982
000300 d8 a2 67 3c 40 73 30 bc 7f df 7f 3d f6 72 f3 3d
       0.014137946 -0.010769665 0.062469 0.118871614
000310 67 e3 2e 3e 37 fa 7b bd 93 a4 bd bd 78 8a c8 3c
       0.17078935 -0.06151792 -0.09259906 0.02448009
000320 d1 ab c9 3d c7 3b 36 be d0 b5 76 3d c8 67 23 3e
       0.098472245 -0.17796241 0.060231984 0.15957558
000330 24 59 83 3c ed 9d 21 be b8 d8 2b be c1 ed 40 be
       0.016033716 -0.157829 -0.1678189 -0.18840696
000340 ae 08 92 be de ca 0e bd 2d ca cb bd b7 fd 14 be
       -0.28522247 -0.034861438 -0.09950671 -0.1454991
000350 74 78 21 be 32 99 b7 3d a1 fb 44 bd 92 25 0a 3e
       -0.15768605 0.089647666 -0.048091535 0.13490894
000360 53 73 8f 3d 04 cd 3e bc 87 13 1b 3d e8 b7 86 bd
       0.07004418 -0.011645559 0.03786042 -0.06578046
000370 84 30 9d 3d 48 37 94 3c 2c 2d 02 3e 86 42 70 bd
       0.07675269 0.018092766 0.12712544 -0.05865719
000380 dc 90 bd 3d b5 80 d5 3d 30 92 5f 3c 58 cf 90 bd
       0.09256145 0.104249395 0.013645694 -0.07070798
000390 71 9f 8e 3c 40 f0 86 3d 20 5a d8 3c d5 0b 91 bb
       0.017410012 0.06588793 0.026410162 -0.0044264593
0003a0 4e 4e 7d 3c 83 40 4f be 30 c3 82 bd 31 f7 21 bd
       0.015460564 -0.20239453 -0.06384885 -0.03954238
0003b0 ff cb a9 bd 44 12 ce bc b2 9a 48 be be c8 ef bc
       -0.08290862 -0.025155194 -0.19590262 -0.029270526
0003c0 29 a0 36 be 61 41 be 3c 57 81 d0 3d 85 4f a3 bd
       -0.17834534 0.023224534 0.101809196 -0.079741515
0003d0 07 d4 56 bd ec 4e f8 3c 37 1a 56 3d ca b5 38 3d
       -0.0524483 0.03031107 0.052271094 0.045095243
0003e0 88 08 45 3d 90 cf 11 be bb 3c a4 3d ef a4 30 bd
       0.04810384 -0.14239335 0.08019396 -0.043126043
0003f0 49 21 26 3d bd 3c 0f be 9d 80 93 3a 88 f7 c8 bd
       0.040559087 -0.13988014 0.001125354 -0.09812838

encoder.2.0.bias f4 [16]
000000 38 75 be 39 6c 63 68 b9 87 b2 ab ba af a0 66 b9
       0.0003632696 -0.00022162282 -0.001309947 -0.00021994369
000010 18 24 c2 38 1d 1c c4 ba cd 60 b5 ba 2b 51 96 b9
       9.257364e-05 -0.0014961992 -0.0013838053 -0.00028670704
000020 cc 1e c2 39 16 7f 2b 38 bd ff 83 3a 96 b0 ca 38
       0.0003702551 4.0887935e-05 0.0010070723 9.665002e-05
000030 e3 56 fc b6 82 bd 90 37 da 0e cd b9 39 4c 7d b8
       -7.5203e-06 1.7254384e-05 -0.00039111712 -6.039089e-05

encoder.2.1.weight f4 [16]
000000 8d 8f 92 3f 8b 33 7d 3f 77 93 87 3f d6 54 76 3f
       1.1450058 0.98906773 1.0591878 0.962232
000010 5c ee 70 3f b9 b0 7c 3f ed 8e 82 3f ec c4 78 3f
       0.9411371 0.9870716 1.0199867 0.9717548
000020 26 41 7e 3f af 74 72 3f 13 1e 73 3f c6 55 71 3f
       0.9931816 0.94709295 0.94967765 0.94271505
000030 bc 05 72 3f 24 f9 82 3f 51 34 81 3f 64 a2 81 3f
       0.9454 1.0232282 1.0094091 1.0127683

encoder.2.1.bias f4 [16]
000000 8c 7f 5e bd fd c8 a6 bb 50 3d f3 bd 0a fc 69 3d
       -0.054320857 -0.0050898776 -0.11876929 0.05712513
000010 4b b7 c8 3b 5a e9 df bd 7c 1f 1d 3d 34 30 0c 3e
       0.006125366 -0.1093318 0.038360104 0.13690263
000020 87 df 20 3c 37 04 07 3d e7 c6 52 bd c5 17 8b bb
       0.009818918 0.032963004 -0.05145922 -0.004244777
000030 0a 91 a8 bd 92 26 5e bd 99 09 38 3c f3 32 ab bc
       -0.08230789 -0.054236002 0.011232757 -0.020898318

encoder.2.1.running_mean f4 [16]
000000 d9 b0 11 3c 85 da 9b be 7e f1 10 bd 95 29 f3 be
       0.008892261 -0.30440155 -0.035386555 -0.47492662
000010 b5 2b 3b bf e4 01 3e bf 56 ff 62 be c7 d4 90 be
       -0.73113567 -0.74221635 -0.22167715 -0.28287336
000020 ad 79 18 bf 2e 06 eb be 27 31 3c bf 46 ab 8a be
       -0.5956066 -0.45903152 -0.735125 -0.27083796
000030 39 c8 50 bf 7b 1b dd 3e 5d 7c dd be 0b 07 11 bf
       -0.81555516 0.43185028 -0.43258944 -0.5665137

encoder.2.1.running_var f4 [16]
000000 e0 cf 59 3d e6 f4 97 3e d2 61 99 3d 8d 9d 18 3f
       0.05317676 0.2967903 0.07489361 0.59615403
000010 d8 f6 0a 3f 0a c0 81 3e b3 95 47 3f 83 b8 6d 3e
       0.54282904 0.25341827 0.779628 0.23214917
000020 be e8 36 3e 30 67 d6 3e a4 fa ce 3e cf bf a9 3d
       0.17862222 0.418756 0.404256 0.08288538
000030 89 73 38 3f 9d f3 48 3e 1c ca 48 3f 57 76 4e 3f
       0.7205129 0.19624181 0.78433394 0.8064932

decoder.0.0.weight f4 [32, 16]
000000 0d 22 4c bc f8 f4 1e 3e 77 b7 07 3e 69 14 98 bd
       -0.01245929 0.15523136 0.1325358 -0.07425768
000010 88 c3 56 be 51 41 a6 bd 53 07 59 be eb 32 fe bc
       -0.20973027 -0.08117927 -0.211942 -0.031030139
000020 e5 00 32 3e f4 34 5f bd 91 01 4f 3e e4 63 69 3d
       0.17383154 -0.05449386 0.20215441 0.05698003
000030 ab 4a 0b be 5c 35 5d be 5d 50 18 be fa 48 51 be
       -0.13602702 -0.21602386 -0.14874406 -0.20437995
000040 b3 2a ad be 74 a8 7a 3e 1f 23 6e be ab 45 5e be
       -0.3382164 0.24478322 -0.23255585 -0.21706264
000050 12 e1 77 be 64 d8 29 3e ad ad 13 be 70 b9 a0 3d
       -0.24206951 0.16586453 -0.14421721 0.078478694
000060 4e 07 2e 3d d7 6c 70 3e d2 64 17 bd 7d 76 c2 bd
       0.042487435 0.23479019 -0.036961384 -0.09495256
000070 61 de 30 3e 1c 40 e7 bd ac 58 a5 bd 9b f0 01 3e
       0.17272331 -0.11291525 -0.080735534 0.1268944
000080 af 53 d7 bd 40 6e 40 be 58 a0 33 be 79 12 35 3e
       -0.10514008 -0.18792057 -0.17541635 0.17682828
000090 57 ed 62 3c 62 09 14 bd c4 ab 1d 3d 1b af 7a be
       0.013850532 -0.03614176 0.038493887 -0.2448086
0000a0 43 d5 29 be 2f 5b 2f 3e f8 5b f4 3d 8b 9f 01 3d
       -0.16585259 0.17124628 0.11931604 0.031646293
0000b0 69 00 d4 3d 35 52 9f be 2e c5 bb bc 39 27 ef 3d
       0.10351641 -0.31117406 -0.022921171 0.11677403
0000c0 fc f1 05 be 45 8b 74 3e 59 ec 25 bc 9c 73 27 3b
       -0.13080591 0.23881252 -0.01012715 0.0025551086
0000d0 ba 9d 7a be 5f 85 77 3e 11 42 34 3d 5c 85 04 3d
       -0.2447423 0.24171971 0.04400832 0.032353744
0000e0 b0 f2 0d 3e 8e a9 4e bd f7 49 26 3e ac e3 f1 3c
       0.13862109 -0.05045467 0.16239153 0.029527508
0000f0 ce 6a 20 be 5a 9a 97 b9 1c 68 28 3e a4 e8 93 be
       -0.15665743 -0.00028915965 0.16445965 -0.28888428
000100 f6 e2 9e 3c 49 92 80 3d 18 e1 f0 3d 48 71 07 be
       0.019395333 0.06277902 0.11761683 -0.13226807
000110 45 3f 10 3e c5 2c 5c 3d 39 27 5e be 64 e2 44 3e
       0.14086635 0.053753633 -0.2169465 0.19226986
000120 bc ad f2 bd cb 73 24 3e a2 ed 9c be d4 b4 2b 3e
       -0.118495435 0.16059797 -0.3065005 0.16768199
000130 aa a2 9a 3d d8 5d 73 3e 83 a4 8a 3d 71 da 1a 3e
       0.07550557 0.23766267 0.06769659 0.15122391
000140 40 cc 34 3e ac 0b ac bd 9f 8d 57 3e ef 5f 66 be
       0.1765604 -0.08400664 0.21050118 -0.22497533
000150 40 ad 96 be 7e 9c 00 be f8 48 a8 39 13 c7 b4 bd
       -0.29429054 -0.12559697 0.00032097823 -0.08827033
000160 6c 2f 7f be 36 47 6c 3e ae 40 27 be 88 2d 10 be
       -0.24920434 0.2307404 -0.16333267 -0.14079869
000170 00 8b d8 3d 62 fa d7 3c d6 da 1d 3e e9 74 27 bd
       0.10573387 0.026364509 0.1541551 -0.04088298
000180 c0 14 31 3d 79 76 8a be 77 af b2 bd ff d1 95 be
       0.04323268 -0.27043512 -0.087248735 -0.29261777
000190 ce ce fe 3d e2 fb dc bd b8 85 f3 bd 13 c2 b1 3d
       0.124417886 -0.1079023 -0.11890739 0.08679595
0001a0 c7 05 59 3d 9d 1c 7b be 8c 7c 32 3d 08 e4 98 bd
       0.052984025 -0.24522634 0.04357581 -0.074653685
0001b0 dd 97 ab bd 4a ad 42 3e aa c9 97 bc 5e 11 d4 bd
       -0.08378575 0.19011417 -0.018528778 -0.10354875
0001c0 2f 5e cb bd 3a a1 e7 3d 14 7f 5a be 0d e7 b9 3d
       -0.099300735 0.113100484 -0.21337539 0.090772726
0001d0 c1 31 99 3d 08 d9 65 be 46 3c 35 be 43 26 fb 3d
       0.07480193 -0.22446072 -0.17698774 0.12263157
0001e0 fe 2e db 3d ba 05 42 3e 13 0c 75 3e e9 09 ca 3d
       0.107023224 0.18947497 0.23930387 0.098651715
0001f0 05 82 0b 3d 50 ae 7d bd b5 87 14 be a4 92 89 be
       0.034059543 -0.061933815 -0.14504893 -0.2686969
000200 8d 77 90 be 81 1f 08 3e dd 6a 96 bd 9c a1 f8 bd
       -0.2821621 0.13293268 -0.07344601 -0.121401995
000210 df 17 58 3e 9c df e0 bd 30 d3 17 be e4 1c 78 3e
       0.21102856 -0.1098015 -0.14826655 0.24229771
000220 9a 70 e7 bd 01 d0 f7 3d c0 02 78 bd 5a 21 ec 3c
       -0.11300774 0.121002205 -0.060549498 0.028824497
000230 4a 01 14 be 64 eb 67 be f0 6d 5f be 43 9d eb 3d
       -0.14453617 -0.22648388 -0.21819282 0.11504605
000240 46 69 16 3e 65 27 2e 3e 8b ab 4d 3e fb e8 4c be
       0.14688596 0.17007215 0.2008497 -0.2001075
000250 38 0c 60 be e0 3c f7 bb fb a6 16 3e 53 d7 94 3d
       -0.21879661 -0.0075450987 0.14712135 0.07267632
000260 56 c9 91 be 59 bc 6c be fa a8 1e 3e f7 9e 80 be
       -0.2847392 -0.23118724 0.15494147 -0.2512128
000270 23 88 39 be e3 69 62 be ac 39 31 3e 07 68 34 be
       -0.18118338 -0.22110705 0.17307156 -0.17617808
000280 5d f8 52 be 8b 1a b5 bd 99 51 80 be f0 48 e6 bd
       -0.20602556 -0.08842953 -0.25062254 -0.112443805
000290 1a a0 1b be a0 54 20 be d0 11 6e be 48 51 8b 3d
       -0.15197793 -0.15657282 -0.23248982 0.068026125
0002a0 df 70 7c bd 0b f2 dd 3d 8e d1 f4 3d af 1c 3e 3e
       -0.06163108 0.10837182 0.11954032 0.1856563
0002b0 5a 7a e1 3d 9d 75 42 be fe f3 86 be e7 4a 55 be
       0.11009665 -0.18990178 -0.26358026 -0.20829354
0002c0 70 bb 25 3e 4e ce 76 3d df a2 ea 3d df 3e 12 bd
       0.16184783 0.06025534 0.114568464 -0.03570449
0002d0 93 5c 41 3e 97 f6 f3 3d f2 49 a1 3c 22 c0 ca bc
       0.1888297 0.11912268 0.01968858 -0.02474982
0002e0 ef b2 3b be f0 f8 43 bd e8 72 97 3d be 52 68 bb
       -0.18329976 -0.047844827 0.073949635 -0.0035449709
0002f0 5c 50 c7 bd 9e b0 28 be df d3 59 be 8b 1a 1d 3e
       -0.09732124 -0.16473624 -0.21272229 0.15342157
000300 4a 8a 8e be 11 07 04 be 10 e3 63 be 69 65 ad 3d
       -0.2783988 -0.1289332 -0.22254586 0.08466608
000310 31 72 8b 3d 2c e7 92 bd f4 18 04 be 63 3c 1b bd
       0.0680889 -0.07172999 -0.12900144 -0.037899386
000320 5e 64 2f be 81 23 05 3e 53 e3 0b 3e 2e 2b 5b bd
       -0.17128131 0.13001825 0.13660936 -0.053507976
000330 4a 81 ed 3d 8f 1d 31 3e ca 72 22 be 59 f4 29 bc
       0.115969256 0.17296432 -0.15864101 -0.010373198
000340 6a 37 8d 3e 59 7b cd bc c4 2b c8 3d ee 75 83 bd
       0.2758134 -0.02508323 0.09773973 -0.06418978
000350 ca e3 d6 bc c7 28 9e 3d 6b 67 35 3e 7e d9 26 be
       -0.026231665 0.077226214 0.17715232 -0.16293904
000360 77 bc 24 be 0b fe ff bc dc 99 ec 3d da cf 3f be
       -0.16087519 -0.031249067 0.11552784 -0.18731633
000370 38 b2 4f bb 8d ba d2 bd ea 5e 28 be ab e2 62 be
       -0.003169192 -0.10289488 -0.16442457 -0.2215678
000380 e4 cc 29 be 16 c2 2f 3e 04 0f 34 3d 39 bf 53 be
       -0.16582066 0.17163882 0.043959633 -0.20678414
000390 bd 98 dc bd e9 54 c0 3c a8 79 5e be 20 97 b9 3d
       -0.1077132 0.023477988 -0.21726096 0.09062028
0003a0 29 42 15 3e 1a 70 10 3e e8 19 d3 bc f2 18 e0 3d
       0.1457602 0.14105263 -0.025769189 0.10942258
0003b0 0d e9 19 3e f0 2e 4f be f2 cb 27 3d 34 20 05 be
       0.15030308 -0.20232749 0.04096598 -0.13000566
0003c0 75 48 45 be 0c 4b 19 3e c5 00 f0 bd ea d7 27 be
       -0.19265921 0.14970034 -0.11718897 -0.16390958
0003d0 b5 81 49 be 18 bd a8 bc 9c 84 4d bd b6 23 00 bd
       -0.19678386 -0.02059798 -0.050175294 -0.031284057
0003e0 a8 fa 61 bd d0 49 b1 bd 86 80 80 bd 0e 36 9b 3d
       -0.055170685 -0.08656657 -0.06274514 0.075786695
0003f0 09 91 67 3a 9e 97 1c be 07 a3 02 bc c1 af 46 3e
       0.00088335626 -0.15292212 -0.007973439 0.19402982

decoder.0.0.bias f4 [32]
000000 39 c3 7b 38 5e e5 2c b9 92 4a c4 36 c2 bd f9 b9
       6.002488e-05 -0.00016488644 5.8499363e-06 -0.00047634362
000010 10 b7 24 3a 9c a0 90 38 a1 d1 9b b7 63 0d f6 39
       0.0006283382 6.896371e-05 -1.8575056e-05 0.0004693075
000020 92 e9 50 39 bd 1e 40 39 84 da a4 37 ea ab 95 39
       0.00019923438 0.00018321998 1.9652078e-05 0.0002854758
000030 b4 3b 8f ba 2b 53 e4 39 cc c9 ff b8 aa 07 ed b9
       -0.0010927827 0.00043549514 -0.00012196935 -0.00045209873
000040 a6 38 0d 3a 9a 91 1d b9 15 e3 0d b9 4f 63 21 39
       0.00053871644 -0.00015026928 -0.00013531403 0.00015391152
000050 91 d8 58 3a 0b 13 1d 39 2b 12 0c b9 c7 b5 44 b9
       0.0008272017 0.00014979781 -0.00013358209 -0.00018759734
000060 22 5f 93 39 23 5d c8 b9 ea 35 5d 39 9e 07 5a b9
       0.00028108904 -0.00038216365 0.00021096287 -0.00020792938
000070 1c 74 b8 b8 09 47 bc 38 63 ab a4 b9 0b 9b 77 b8
       -8.795431e-05 8.97777e-05 -0.0003140821 -5.9033784e-05

decoder.0.1.weight f4 [32]
000000 20 09 89 3f b1 f2 86 3f a9 c4 84 3f f4 ac 6f 3f
       1.070591 1.0542814 1.0372516 0.9362328
000010 ab a1 80 3f 64 51 86 3f 90 c5 6a 3f 1a 23 82 3f
       1.0049337 1.0493588 0.91707706 1.0166962
000020 7b 0d 7b 3f 68 1a 81 3f 21 a8 8c 3f 72 80 7e 3f
       0.98067445 1.0086184 1.0988809 0.9941474
000030 74 f6 91 3f 70 e7 85 3f c9 c2 6d 3f 47 30 8e 3f
       1.1403337 1.0461254 0.92875344 1.1108483
000040 90 ce 7b 3f 62 9b 7e 3f 2e a9 80 3f e9 25 8e 3f
       0.98362064 0.99455845 1.005163 1.1105319
000050 75 ea 96 3f ea 32 80 3f 69 f5 79 3f e8 d6 81 3f
       1.1790301 1.0015538 0.9764009 1.0143709
000060 24 9e 89 3f 3f 07 88 3f 1f f8 82 3f 9a 0a 81 3f
       1.0751386 1.0627211 1.023197 1.008136
000070 26 c7 72 3f 4b 95 65 3f f1 9f 7f 3f d6 c6 8a 3f
       0.94835126 0.8968093 0.99853426 1.084193

decoder.0.1.bias f4 [32]
000000 1b 1f ec 3d ba 80 6c bc 9b a1 41 3d 70 eb 5f 3a
       0.115293704 -0.014434988 0.04727326 0.0008541858
000010 d5 e1 9e bd 61 e6 2e 3d ad c1 91 bc 2f ed 8f 3d
       -0.07757918 0.042700175 -0.017792547 0.07027661
000020 ee ad 01 3d 54 40 d2 bd 9c 98 3c 3d 0a ff bd 3c
       0.031660013 -0.10266176 0.046043977 0.023192901
000030 8e 76 7e 3d c6 4a b0 bd 22 06 cf 3c ec a8 15 3c
       0.06212478 -0.08608012 0.025271479 0.009134512
000040 8c 66 4b 3d a8 14 dc bc cd b6 63 3c d1 b1 1d 3d
       0.049658343 -0.026865318 0.013898564 0.038499657
000050 d2 e0 b8 bd 71 45 0f 3e cc 09 13 3d 8a 8b 38 be
       -0.09027256 0.13991334 0.035898015 -0.1802198
000060 13 4b 16 3e 8c 53 28 3d 70 dd cc b9 8d 1a c1 bc
       0.14677076 0.0410953 -0.00039074896 -0.02357223
000070 0e b5 5b bd ed e1 b7 be 87 9b 3d bd d0 ec 51 3d
       -0.053639464 -0.35914555 -0.0462909 0.051251233

decoder.0.1.running_mean f4 [32]
000000 24 e9 97 be 19 ca 57 be 5e 1c 5e be 22 f4 87 3d
       -0.2967006 -0.21073188 -0.21690509 0.066383615
000010 f5 16 8e 3e df 01 53 be 04 e8 c0 be 57 71 54 bd
       0.2775189 -0.20606183 -0.37677014 -0.0518659
000020 91 6b 84 be f6 70 84 be 68 32 19 bf a5 62 34 3d
       -0.25863317 -0.25867432 -0.5984254 0.044039387
000030 96 89 8a be b1 09 3b be 6f cb a6 bd 5b 2d a0 be
       -0.27058095 -0.18265416 -0.08144271 -0.31284603
000040 43 cc a8 bd 6f e9 13 3e 81 4d d8 3d fc 86 9c be
       -0.08242085 0.14444517 0.10561658 -0.30571735
000050 b3 78 c1 be f7 8c 28 3b 70 fc 28 bd f6 30 94 be
       -0.377874 0.0025718787 -0.04125637 -0.28943604
000060 21 ad 07 bf 8e e0 2f bc ce a0 e0 3e 31 4f 3a bc
       -0.5299855 -0.01073469 0.43872684 -0.01137142
000070 ec 28 02 be 7d 65 36 3e af ad 83 be 82 b3 0b bf
       -0.12710923 0.17812152 -0.25718448 -0.5457078

decoder.0.1.running_var f4 [32]
000000 6c a8 60 3d 62 fc a9 3e 5d 2e 15 3e 9e 94 07 3e
       0.05484812 0.33200365 0.14568467 0.13240287
000010 59 16 b5 3d 1a 8a 02 3e af 72 50 3e 07 db 21 3e
       0.08842153 0.12747994 0.20356248 0.15806209
000020 f1 3a d7 3d 7e 50 b6 3d d1 6c 82 3e 69 cb f3 3d
       0.10509289 0.089020714 0.25473645 0.11904032
000030 9d 86 14 3d c5 5b 3e 3d 69 39 10 3e 4d 12 a3 3d
       0.03626119 0.046474237 0.140844 0.07962475
000040 3f eb 4b 3e 30 51 fa 3d 07 94 45 3e ae 26 f6 3d
       0.19913958 0.122225165 0.19294749 0.12019096
000050 7a ba 1b 3e 07 7e cd 3d a9 42 5b 3e 6a 06 1c 3d
       0.15207854 0.100338034 0.21412148 0.038092054
000060 76 a2 0d 3e 1c 09 c1 3d 9e 83 0b 3e 53 8d a2 3d
       0.13831505 0.094255656 0.13624427 0.07937112
000070 68 2a 64 3d 06 08 ec 3d 0e bc 89 3e b7 9a e8 3e
       0.055704504 0.11524968 0.26901287 0.45430538
