saved-model/logmel/unetidnn/logmel-unetidnn-fan-6.pkl (torch, 144293 bytes, 32 tensors)

encoder.0.0.weight f4 [64, 256]
00000000: 5857 cb3c 4eef 66bc 0cf4 8bbc 61e2 d73b
00000010: 6659 503c 2d1e bcbb 155e 243e d9b8 253d
00000020: 3bb2 dbbc b699 073d a814 d1bc 72fc f53c
00000030: cc83 b93d ffb8 8abc a34a 8b3d 58d0 f93c
00000040: 277f 44bd 7301 0cbc af26 883d 5216 e7ba
00000050: 2568 9abc b067 9ebc c817 b3bb 8897 abbd
00000060: 9c38 b23d 3d58 423d 489f 6a3d 91ad 3bbd
00000070: 2f2e b5bc 8320 653b 6123 c6bc aebd 97bd
00000080: 9584 0cbd f90f 9bbc 5808 903b decb eabc
00000090: b8cc 3c3b 4da9 07bd 968a 3d3c 9cd9 46bc
000000a0: 1421 26bd 31e2 1dbc f85b 08bd 65d0 afbc
000000b0: 4e76 a8bc b947 cbbb f87f 83bc abb1 3839
000000c0: 35ae 42bc 040c 07bb 03f1 a2ba 4067 4a3c
000000d0: 3bc1 953c bf81 b83b ce0f 523b 49b9 a43c
000000e0: 3b3b d6bc 4943 1a3d 0199 a13d 944e 093d
000000f0: b3bd 7dbd 8885 db3c dba5 19bd 9cc7 47bb
00000100: 5e81 0e3d 10ad 623d 45d4 05bd c210 0a3b
00000110: d08d 123d b06a 2a3d 1751 a23d 7c45 673d
00000120: d2f0 dabc 92a8 3e3d c8cc 94bc d3bb c63d
00000130: 9ccb e23d 92d1 493b 56ca b53d a996 233d
00000140: c212 67bd 2393 41b7 bb88 493d b53b 47bc
00000150: 5619 15bc 85e9 4abd 46ee 4e3c a41f 6cbe
00000160: 2dc5 5d3c 620d bf3d 2003 ec3c f688 f0bd
00000170: a1bd 3ebe 72db 973c 3e39 093b a1bc 17be
00000180: 2702 f6bd 745b 1c3c 9fff 24bc 8412 06bc
00000190: eb02 0ebd bc4e bdbc db4f a1bb 60f6 67bb
000001a0: 09f8 91bc 61f3 24bd d4bc 0cbc c3f0 b8bc
000001b0: e6aa 36bc 0c50 23bc db22 c4bc 7b05 863b
000001c0: 6e17 903a d703 93bb 8b1c f6bb f792 2e3b
000001d0: de80 673c 008a e53a cdad b63a 517f dfba
000001e0: b685 85ba 9ab5 0fbc 2f1f db3d 4914 483d
000001f0: e68f 91bc 0e5c f43c 8bf2 8fbd b775 3ebc
00000200: 8e23 693d b430 523d 3148 28bd a350 dcbb
00000210: 8907 5c3d fd41 ce3c d42e 453d 3fe3 3c3d
00000220: 4c87 05bd 51d0 303d 61fb d8bc b7d2 9c3d
00000230: 751b f93d 4cff c83b 9db9 b83d fdf5 2d3d
00000240: 986d 3cbd f100 573d a7e7 413d d4bd abbb
00000250: bdd9 8ebc 1371 b0bc 7991 9ebb 7d20 58be
00000260: 318a f63b 960a c73d 5b80 263d 261e d6bd
00000270: 663d 3bbe 68e0 2d3d 8fed babc 8987 0dbe
00000280: 7636 1cbe 4a0d 9fbc 2a54 c23b 89c8 edbb
00000290: caea e9bc 7324 85bc 454d d43b 2fa2 47bc
000002a0: fe57 c6bc 201d 82bc ba56 5ebc 35e0 7abd
000002b0: 7600 ea3b a044 38bc 24b5 443c f443 d43b
000002c0: 7ec0 b33b c38a 203d 89c2 143c 92f3 cd3c
000002d0: f762 943b 0344 5f3b a143 143d 6f8e 79bc
000002e0: 42dd 2d3c 4159 243d 0299 b83d 9a45 9d3d
000002f0: 3f6c 87bc 5d14 24bc 39e3 4dbd f560 3ebd
00000300: 5303 b13c ba33 b83b cec2 01bd 7291 88bb
00000310: 2777 403d 380b e7bc db3c f93d fe19 353d
00000320: d699 17bd 3b0c 1a3d 3b50 15bd c851 8b3d
00000330: 2a7e 2ebb 4516 8fba c69b 903d 89f0 e73c
00000340: 62a4 66bc d385 c63b c73b 953d d94c 0f3c
00000350: ec00 2d3a f124 06bd ed65 9d3a 4619 c4bd
00000360: 1879 b63d bf96 653d f4d2 363d 36b2 5cbd
00000370: 9bc7 0cbd ac73 19bb e69a 27bc dec0 90bd
00000380: 6680 8dbc 553a bfbb 91e1 efba 5109 c8bc
00000390: 8b89 84bc 5b7f 49bc c9d0 b63b eddc d33a
000003a0: 2fb1 0cbc a7a5 a3bc 2edf 95bc 402d 0bbd
000003b0: c33d 3e3b e25a 16bc 455b 12bb f8cc 8b3c
000003c0: 3720 0d3c ecb8 4f3b b000 98bb 984a 0e3c
000003d0: 5bad ff3c 89bf c4bb 0a54 953b f389 913c
000003e0: a2f0 82bb d42c c23c be34 cf3d 8984 2d3d
000003f0: 3c0a 05bd 5537 063d 9236 21bd 4e13 a9bc
0.024821922 -0.014095141 -0.017084144 0.0065882658 0.012716627 -0.005740902 0.16051514 0.040459488
-0.026818385 0.033105575 -0.025522545 0.030027602 0.090583414 -0.016933916 0.06801345 0.030494854
-0.047972824 -0.008545267 0.06648003 -0.0017630553 -0.018848488 -0.019336551 -0.0054654814 -0.08378512
0.08702204 0.04744743 0.05728081 -0.045819823 -0.022116749 0.0034962005 -0.024186792 -0.074092254
-0.034306128 -0.018928515 0.004395526 -0.028661665 0.0028808545 -0.033120442 0.011568686 -0.012136843
-0.04055889 -0.009636448 -0.033290833 -0.021461675 -0.020564225 -0.0062036184 -0.016052231 0.00017613794
-0.0118823545 -0.0020606527 -0.0012431446 0.012353718 0.018280616 0.0056307013 0.0032052877 0.020107882
-0.02615129 0.037661824 0.07890511 0.033522204 -0.06194849 0.026797071 -0.037511688 -0.0030483967
0.034791343 0.055340827 -0.03267314 0.0021067117 0.035779774 0.04160565 0.07925623 0.05646275
-0.02672616 0.04654748 -0.018164054 0.097037934 0.11073992 0.003079508 0.08876483 0.039938603
-0.056414373 -1.1537954e-05 0.049202662 -0.012160231 -0.009100279 -0.049539108 0.012630051 -0.23058945
0.01353578 0.093287244 0.028810084 -0.11744873 -0.18627025 0.018537257 0.002093866 -0.1481805
-0.12012129 0.0095432885 -0.01007071 -0.008183125 -0.03467075 -0.023108833 -0.0049228496 -0.0035394654
-0.017818468 -0.040271167 -0.008589942 -0.022575742 -0.011149144 -0.009967815 -0.023942402 0.004090009
0.0010993311 -0.0044865417 -0.007510727 0.002663789 0.014129845 0.0017512441 0.0013937295 -0.0017051493
-0.0010186944 -0.0087713245 0.10699307 0.04884747 -0.017768811 0.029829051 -0.07028683 -0.011624745
0.056918673 0.05131598 -0.041084472 -0.00672348 0.053718124 0.02517795 0.048140362 0.046115156
-0.032599732 0.043167416 -0.026487054 0.07657378 0.1216344 0.0061339494 0.09019778 0.04247092
-0.046002954 0.052491132 0.04734006 -0.005241135 -0.01743781 -0.021538293 -0.004839119 -0.21106143
0.007523798 0.09718816 0.040649753 -0.10454969 -0.1828514 0.04245034 -0.022818355 -0.13821234
-0.1525515 -0.019415516 0.0059304433 -0.0072565717 -0.028554339 -0.016252732 0.006478938 -0.012184664
-0.02421188 -0.015883029 -0.013570482 -0.061248977 0.007141168 -0.01124683 0.012006078 0.006477827
0.0054855933 0.039194833 0.009079584 0.025140557 0.004528399 0.0034067638 0.03619731 -0.015231713
0.010611834 0.04012418 0.09013559 0.07679291 -0.016531108 -0.010014621 -0.050265525 -0.046479184
0.02160803 0.0056214007 -0.03167992 -0.004167729 0.046988633 -0.028203592 0.121698104 0.04421424
-0.037011944 0.03760932 -0.036453467 0.06802708 -0.0026625493 -0.0010916671 0.070609614 0.028312938
-0.014077278 0.0060584336 0.07286792 0.008746349 0.00065995636 -0.032750074 0.0012008526 -0.09575133
0.089098155 0.056051966 0.044634774 -0.053880893 -0.034370046 -0.0023414893 -0.010229802 -0.070680365
-0.01727314 -0.005835811 -0.0018301477 -0.024418505 -0.016178867 -0.01229843 0.0055790883 0.0016163863
-0.008587166 -0.01997645 -0.018294897 -0.0339787 0.0029028512 -0.009176942 -0.0022332233 0.01706551
0.008613638 0.0031695915 -0.004638754 0.008684777 0.031210592 -0.006004278 0.0045571374 0.017765975
-0.003995971 0.023703016 0.10117482 0.042362723 -0.032480463 0.032767612 -0.039358683 -0.020639088

encoder.0.0.bias f4 [64]
00000000: 7625 fbb5 4c2d 0738 12a3 c4b6 d92e ac37
00000010: 4cf0 8637 6f7f 86b7 7068 11b8 2b80 e737
00000020: 497c d6b8 7fac 8f38 b3e1 3d37 23a7 91b8
00000030: f4e2 1d38 1007 47b8 b24e c4b7 7fa8 5bb7
00000040: 546c 3438 71b4 97b7 96f3 ae37 b59d 9937
00000050: 1431 2738 2eab b237 8a0a b537 888a 16b9
00000060: dd00 07b8 ade0 32b5 1479 2cb9 cec4 bf37
00000070: a6a6 82b7 bb9b 04b8 7f6b a737 1798 a7b6
00000080: 6847 2238 96f2 8637 4a30 37b8 cdd6 11b7
00000090: ae65 6936 140d bcb8 06be 3cb8 3028 9437
000000a0: 370d fbb6 d4bc 0737 0bcc 59b8 f55d 0239
000000b0: 4d16 cd37 9fa3 50b8 e4e6 1e37 b071 7bb7
000000c0: ea5a 04b9 404a b638 c15f 1738 61b2 47b8
000000d0: ab29 55b7 47c6 db37 8903 d838 2768 18b9
000000e0: 9d98 0db7 c9c2 9bb9 9c1f 6638 6591 72b8
000000f0: 58c6 69b8 6fbd 92b8 6966 9d37 3665 c7b7
-1.871186e-06 3.2228694e-05 -5.860239e-06 2.0525813e-05 1.6085942e-05 -1.6033386e-05 -3.466796e-05 2.7597029e-05
-0.00010227465 6.850901e-05 1.1317828e-05 -6.9452704e-05 3.7643083e-05 -4.7451875e-05 -2.3401666e-05 -1.3092648e-05
4.3016233e-05 -1.8084627e-05 2.0855845e-05 1.831246e-05 3.986161e-05 2.1298965e-05 2.1581789e-05 -0.00014356722
-3.2187312e-05 -6.6637114e-07 -0.00016448303 2.2860619e-05 -1.557481e-05 -3.1616288e-05 1.9958008e-05 -4.9946934e-06
3.8690312e-05 1.6087008e-05 -4.3675573e-05 -8.692686e-06 3.477889e-06 -8.9669746e-05 -4.4999666e-05 1.7661689e-05
-7.4819213e-06 8.090592e-06 -5.192686e-05 0.00012432768 2.4448289e-05 -4.974345e-05 9.471292e-06 -1.4987236e-05
-0.00012622369 8.6922664e-05 3.6090383e-05 -4.7611426e-05 -1.2705491e-05 2.6199164e-05 0.00010300341 -0.0001453465
-8.439788e-06 -0.0002970903 5.486571e-05 -5.7832705e-05 -5.573625e-05 -6.997107e-05 1.8763547e-05 -2.3769779e-05

encoder.0.1.weight f4 [64]
00000000: 5575 b83f 52d9 b93f bc68 b93f 7510 ba3f
00000010: edfa b73f 3522 b73f 4b4d b83f b2cc b83f
00000020: 508a bb3f e573 b83f 39b0 bb3f 9550 bb3f
00000030: e7e5 b63f d0da b93f 28c7 b83f 52f1 bb3f
00000040: 7c61 bb3f 1fc1 ba3f 5383 b93f ceaa b63f
00000050: 1c1f b73f a733 b93f 9058 bb3f df98 ba3f
00000060: 3b26 b83f 7410 b83f 47c4 ba3f a4c7 ba3f
00000070: 0d49 bb3f fd9f b73f 4af4 b83f f6cf b63f
00000080: f201 b83f 9011 ba3f 24e9 bb3f 7f6f b73f
00000090: acb2 b73f c8b9 b53f d0b2 b73f c962 ba3f
000000a0: fe99 b93f 2269 ba3f 20aa b83f 10b7 bb3f
000000b0: 46dc bb3f 8f74 bc3f 2f39 b73f a7df b63f
000000c0: d78e ba3f 54c5 b73f eae3 b93f 4e01 b73f
000000d0: 320d b93f f339 ba3f 6379 ba3f f03e ba3f
000000e0: bd26 b53f bdd7 ba3f ed41 b93f 25ae b83f
000000f0: a990 bd3f 83a9 b73f 4d6a ba3f 3469 ba3f
1.4410807 1.4519446 1.4485087 1.4536272 1.4373451 1.4307314 1.4398588 1.4437468
1.4651585 1.4410368 1.4663154 1.4633967 1.4288911 1.4519901 1.4435778 1.468302
1.4639125 1.4590186 1.4493202 1.4270875 1.4306369 1.4468888 1.4636402 1.4577903
1.4386667 1.4380021 1.4591149 1.4592175 1.4631668 1.43457 1.4449551 1.4282215
1.4375594 1.453661 1.4680524 1.4330901 1.4351401 1.4197321 1.4351444 1.4561397
1.450012 1.4563334 1.4426918 1.4665241 1.4676597 1.4723071 1.4314326 1.4287003
1.4574841 1.4357095 1.4522679 1.4297273 1.4457152 1.4548935 1.4568294 1.4550457
1.4152447 1.4597088 1.4473244 1.4428145 1.4809772 1.4348606 1.456369 1.4563355

encoder.0.1.bias f4 [64]
00000000: 913f e83e 5e7e ec3e 774d ea3e 27cb e63e
00000010: cb23 e63e 56f7 e13e 582d e83e f49a e83e
00000020: 887b ec3e f55e e83e 2ad9 ef3e 7fe5 ec3e
00000030: 7c62 e73e c1f2 f13e a078 e13e f6f2 f03e
00000040: 7ced e83e b477 eb3e 873b ea3e 8e4e e13e
00000050: 055b e33e cfef e33e e277 f13e a1ea e83e
00000060: f5b1 de3e 86d6 e53e 84b6 eb3e 254c eb3e
00000070: a92f ec3e b344 e53e de76 e83e 3881 e03e
00000080: b437 e83e 1471 f13e 5bbf f33e f57c e33e
00000090: dc6b e53e d990 df3e fa21 e63e 748a f23e
000000a0: c275 eb3e 0eac e93e ce3e e83e 426d ee3e
000000b0: ea1d f23e 3ba5 f53e 8643 e13e e880 e03e
000000c0: 8183 eb3e 76d6 e53e fa45 e53e e982 e13e
000000d0: 1f9e e93e af95 e93e 42ec eb3e 1b16 e93e
000000e0: c5d4 da3e 729f e83e e687 eb3e 4e49 e93e
000000f0: 84d0 f33e d650 e63e 2a0f e73e c385 e83e
0.45360997 0.4619016 0.45762226 0.45076868 0.44949183 0.44134015 0.45347095 0.4543072
0.46187997 0.45384946 0.4684537 0.46268842 0.45192325 0.4725552 0.44037342 0.47060364
0.45493686 0.45989764 0.4574854 0.44005245 0.4440538 0.44518897 0.47161776 0.45491508
0.43495145 0.4489023 0.46037686 0.4595653 0.46130112 0.44778976 0.45403188 0.43848586
0.45354998 0.47156584 0.4760693 0.44431272 0.44808853 0.43665197 0.44947797 0.47371256
0.4598828 0.4563908 0.45360416 0.46567732 0.47288448 0.47977623 0.4399683 0.43848348
0.45998767 0.44890183 0.4477995 0.4404519 0.4562845 0.45622012 0.46078688 0.45524678
0.42740455 0.45434147 0.4600212 0.4556374 0.47620022 0.44983548 0.45128757 0.45414552

encoder.0.1.running_mean f4 [64]
00000000: 29f7 3441 f221 e741 c853 be3f 74a7 6941
00000010: 432e 47c1 65df 41c1 a87c 2340 cbd1 69c1
00000020: dc74 32c2 7076 47c2 d054 98bf 3859 2b42
00000030: 9a19 c3c2 9f4c 3b41 66d8 9441 70ec c23f
00000040: 14cc 1b41 c812 4dc0 c731 dbc1 6f52 6f41
00000050: 8539 97c1 75cf 9cc1 7b6f a73f 12e2 8fc1
00000060: 33a7 03c2 2da7 c7c1 fa8b 6242 6ed8 26c1
00000070: cb37 8b3f 0f1c 79c0 66c9 b740 5e4e a440
00000080: 4c23 b0c1 3ae2 3040 57e6 4240 f5e4 fdc0
00000090: e624 f33f 7d7c f741 4d9a 9541 f4cf 973f
000000a0: 25eb ea42 3216 4f42 4257 69c1 b4d4 0542
000000b0: 59e2 6340 d99e 6341 487c c5bf daf3 8740
000000c0: d656 8742 a6c3 1b42 563e 5ec1 ccd0 e0c0
000000d0: 7e62 bc41 0cf0 56c1 1741 9441 5aea cb41
000000e0: 1556 4242 30fd 12c2 dd39 8041 25b5 01c1
000000f0: 4115 0941 f70a 8ac1 42cd 7240 5ff3 4bc1
11.310342 28.891575 1.4869318 14.603382 -12.448794 -12.11704 2.5544834 -14.613719
-44.61412 -49.86566 -1.1900883 42.837128 -97.55 11.706206 18.605663 1.5228405
9.737324 -3.2042713 -27.399305 14.957625 -18.903086 -19.601297 1.3080896 -17.985386
-32.91328 -24.956629 56.636696 -10.427839 1.0876402 -3.8923376 5.743335 5.1345663
-22.017235 2.7638078 3.0453088 -7.934199 1.8995636 30.935785 18.700342 1.1860337
117.45927 51.771675 -14.583803 33.457718 3.5606902 14.226281 -1.5428553 4.248517
67.6696 38.941063 -13.890219 -7.025488 23.548092 -13.433605 18.531782 25.48943
48.584064 -36.747253 16.028254 -8.106725 8.567689 -17.255354 3.793778 -12.746917

encoder.0.1.running_var f4 [64]
00000000: 191c 4d41 da6a ae41 6614 b741 e625 9541
00000010: 9c83 7841 42dd 5741 5776 9041 f945 3b41
00000020: 357e b941 dad2 9341 a81c e341 ba91 a541
00000030: 49a5 d241 3932 8741 016a 7241 60c0 4041
00000040: 6e45 8141 923c c141 7b40 a141 2b16 9e41
00000050: 32d5 6841 0bd1 b141 f6c7 7f41 06c3 a741
00000060: 2c6c ab41 fe3b 9341 8b7f 6d41 b26d 8541
00000070: 56ea 3441 7f1c f241 1243 3d41 af7c 7a41
00000080: 3ee2 e641 5528 8941 9dfb 2641 cab7 8841
00000090: 6bd5 b341 3b45 e741 9055 e341 3399 6d41
000000a0: 3c12 6542 1006 c141 92e2 9441 301d 8141
000000b0: e4f6 6741 fd04 4c41 ab5e 9341 f6de 6841
000000c0: 373d 8741 daab 0742 2e1c c941 0b3c 4341
000000d0: 7770 d241 b57b b641 de55 8141 0dbf 9441
000000e0: 811a 2a42 07bd fd41 6ec5 cf41 c10c 8841
000000f0: ec63 6541 bd22 b941 c139 9d41 c2e7 bb41
12.81936 21.802174 22.88496 18.643505 15.532131 13.491518 18.057783 11.704583
23.186625 18.477955 28.388992 20.696156 26.330706 16.899523 15.15088 12.046967
16.158901 24.154575 20.156485 19.760824 14.55205 22.227072 15.986319 20.970226
21.427818 18.404293 14.843638 16.678562 11.307211 30.263914 11.828875 15.65544
28.86047 17.144693 10.436429 17.08974 22.479208 28.908804 28.416779 14.849902
57.267807 24.12796 18.61063 16.139252 14.497776 12.751218 18.421225 14.554434
16.90489 33.917824 25.13876 12.202159 26.304914 22.810404 16.166927 18.593287
42.525883 31.717299 25.971401 17.006227 14.336895 23.141962 19.6532 23.488163

encoder.1.0.weight f4 [32, 64]
00000000: fc01 02bd dc26 e13c b071 22bd 0181 6abe
00000010: 7edb 5fbd 40fc 6f3d 99c2 8b3d e50b 42bc
00000020: 223e e2bd 8422 123d 67b8 2a3d 644d 333c
00000030: e2ea f63d eebb 943b d1e8 febd de7c 453d
00000040: 3167 0bbe d189 b5bc 95ae 35bd 696d e43d
00000050: eebc a4bc 1b48 b8bc 4c7a 1dbd 95b7 08be
00000060: 7705 f9bd 9bf5 5fbd 2e2d 16be bc51 d9bd
00000070: 0b2b 06bd f44b ae3d dc5c 78bd ebe0 8e3d
00000080: ea4d 663d 4a13 2f3c 9ee7 95ba acee 3b3c
00000090: c3af 8d3d c1cc 083e b08c 8e3d 1139 1e3b
000000a0: 7667 e33c 91a6 12be 6c72 ae3d c4f2 6b3d
000000b0: 413d 02be 55dd 2c3d 56de 5c3d 9740 973d
000000c0: d150 5abe 04e0 773c 88f1 f6bc d513 da3d
000000d0: a66c 6a3d 3b82 87bd 5a44 86bd 371c cebd
000000e0: 2126 113c 84ff 69bd 742d 703c 6833 533d
000000f0: d5a0 563c 4a00 bebc 0f3b 3cbe 58b3 abbc
00000100: c1f9 1ebd 3116 613d b5f0 9fbd 8df0 81bd
00000110: 6ebd 47bd 4919 5b3c 68ce 133c 52e9 13bd
00000120: f316 19be 33ec 6dbd 0ebd d43a 4064 ffbd
00000130: 2c22 ef3c 959b 4ebd aae5 1cbe df18 3fbd
00000140: d1b8 7dbe 635b 32be 9329 2abd 04a9 603d
00000150: 02fc 0bbe cbce 51be 3fff b2bc d605 50be
00000160: ad5e bdbd 322a 753d 54d8 f9bd bc22 17be
00000170: ac2b 27bc 15d8 32bd 7703 30bc f1f9 083d
00000180: 94bb ef3d 3074 a4bd 4237 8ebc 9547 c6bd
00000190: c767 7d3d 7631 f33d 692b ea3c 7325 60bd
000001a0: 7a3a aebb c596 c8bd 2a14 eebd a98b bdbd
000001b0: a205 92bd f128 d03a a00a 823c 8c09 9fbb
000001c0: a70c f7bd 722e 9a3d 113a e6bd 468d 92bd
000001d0: 74ec 1c3c 2834 6abd 66e1 8dbc 81f7 adbd
000001e0: 9c61 f2bc 9cdf 34be 5c04 34bd cdc4 843d
000001f0: 28c9 15bd 8aab 433d 4ad3 bfbc fa0f 2c3c
00000200: 4d3a b0bd d370 183d b9fb f2bb 18c2 46be
00000210: a647 52bd f703 d9bd 311d 023d a8de 51bd
00000220: bed9 92bc 8d17 f0bd 316f e33d 2432 0abe
00000230: da46 dd3b 0ade a5bc 2e2c dcbd 0db5 3fbd
00000240: 6c32 96bd 7230 cdbd 2dc1 d5bc 2f41 4e3d
00000250: d872 7e3d f9a4 58be 00d3 95bd a362 11be
00000260: 144c 06be 42ce a9bd 835f 6fbd 2406 cfbd
00000270: 7bf0 cdbd 54cf af3c 3748 53bc 1501 bdbd
00000280: 4712 8ebc 0770 19bd 97cc 62bd 2b22 093d
00000290: cfda 0dbd bc36 0e3d 835b 4cbd ea5b 443d
000002a0: 0a36 a9bd ee28 0dbe 624e 12be 485d 7bbd
000002b0: 6d99 593c 3825 aa3c bcb8 cabd c233 8cbd
000002c0: 18d6 7fbd 5e65 d5bd 46af 3bbe 9126 d63b
000002d0: aadd c6bc aaa5 c5bd d406 9bbd c1df b5bd
000002e0: d114 103d eacf 0ebe 2f2c 893d 11b8 dbbd
000002f0: 81cb 96bc 369c aa3d daaa febd d2e2 e7bd
00000300: 08bd 0abd 2ed9 a3bd b416 21bd 0a03 ffbd
00000310: 0e8d 913d 499e 08be 5763 21bd 3f1a e4bd
00000320: 6cdd c4bd 3449 c8bd 37ee 6dbc 63b6 86bd
00000330: 93fa 0abe eabb cabc 578d 03bd fd22 05bd
00000340: 50bd 9dbc 44de b1bd 670b 83bc e8ab 66bd
00000350: 2e81 0ebd 04c1 07be e6f9 a2bd 4d0c 07be
00000360: 7a1b 803c c967 873d 084e 8abd c43b 1bbd
00000370: 4ee9 92bd 41fd d2bd d478 ecbc a830 4a3d
00000380: cca0 e1bd bc9e 4bbd d728 03bd 1e19 94bd
00000390: 055b f0bd e81b 7e3d 1b8a 8b3c 17ef 2e3c
000003a0: a047 88bc 8422 93bd c593 7cbd 1205 c2bd
000003b0: 131e b9bd 858e 72bd 09b6 b4bd c5dc 0abc
000003c0: 01a5 a1bd 5fcf b3bd 548a 7ebd fd99 8abd
000003d0: 3a0d c7bd 58ab b3bd 0106 a6bd 11e4 803d
000003e0: a5d0 8c3d 912b 62bd 0903 f4bd f8eb 1c3d
000003f0: eb37 10bd e756 e9bd 8916 29be dc5e 14be
-0.031740174 0.02748435 -0.039659202 -0.22900774 -0.054652683 0.058590174 0.06824226 -0.011843656
-0.11047007 0.035677448 0.041679766 0.010943744 0.12056519 0.0045390045 -0.1244675 0.048214786
-0.13613583 -0.022160443 -0.044355948 0.11153681 -0.02010962 -0.02249532 -0.03844671 -0.13351281
-0.121592455 -0.054677587 -0.14665672 -0.10611293 -0.032755893 0.08510581 -0.060635433 0.069764934
0.05622665 0.010685751 -0.0011436825 0.011470478 0.069182895 0.13359357 0.06960428 0.00241429
0.027759295 -0.14321353 0.08517918 0.057604566 -0.12718679 0.042203266 0.053922974 0.073853664
-0.21319892 0.015129093 -0.030144468 0.10648314 0.05723252 -0.06616636 -0.06556006 -0.10063975
0.008859188 -0.057128444 0.014659274 0.051562697 0.013099869 -0.023193497 -0.18381904 -0.020959541
-0.038812403 0.054952804 -0.07809583 -0.063447095 -0.04876464 0.013372728 0.009021379 -0.036111183
-0.1495016 -0.058086585 0.0016230659 -0.12470293 0.0291911 -0.050441343 -0.15321985 -0.04665458
-0.24777533 -0.17417674 -0.041543555 0.054848686 -0.13670352 -0.20489042 -0.021850226 -0.20314726
-0.092465736 0.059854694 -0.121994644 -0.14759344 -0.010203283 -0.043663103 -0.010743014 0.033441488
0.117056996 -0.080299735 -0.017360333 -0.09681622 0.061866548 0.11874668 0.028585153 -0.054723214
-0.0053170295 -0.09794382 -0.1162494 -0.09255154 -0.071299806 0.0015881342 0.015874207 -0.004853433
-0.1206296 0.0752839 -0.11241544 -0.07155852 0.009577859 -0.057178646 -0.017319392 -0.08494473
-0.02958756 -0.17663425 -0.04394947 0.06482849 -0.03656879 0.047771014 -0.02341618 0.010501856
-0.0860487 0.037216973 -0.0074152616 -0.19409978 -0.05133786 -0.10596459 0.03176612 -0.051237732
-0.017926093 -0.11723242 0.111051925 -0.1349569 0.006752831 -0.020247478 -0.10750614 -0.046803523
-0.07333836 -0.10019006 -0.02609309 0.050355133 0.062121242 -0.21156682 -0.07315636 -0.14197783
-0.13114959 -0.08291294 -0.058440696 -0.10108593 -0.10055634 0.021461166 -0.012895635 -0.09228722
-0.0173427 -0.037460353 -0.055370893 0.03347985 -0.0346325 0.034720168 -0.04989196 0.04793922
-0.0826226 -0.13785145 -0.14287713 -0.061368257 0.013281208 0.0207697 -0.098985165 -0.068458095
-0.062460035 -0.10419725 -0.1832858 0.006535359 -0.02427562 -0.096507385 -0.07569662 -0.08880568
0.035176102 -0.139465 0.066978805 -0.10728467 -0.018407585 0.08330576 -0.12434931 -0.113225594
-0.03387168 -0.08000408 -0.039328292 -0.124517515 0.07106982 -0.13341631 -0.03940138 -0.111378185
-0.09612545 -0.097795874 -0.014522127 -0.06577756 -0.13572149 -0.024747808 -0.032117214 -0.03250407
-0.01925531 -0.08684972 -0.015996648 -0.056316286 -0.034791164 -0.13257223 -0.079578206 -0.13188286
0.015638102 0.06611592 -0.067531645 -0.037898794 -0.071734056 -0.103022106 -0.02886621 0.04936281
-0.11016998 -0.049711928 -0.03202137 -0.07231353 -0.117361106 0.062038332 0.017033627 0.010677121
-0.016635716 -0.07184318 -0.06166436 -0.09473623 -0.09038939 -0.05921795 -0.08823783 -0.008475487
-0.078928 -0.08779787 -0.06214364 -0.06767652 -0.0971932 -0.087729156 -0.08106614 0.062935
0.06875733 -0.05521733 -0.119146414 0.038310975 -0.035209578 -0.113935284 -0.16512503 -0.14489311

encoder.1.0.bias f4 [32]
00000000: 27e2 c7b6 bf2a 3839 a1c1 c937 70fe 3e3a
00000010: f56e 07b9 b1f9 d238 8484 a3ba c91f 1ab8
00000020: 8b1d 9837 bf29 b1b9 6aaa af38 bd9b a9b7
00000030: 795e 0737 39df 36ba 362c 4637 cd96 1939
00000040: 0225 2db9 0ae8 3939 e7b5 1838 3620 3bba
00000050: de83 afb7 e84d 9eb8 757b a1b9 2e6a 48b9
00000060: 5d8c 7838 f865 43b9 fb1a 8938 e700 69b9
00000070: 673c c8b7 65b7 deb8 8ebb 05b9 17f9 9cb9
-5.9569898e-06 0.00017563532 2.4051233e-05 0.0007285839 -0.00012915938 0.00010060089 -0.0012475406 -3.6746063e-05
1.8133569e-05 -0.00033791174 8.376392e-05 -2.0218891e-05 8.068623e-06 -0.0006976012 1.1812013e-05 0.00014647395
-0.00016512352 0.00017729416 3.6409034e-05 -0.00071382837 -2.0923031e-05 -7.548538e-05 -0.00030800296 -0.00019113041
5.925853e-05 -0.00018634635 6.5376946e-05 -0.00022220948 -2.3869985e-05 -0.00010619945 -0.00012753738 -0.00029940225

encoder.1.1.weight f4 [32]
00000000: a60c 733f e700 823f 7c66 673f 7bb6 833f
00000010: 86c4 843f bf5a 713f 645c 6e3f b52e 603f
00000020: 2a9f 5d3f 4183 6d3f 59f5 7c3f 8ba0 733f
00000030: 3706 733f 9fd9 763f c241 7b3f fea1 7a3f
00000040: 1605 873f 86c5 6c3f 3373 7d3f 11aa 843f
00000050: 4f93 873f 8dda 743f a65e 7e3f b16e 833f
00000060: 5598 7f3f 42b8 6a3f 7659 6b3f 9817 6f3f
00000070: a73b 643f aa8b 7f3f d096 8a3f 67a7 733f
0.94941175 1.0156525 0.90390754 1.0290064 1.0372474 0.9427909 0.93109727 0.8757127
0.8657099 0.927784 0.9881187 0.95166844 0.9493136 0.96425813 0.98147213 0.9790343
1.0548427 0.92488897 0.99003905 1.03644 1.059183 0.9564598 0.9936317 1.0268155
0.99841815 0.91687405 0.9193338 0.93395376 0.8915352 0.99822485 1.0827274 0.9517731

encoder.1.1.bias f4 [32]
00000000: e81a b83d 0ea2 8f3c 93ab da3c 4646 1cbb
00000010: af65 973c fc37 9ebd ae1a 29be 7dbc 923d
00000020: 84a5 113e 6a29 a53d da79 973d 28ff a53a
00000030: fe8d a93c cbd8 d0bd f623 0bbe 1f02 9ebc
00000040: e224 043e 7c56 113d c748 983c f3b0 333d
00000050: f50d f43c a917 8c3d 8243 9dba 4e23 8f3d
00000060: 1ce4 863d e5f2 3b3e 0bfc 5b3e e7d6 3abd
00000070: 91b9 c23e 83ba 213d d8e3 13bb 4533 123d
0.08989507 0.017533328 0.026693141 -0.0023845597 0.018481104 -0.07725522 -0.16514084 0.071648575
0.14223295 0.0806454 0.07396288 0.0012664543 0.02069759 -0.101976 -0.13587937 -0.01928812
0.12904695 0.03548287 0.01858939 0.043869924 0.029791811 0.0684045 -0.0011998268 0.06989156
0.06586477 0.18354376 0.21482866 -0.045615103 0.380322 0.039484512 -0.0022566225 0.035693426

encoder.1.1.running_mean f4 [32]
00000000: 8f6d 29bf 5f1b 13c0 53ee 2fc0 95ba 3ac0
00000010: 2813 80be 188f e63f 931c 4840 e66a 06be
00000020: e636 77bf 33cd 4dc0 e948 20c0 170b 41bf
00000030: 908c 4ec0 e5f2 2ac0 0525 913f a8f8 3940
00000040: 0fa7 4fc0 a4b1 3dc0 cd2c 59bf 56d9 1f40
00000050: 3a6d 953f 8224 35c0 ab14 36c0 fa5d 34c0
00000060: ef7c 37bf 9a6e 44c0 9203 37c0 1f23 33c0
00000070: 653d 53c0 d99b 503d 0d87 bdbf 5f8a 47c0
-0.661828 -2.2985456 -2.7489212 -2.917638 -0.25014615 1.8012419 3.126744 -0.13126716
-0.96568143 -3.2156494 -2.50445 -0.75407547 -3.2273293 -2.671075 1.1339422 2.9058018
-3.2445714 -2.9639673 -0.84833986 2.4976401 1.1673958 -2.8303533 -2.8450115 -2.8182359
-0.7167501 -3.0692506 -2.859593 -2.7990186 -3.3006222 0.050929878 -1.4806839 -3.1178205

encoder.1.1.running_var f4 [32]
00000000: 75bf a540 2abc 9240 6035 0240 ee46 003f
00000010: 4dcb 4040 ef86 0e40 38f7 f43e 0e7e 3040
00000020: b40c 5d40 2661 023f 5eb3 4f40 5c31 8940
00000030: 2f51 2b40 baad ab3e d8cc 3b40 94f9 bc3f
00000040: 8c55 fd3e baf8 103f ecf4 4040 5734 943f
00000050: 2989 5c40 c399 2640 1171 ea3e 96a7 c53e
00000060: 1c3b 6540 b711 813f 447e 7c3f 2173 3a40
00000070: 9c57 aa3f 8d7e 983f c80e 8940 cc97 0c40
5.179621 4.5854692 2.0345078 0.5010823 3.0124085 2.2269857 0.47844863 2.7576938
3.4539003 0.50929487 3.2453227 4.2872753 2.67683 0.3353098 2.9343777 1.4763665
0.4947933 0.56629527 3.0149488 1.1578473 3.4458716 2.6031349 0.45789388 0.3860442
3.5817327 1.0083531 0.98630166 2.913277 1.3307986 1.191362 4.2830544 2.196765

encoder.2.0.weight f4 [16, 32]
00000000: b223 803d 3886 04be e696 4a3d 7317 ac3c
00000010: aab6 b1bd c70b 09be 6af7 54bd 1571 d63d
00000020: 17b4 b23d 0cfa 41be 2b23 d2bb d8af 76bd
00000030: b333 07be 915b 07be 5370 13be 634b 9a3d
00000040: 9b3a d93d 381f f73d de46 23be 063f 8bbe
00000050: 2fae 1c3b 9582 06be 9fa8 5a3e 8cf9 18bc
00000060: 4f91 1b3d 491e e53c a45b b83d ffa7 cfbc
00000070: 5e83 f3bc 5f09 4abd acd5 1dbe e75f f43c
00000080: 5267 c0bd 49aa e8bd cccc 3a3d 0461 81be
00000090: dbb1 8abd ac11 a73d 7600 48bd 234e 613d
000000a0: 357f 13bd 9a71 223e 71c9 0e3e fe2c 79bd
000000b0: 02cf d83d 07c0 f0bb abc8 27bc 638f a43d
000000c0: 3b9d 20be 8ec6 bbbd 40c8 5e3e da46 c53d
000000d0: fbed 1cbd dc5b e63d f110 ecbb 02f2 a0be
000000e0: 3e8c 23be c132 61bd 2262 13be be46 f23d
000000f0: e821 c7bd d01d 64bd 0341 753e d5d2 de3d
00000100: c692 3ebe c1fa 3cbe 369a a33d 38ad 193e
00000110: 38c2 82be aa77 f93a 4c04 8abd 1413 ea3c
00000120: 5899 b23d f01f da3d ad9f f1bd d742 9d3c
00000130: f88c 2abd 8f1b 0b3e ba08 883d 7ae8 67be
00000140: 8f89 b33d a408 f93b f8c8 02be a613 adbd
00000150: c56c 75be 09a9 7cbd 81ec bc3c f45d 02be
00000160: 6bbc 28be 95ad 04be a168 9b3c 28ce 63bd
00000170: a432 b63d c884 3dbe 5c6b 2bbe 32fd 87bd
00000180: 05e2 f73d 122e f03d 4afe debd 4af6 1bbd
00000190: 4572 193d 7c94 b63d 4203 113d dc1f 663d
000001a0: 1d53 a8bd cda8 fdbd f56f 603d 3058 07be
000001b0: 0a7a b0bd a9e7 443d 64b0 393c 54a0 bc3c
000001c0: 9099 87be 0cf6 19bd 8eab 9dbc b208 4d3e
000001d0: 6058 993c 6704 43be 66d0 93bd 3ea9 a2be
000001e0: 67ad 6dbd c61e d33d cb94 083d 307e 76bd
000001f0: 4fce c03d 8139 b5bd 37e4 d43d 2bcd 153e
00000200: 42cc 053e ab12 45ba 0b21 7c3d ff65 b7bd
00000210: 9c48 083e 4b3d 15bc ff49 81bd 7e2f d9bd
00000220: 7d5a b53d 1432 32be b109 743d 4f1a c03d
00000230: 58cc 333c 62b8 a4be d43f 5c3d 47e5 e23d
00000240: 0fe7 b7bd 0b3a 4dba 60ad dc3d 9cf4 c33d
00000250: 4cd9 113e bdb3 d9bd c787 ccbd b65d 08bd
00000260: 2caa 9a3d 5f09 2bbd 5f48 613c 9df4 f03d
00000270: a80d e3bd e4e5 8f3d a9a9 553d 82d5 39be
00000280: d995 e43d 35f4 e6bd c790 86bc 5672 8abd
00000290: 6781 9abd 6c07 3abd 0882 5d3d 9946 4cbe
000002a0: c219 babd 67c1 ffbc 2fcc e43d de4c a9bd
000002b0: 7957 aa3d 0518 503d b70e b83d b236 9dbd
000002c0: 99f4 5cbe 98ba 49be 3b24 b9bd 8ad6 85bd
000002d0: b2ac 48be bf23 173e 9aee a8bd 3451 52be
000002e0: 177c f6bd af25 de3d 0626 43be 4571 92bd
000002f0: beb2 013e 161d 053e 8eb4 253c df26 3a3c
00000300: 46f4 20be b80b 883d bb42 aa3d 6b94 b6bd
00000310: c7a1 e7bc 5d49 15bd 6bf5 a2bc 45bf 18bc
00000320: fefb 0cbe 38ee 7f3d e913 293e 7030 f83d
00000330: f0d7 46bc e317 84bc eb9b 393e c15b 333c
00000340: c791 83be 8616 3ebe 9992 95bd f3d8 60bd
00000350: c7ba 3fbd a4af dfbc 1291 5cbd 5192 74be
00000360: 65a2 05bd eb2e c13d 6d41 f4bd a436 163d
00000370: b25b eabd 5233 c83c 5033 813e 911c 7c3c
00000380: 2669 5abe d752 dfbd fbca ca3d 7626 b6bd
00000390: fbd2 f8bb 1f5d 2abd b707 79be 7a31 28be
000003a0: 5494 23be 976c 58bc ca08 b13b dbde b2bc
000003b0: 7d83 cfbd 84ee 7a3d 9466 e83b cb67 11be
000003c0: e535 2dbe ca4b a73d 3b2b 8bbe dee7 3a3d
000003d0: 129f 85be 9832 5bbd 33af 8cbb 47df d2bc
000003e0: 42f1 13be 925e 0bbd ee32 38be f0c6 a5bd
000003f0: f3b0 8bbc ae14 7cbd c4d3 d2bb 5621 143e
0.06256808 -0.12941825 0.049460314 0.021007275 -0.086774185 -0.13383399 -0.051993765 0.104707874
0.08725756 -0.18943042 -0.0064128838 -0.06022629 -0.13203315 -0.13218524 -0.14398317 0.0753391
0.10606881 0.120665014 -0.15945002 -0.2719652 0.0023907532 -0.1313575 0.21353386 -0.00933684
0.037980374 0.027968543 0.09001854 -0.025348661 -0.029725727 -0.049325343 -0.1541354 0.029830886
-0.09394707 -0.11360604 0.045605466 -0.2526933 -0.067722045 0.081576675 -0.048828565 0.055006158
-0.036009986 0.15863648 0.13944031 -0.060833924 0.105863586 -0.00734711 -0.010240714 0.08035161
-0.15684979 -0.09168731 0.21756077 0.096326545 -0.038312893 0.112479895 -0.007204168 -0.31434637
-0.15971467 -0.054980043 -0.14392903 0.11829899 -0.09723264 -0.055692494 0.23950581 0.10880057
-0.18610677 -0.1845503 0.07988398 0.15007484 -0.25538802 0.0019032855 -0.06739101 0.02857355
0.08720654 0.10650623 -0.11798034 0.01919691 -0.041638345 0.13584732 0.066422895 -0.22647277
0.087664716 0.007599907 -0.12771976 -0.08451013 -0.23967274 -0.061684642 0.023061993 -0.12731153
-0.16478126 -0.12956841 0.01897079 -0.055616528 0.08896378 -0.18507683 -0.16740173 -0.0664009
0.12103657 0.11727537 -0.108883455 -0.038076676 0.03746249 0.0891504 0.035403498 0.056182727
-0.082189776 -0.12385712 0.05479427 -0.13217235 -0.08617027 0.04807249 0.011333559 0.02302567
-0.26484346 -0.037588164 -0.019246843 0.20022848 0.018718898 -0.19044648 -0.07217483 -0.31769747
-0.058026697 0.10308604 0.033345025 -0.060178936 0.0941435 -0.088488586 0.10395091 0.14629047
0.130662 -0.00075177354 0.06155495 -0.08955001 0.13308948 -0.009108852 -0.06312942 -0.106047615
0.0885515 -0.17401916 0.059579555 0.09380018 0.010974012 -0.32171923 0.05377181 0.110788874
-0.08979618 -0.00078287785 0.10775256 0.0956814 0.14243048 -0.106299855 -0.09986835 -0.033292495
0.07551989 -0.041756984 0.013750165 0.11765406 -0.11086589 0.0702627 0.052163754 -0.18147853
0.11161394 -0.112770475 -0.016426457 -0.06760089 -0.07544213 -0.045417234 0.054079086 -0.19948806
-0.09086944 -0.031220151 0.111717574 -0.082666144 0.08317465 0.050804157 0.08987182 -0.07676448
-0.21577682 -0.19700086 -0.090401135 -0.06535061 -0.19597128 0.1475973 -0.08248635 -0.20538789
-0.12035387 0.10847031 -0.19057474 -0.07150511 0.12665841 0.12999377 0.010113848 0.011361807
-0.15718183 0.0664286 0.08313509 -0.08915027 -0.028275384 -0.036446918 -0.019892415 -0.009322946
-0.13768002 0.062483042 0.16511501 0.12118614 -0.012136444 -0.016124671 0.18125884 0.010947169
-0.25697157 -0.1856328 -0.07303352 -0.0548944 -0.046808984 -0.027305432 -0.053849287 -0.2388394
-0.032625575 0.09432777 -0.119265415 0.036673203 -0.11443271 0.024438534 0.2523446 0.01538767
-0.21329173 -0.10904472 0.09901997 -0.088940546 -0.00759351 -0.041592713 -0.24319349 -0.16425124
-0.15974551 -0.013209484 0.005402659 -0.021834781 -0.10132501 0.061262622 0.0070923064 -0.1419975
-0.1691509 0.081687525 -0.2718142 0.045631282 -0.26097924 -0.053515047 -0.0042933463 -0.025741233
-0.14447501 -0.034025736 -0.17988178 -0.08094585 -0.01705215 -0.06154316 -0.006433936 0.14465842

encoder.2.0.bias f4 [16]
00000000: 1b21 dfb9 256e 8cb9 96bb 3eb9 62c1 9639
00000010: af58 c6b8 a275 11ba 3830 e5b8 76ad ab39
00000020: 6e43 ab39 f015 0739 3716 4aba f8ef 0cba
00000030: 512f 3a38 1214 53b9 6036 be38 4bd3 12b9
-0.0004255854 -0.00026784945 -0.00018189693 0.0002875431 -9.457894e-05 -0.00055488397 -0.000109285524 0.000327449
0.000326659 0.00012882776 -0.0007708999 -0.00053763343 4.4389923e-05 -0.00020130005 9.070034e-05 -0.00014002358

encoder.2.1.weight f4 [16]
00000000: 4e27 763f 5914 863f b9a9 6a3f d70f 7b3f
00000010: ddcb 863f 9247 723f b1f5 823f 017c 693f
00000020: 8d92 703f a8e1 823f bbaa 853f 6196 733f
00000030: 4624 773f a63d 7c3f 3214 6d3f 7eb3 903f
0.96153724 1.047496 0.91665226 0.98071045 1.0530964 0.9464046 1.0231229 0.9120484
0.9397362 1.0225115 1.0442728 0.95151335 0.96539724 0.9853157 0.9260894 1.1304777

encoder.2.1.bias f4 [16]
00000000: 7fc6 91bc a148 ebbd 948a 1d3e ea99 8bbe
00000010: 8c59 23be 7e4d 84bd a444 2abe edda 2cbd
00000020: 5eda bdbd 8906 39be 1ef7 afbd 1692 c9bc
00000030: 848b a83d 1d65 033e e02f d63b 7ae4 89be
-0.017794846 -0.11488462 0.15384895 -0.27265865 -0.15952128 -0.06460093 -0.16627747 -0.04220097
-0.09270166 -0.18068899 -0.08592056 -0.024605792 0.082297355 0.1283154 0.006536469 -0.26932126

encoder.2.1.running_mean f4 [16]
00000000: 00e4 bbbe 6ab1 1cbe b07d 3fbf 7cb5 1abe
00000010: b163 2c3d 8f35 08bf 9362 97be 7e28 7cbf
00000020: 5e97 a7be 116f 153e 5f8f 41bf 2c36 11bf
00000030: d135 bdbe 12cd e4be 6123 763e 587f 35be
-0.36697388 -0.15302053 -0.7480116 -0.15108293 0.04208726 -0.53206724 -0.29567394 -0.98499286
-0.32732671 0.1459315 -0.7560939 -0.56723285 -0.3695512 -0.44687706 0.24036933 -0.17724359

encoder.2.1.running_var f4 [16]
00000000: afe2 563e 9a1b e53e c604 c73e 614f fc3e
00000010: f8a3 d33e c7b9 a73e 6d7d df3e 2262 403f
00000020: a5cd d53e 9546 5f3e 2b06 453f 2a88 033f
00000030: 84a0 5d3e 63c6 d43e 7f65 463f 4a72 213e
0.2098491 0.4474762 0.3887083 0.4927931 0.41336036 0.32758924 0.4365038 0.7514974
0.41758457 0.21804269 0.76962537 0.51379645 0.21643263 0.41557607 0.7749862 0.15766254

decoder.0.0.weight f4 [32, 16]
00000000: 103d 00be dfc6 293e 53ee e43d fb63 83bd
00000010: d6e7 073d 6a3d 31be 2ddb a43e da34 c8bd
00000020: 1217 2f3d a202 3ebe ae4a 8d3e 0198 273c
00000030: 6faa 81bd e334 52be c2f8 1c3e f730 c1ba
00000040: 27ba 01be 1767 f0bb df13 1b3a 782c fe3d
00000050: 9a73 c1bd 687c b43d d7ab 323e 8744 013e
00000060: 61dd 3a3d d482 483e 7abb 503e 4cac 11be
00000070: fb5f cdbd 0ffe 1a3e cab1 943e e9a7 893e
00000080: e814 5cbe 884e 10be 4ed2 273d 6bb3 82be
00000090: 4b8c 41be ecf8 17be 105b 24be 2e9f 483d
000000a0: 9076 413d 3579 05be c509 09be dd86 aeba
000000b0: a679 0ebd d8c0 a23d b90e c6bd b62c cb3c
000000c0: caa2 d3bd 2ace 8ebd 46da b2bd 1d4f 58bd
000000d0: 4a0a 633e 9afa 23bc d8b3 90bc ae59 20be
000000e0: 3db8 073e 4044 593c bde0 a33c a5ca 4e3e
000000f0: db92 5d3e 748d 383d 9525 8b3b 6489 8a3e
00000100: 6b86 a5be 5300 363e 0393 d63c b889 83be
00000110: ff26 6ebe 45aa 1bbd 0db3 4f3e 30cc 2c3d
00000120: e1e6 8cbd 7215 e6bd 3228 1bbe a9bc eabd
00000130: cc56 a7bc d51e b73d 9503 a03d 29dc 79be
00000140: 610e 4d3e 87a9 c53c da25 9e3d 6628 11be
00000150: 9c2b 99bd 368d ab3c a67c 90bd 6311 433e
00000160: 577c 623e 30b9 1ebd 4228 a33e fca9 a0bd
00000170: aa71 9dbe 28e3 4dbe 98c9 f73d 37b6 003e
00000180: 3fd5 8cbd b115 ccbd b60f f53d f369 1cbd
00000190: e562 133e f8d8 97bc c728 82be 8f80 7b3d
000001a0: 8a6d 23be 0b59 c4bd 9c14 edbd 332c 313e
000001b0: 6db3 8e3e af72 293d aa43 e23c 89eb 833e
000001c0: dfc7 d63d d444 cabd 30cc 0f3e 2f98 9e3b
000001d0: 4dbe 9dbe 4df4 a33d d52f 8cbd 3e4a 35be
000001e0: 12aa d5bc 0999 2a3e ff51 5bbe b18d ee3d
000001f0: 4fd0 eebd 7b39 8cbe bb5e a3bc 1451 92be
00000200: d39d 61be 868b 5d3e e331 31bd d351 6a3e
00000210: 627c 0c3e f6cb 413b 8c37 6b3e 8fef 91bd
00000220: b9e1 b83d 9b9a 60be e439 bc3d 5951 f73d
00000230: cab6 3e3d cb90 a7bd 9772 103e dd97 5bbd
00000240: a5a7 3f3d af3b 003e 135b b9bd ea63 783e
00000250: 2869 a33d ec43 3a3d 48d7 2dbe 3c7e 313e
00000260: a927 103a 5ff9 c33d 4966 3c3e 9740 9bbd
00000270: 5cf3 763d 0229 bbbd c6ac 2dbe d4b9 6a3d
00000280: 8563 973d 8658 3a3e 2a64 8dbd b212 85be
00000290: acd4 95be ac55 3c3d ca59 d2bd 0fe5 5a3d
000002a0: e941 80bd 3283 efbd 4e56 0ebe d90f 093e
000002b0: c090 753b 762c 043d 6114 4ebe 5159 47be
000002c0: b460 e4bd 5843 80be fcbe 913c 913b 02be
000002d0: 82e8 dbbd ddd6 73be 1529 1fbe 14d4 b6bd
000002e0: 4745 d03b 7ca2 9dbe c2a0 83bd de3e 0dbe
000002f0: 0b0d 243e ba14 f5bc 2c2c 5fbb d16f df3c
00000300: c7b2 ad3d 1610 68be 58aa e93d def9 bdbd
00000310: 73ca 563e fdef 23bd 162a 393d 41df 193e
00000320: f4c5 c23d 0db4 d3bc 46c5 22be 7836 36bd
00000330: 1f7c b63d 79ce 723e f121 c0bd 8355 033e
00000340: ec9b 9dbc 88cb 0dbe 5977 153e 6469 3b3e
00000350: b5cb 70be e61e b3bd 6dc3 7d3d bf2b 3e3d
00000360: fccc 3f3e af79 38be b0b4 26be b975 cbbc
00000370: f411 22be a24a 20bd 8477 973d 4241 93be
00000380: 786a 3a3e 8583 57be 609c 3dbe c7f1 36be
00000390: 83a8 51be 70ca 153e 241e 7bbe 55e6 7a3c
000003a0: 5d8d 2dbe de20 bcbd 0069 233b 2a09 3cbe
000003b0: 608e ea3d 350f c33d 9e48 0cbe 829f b13d
000003c0: 440e 67bd 01e7 90be c00e ad3d e96d a0be
000003d0: ec21 3e3e 450a 4cbe e9dc 303e 9579 b4bc
000003e0: ed82 44be 8d35 42be 78c5 98bd 3adc a73d
000003f0: 4345 583e 6d7d 573d da59 17be 1d0c 5f3e
-0.12523293 0.1657977 0.11178269 -0.06415554 0.03318008 -0.17308584 0.32198468 -0.09775706
0.04274661 -0.18555692 0.2759604 0.010229112 -0.06331336 -0.20527987 0.15329269 -0.0014739324
-0.12668668 -0.007336508 0.0005915742 0.124108255 -0.094458774 0.08812791 0.17448364 0.12623797
0.04562128 0.19581157 0.20384017 -0.14225882 -0.100280724 0.15135978 0.29041892 0.26885918
-0.2149235 -0.14092457 0.040972047 -0.2552751 -0.18901174 -0.1484105 -0.16050363 0.04897993
0.04723221 -0.13034518 -0.13382633 -0.0013315339 -0.03478398 0.07946938 -0.09670777 0.024801593
-0.10333784 -0.069729164 -0.087330386 -0.052809823 0.22171894 -0.010008479 -0.017663881 -0.1565921
0.13253875 0.013260901 0.020004625 0.2019449 0.21638052 0.045056775 0.0042464235 0.27057946
-0.32329115 0.17773561 0.026193148 -0.2569101 -0.23257063 -0.03800418 0.20283146 0.042186916
-0.06879974 -0.11234559 -0.15152052 -0.11461765 -0.02042713 0.089414276 0.07813183 -0.2440039
0.20025016 0.024128688 0.07722063 -0.14175567 -0.07479021 0.020941358 -0.07055025 0.19049601
0.22117744 -0.038750827 0.31866652 -0.07844922 -0.3075078 -0.20106184 0.12098998 0.1256951
-0.06876611 -0.09965075 0.11965887 -0.03818698 0.14393194 -0.018536076 -0.25421736 0.0614019
-0.15959755 -0.09587296 -0.115761966 0.17302017 0.27871266 0.041369136 0.027620155 0.25765637
0.10487341 -0.09876409 0.14042735 0.004839919 -0.3080925 0.08005581 -0.06845061 -0.17704102
-0.026082072 0.16659941 -0.21417998 0.11648119 -0.116608255 -0.27387604 -0.019942632 -0.28577483
-0.22032861 0.21635255 -0.043260466 0.22882776 0.13719323 0.0029571033 0.22970408 -0.0712577
0.09027428 -0.21933977 0.09190729 0.12076063 0.04656104 -0.08181914 0.14106213 -0.053611625
0.046790738 0.12522767 -0.09050574 0.24256864 0.07979041 0.04547493 -0.16976655 0.17333311
0.0005499074 0.09569048 0.18398394 -0.07580679 0.06029068 -0.09138681 -0.16960439 0.057306126
0.07392029 0.18197832 -0.069038704 -0.25990826 -0.29263818 0.04598014 -0.10271032 0.053441104
-0.06262571 -0.116949454 -0.1390011 0.13384952 0.003747031 0.032268964 -0.20124961 -0.19467665
-0.11151257 -0.2505138 0.017791264 -0.12718035 -0.10737707 -0.23812433 -0.15543015 -0.089271694
0.0063559148 -0.30788028 -0.064271465 -0.13793513 0.160206 -0.02991711 -0.0034053428 0.027274998
0.08481365 -0.22662386 0.114094436 -0.09276174 0.20975666 -0.040023793 0.045206152 0.15026571
0.09510413 -0.02584269 -0.15895566 -0.04448554 0.08910393 0.23711576 -0.09381474 0.12825589
-0.019239388 -0.13847172 0.14596309 0.18301922 -0.23515208 -0.08746128 0.06195395 0.04642844
0.18730539 -0.18015169 -0.16279864 -0.024836408 -0.15827161 -0.039133675 0.07395843 -0.28760725
0.18204677 -0.21046264 -0.18516684 -0.17865668 -0.20474438 0.14628005 -0.24523216 0.0153137045
-0.16948457 -0.091859564 0.002493441 -0.18362871 0.11452937 0.09524385 -0.13699576 0.08673002
-0.05641009 -0.28301242 0.08450079 -0.31333855 0.18567628 -0.19925793 0.1727177 -0.022030631
-0.19190569 -0.1896574 -0.07459539 0.08196302 0.21120171 0.05260985 -0.1478037 0.21781965

decoder.0.0.bias f4 [32]
00000000: 1486 89b8 09e7 f238 7298 7439 034f 183a
00000010: 2a4c 0e3a b00a 8038 0cc5 45b9 d292 54b7
00000020: 0e62 5738 fa10 a0b8 3531 9cb8 b37a 9db6
00000030: 4d03 3d39 1ab7 8f38 5bc8 34b8 fa6a 09b6
00000040: d812 a2b8 9bca 90b4 9757 d2b8 0e35 5db7
00000050: f00c c339 d3a2 58ba 3a74 d237 ae6a 09ba
00000060: 44cf c838 3975 f1b8 f394 d237 7dcf 4237
00000070: 2bc7 4639 bef5 94ba d5cd 52ba 32a3 4eb8
-6.557643e-05 0.00011582493 0.00023326444 0.00058101135 0.00054282194 6.105506e-05 -0.0001886079 -1.2670369e-05
5.1351315e-05 -7.632557e-05 -7.447825e-05 -4.6932487e-06 0.00018025674 6.852877e-05 -4.310194e-05 -2.047686e-06
-7.728272e-05 -2.6969505e-07 -0.00010029895 -1.3184979e-05 0.00037202938 -0.0008264009 2.5088073e-05 -0.0005242032
9.5753494e-05 -0.0001151361 2.510331e-05 1.1611611e-05 0.00018956947 -0.0011364741 -0.00080415356 -4.9266215e-05

decoder.0.1.weight f4 [32]
00000000: 898c 933f dd1f 8a3f d659 893f fecb 913f
00000010: ce73 8f3f 56fc 723f 7666 8b3f d6e7 733f
00000020: 6d12 913f 440e 713f 065e 663f a1e2 863f
00000030: 6420 783f 53c2 8b3f 719f 8c3f f8e5 8b3f
00000040: c07b 853f 0fd0 863f f690 853f 8f80 7e3f
00000050: 9be4 7c3f bf6c 733f a134 6e3f ef10 7c3f
00000060: 34a1 783f 8a05 883f 1c1f 833f 5a75 7f3f
00000070: 4795 813f 7f0b 923f 6f0c 873f 89c9 6f3f
1.1527263 1.0790974 1.0730541 1.1390378 1.1207216 0.94916284 1.0890644 0.9527563
1.1333748 0.9416239 0.8998722 1.0537912 0.96924424 1.0918678 1.0986158 1.0929556
1.042839 1.0532244 1.0434864 0.99414915 0.98786324 0.9508781 0.93049055 0.9846334
0.97120976 1.062669 1.0243869 0.9978844 1.0123681 1.1409758 1.055067 0.93666893

decoder.0.1.bias f4 [32]
00000000: 97ef 25be e7ed ba3d 2e69 203e 9f12 923c
00000010: 7654 e7bd 2c1e 1fbc 4ede 983d b7cc 113d
00000020: 001d 92bd 01d6 59bd a2c3 963c 6c08 de3d
00000030: b668 c73d a3e4 a33d 51ac 833d cdff d53d
00000040: e74a 34be b639 9c3d 389f a33d 486a b03c
00000050: 4b8d b3bd ecd8 8fbd fae1 d3bd ad75 613d
00000060: 8480 36bc a2af 1c3e 8bf2 bf3c 944d 093c
00000070: 777d 2d3d b735 ef3d dabb b93d 6550 95bd
-0.16204678 0.091274075 0.15665123 0.017831145 -0.112954065 -0.009711783 0.07464276 0.035595622
-0.071344376 -0.053182606 0.018403832 0.1084145 0.09736769 0.08002593 0.06429351 0.10449181
-0.17606698 0.07628195 0.07989353 0.021535054 -0.08767184 -0.070237964 -0.10345836 0.055043865
-0.011139039 0.15301374 0.023431083 0.0083803125 0.04235598 0.11680167 0.09069033 -0.07290725

decoder.0.1.running_mean f4 [32]
00000000: eb30 b43d ce10 ef3e c98f ecbe 0711 803e
00000010: 4803 abbe 5784 1a3e 7ee7 093e f6f1 ccbe
00000020: 8d8d 633e 8426 2c3e e16c a3be b921 05bf
00000030: ad4c 4b3e a738 85be d052 afbe c19a 13be
00000040: 598a 983e 51f7 7c3d 3b49 11be bb71 18be
00000050: c40a 0f3e 7cbb 6b3e bcd4 8abe aa71 07bf
00000060: 9e09 a83e 9027 5abe 4f2b 06bf 8450 e83e
00000070: 5d6a 21bd a58f dabe 92ad c2be 80be f8be
0.08798393 0.46692508 -0.4620345 0.2501299 -0.3340094 0.15089546 0.13467214 -0.40028352
0.22221966 0.16811568 -0.31919006 -0.5200458 0.19853468 -0.26019785 -0.34242868 -0.14414503
0.2979305 0.061759297 -0.14188091 -0.14887135 0.1396895 0.23020738 -0.27115428 -0.5290781
0.32819837 -0.21304154 -0.52409834 0.4537393 -0.039408077 -0.42687717 -0.3802305 -0.4858284

decoder.0.1.running_var f4 [32]
00000000: 6815 b73d 01f3 c83d deab 143e a740 7a3d
00000010: 6ae1 373d 16e8 cd3d 9e4a 833e 0cc9 6a3d
00000020: 7859 2c3e a6dc e93d 7a3e 683d ae3b f43e
00000030: ae54 0b3e c9e0 8f3d dff4 9c3e 1d72 d93e
00000040: 1060 2b3e eb83 393d 5f17 553e 9b6a 8c3e
00000050: 37e2 673d 6512 8c3d 1279 103e 953c 973d
00000060: 90a1 f23d 14b8 f03e 976a 183e 6825 e93e
00000070: 28d6 073e b56e 873d a095 643d 5a47 223e
0.0893963 0.09811974 0.14518687 0.061096814 0.044892706 0.100540325 0.25642866 0.05732064
0.16831005 0.114190385 0.056700207 0.47701782 0.13606521 0.07025296 0.30655572 0.42469874
0.16735864 0.045291822 0.20809697 0.27425084 0.05661222 0.06839446 0.14108685 0.07384602
0.11847222 0.4701544 0.14884411 0.4553635 0.13265288 0.066129126 0.055806756 0.15847531

decoder.1.0.weight f4 [64, 64]
00000000: 62a6 bfbd 0c4d 3e3c 3246 47bd 1d9a be3d
00000010: e064 a23d d43a d93c 0fdd dfbc c1b5 9abd
00000020: 8f83 9bbc cae9 803c 1202 863d cf53 27bd
00000030: 612e 593e b11a a5bd 0f56 b9bd 6c0d 293c
00000040: 905f 053e 4b67 efbc 23b3 d3bd 2651 e7bc
00000050: 8153 4f3c 5897 2a3d 10cf 0abd 15fb d33d
00000060: 2f56 acbc 42f2 9d3d 53ad 50bd a793 0cbe
00000070: 1c0f 6cbc 0176 453d 9483 8c3c e7d5 18bd
00000080: 5dff 2bbe 4e4e fb3c c1da 563d 1012 763d
00000090: b57c a3bd 137b 1cba b711 80bc da72 93bd
000000a0: 6e94 52be 17a6 a13a 2c7e 303d d6ed c83d
000000b0: abb6 ea3c aca9 15be caa6 143e b843 843d
000000c0: fb95 1fbd eb49 9d3d 0034 ef3d b5df 493c
000000d0: ade3 bdbd 7136 0fbd c850 96bd 2c08 a63d
000000e0: 7e4e 82bd 9502 493d c65a e33d 14b2 013d
000000f0: 8cbc 933d e405 10be 446a 7fbd 5b31 c93d
00000100: aca0 17bc 4e24 433c 63e1 163b 4ff3 d13d
00000110: 57e3 f2bd 7adf a63c b4a6 0ebc 71df cbbd
00000120: 82ab 813d 4e11 5b3d 0163 7cbd 7add d4bc
00000130: 30d3 c6bd 09c2 913d f936 cf3d cf82 1cbd
00000140: 08f3 3e3d dc2d 96bb 49ce a63d 73d5 11be
00000150: 0211 d83c c2e0 193d 9568 613d caee 823d
00000160: 782f a63d a1b1 eabd a3e3 fe3d 6beb bbbc
00000170: 1664 f1bd 3e65 9c3b 3ac0 b83d 1ab5 003d
00000180: 9295 37be e64f d2bd e121 a23d f2b7 383d
00000190: fbd1 d1bd 91c5 af3d 904f 8d3d d03d 963d
000001a0: 584e b7be c082 01be 82e7 85bd 6d5c d4bd
000001b0: 8a9c 4e3d 09b0 eabd 32a9 42bd 15b9 34bd
000001c0: 3f3c 03be 35aa 043d 5e2c 6ebd 9ccb 89bd
000001d0: cd91 39bd ba93 a9bd efec 503d e841 543e
000001e0: 8f52 b9bd fac5 5cbd 9bf8 2d3e 2fe8 d7bd
000001f0: fda0 80bd b1a8 76bd e7dc 1ebe 58cc babd
00000200: 2ee7 5f3d 2a03 f2bd bebc bd3d b1a4 fd3d
00000210: d2b3 6c3c 9d9c aa3c b782 91bc a049 c1bd
00000220: 4b65 7d3d e486 533d 5209 343d 9fbd 233d
00000230: 96cb 8ebd 76a4 3b3c bee2 1a3d d23b a9bd
00000240: 2f22 2cbc e6ad b83d 2e00 a13c 0782 d4bc
00000250: 3328 c9bb fb5e 8cbd 10bb e93c f7f6 b33c
00000260: 0036 a13c 530c 9ebd 96ae 2d3e 43fb 2c39
00000270: 1629 b2bd aeca cabc f138 8ebd 3f6a 22bd
00000280: 42fd 9bbd 9b29 ccbe 8798 083e 12e8 f63c
00000290: 9edc 503c 8103 763b d509 1bbe e115 e5bd
000002a0: 02c5 1b3d abe5 f9bd d049 cbbc 52ce 5abd
000002b0: 35e1 14bc 9ee8 89bd d7e7 4abe 71a9 983c
000002c0: 7399 17be eed6 01bd 211a fcbd b946 54bb
000002d0: 1ce6 193d 3127 533b 230e f23d e42d f73d
000002e0: 3349 9ebd df58 f53d 324f 7a3d fc2f c93d
000002f0: bee4 253d 5f95 5d3d 1034 7cbd 2d32 1bbe
00000300: 242b d4bc 64b5 523d 5b04 40bb 7086 fbbb
00000310: 4f0d 993c 2b73 25be 82f6 4cbd be90 c8ba
00000320: e88b 663d 463f 3f3e cfeb 01bd cc28 763d
00000330: bfa0 0dbe 1346 933d fd84 843d 2bce 08bd
00000340: 8a59 2abd b47c 20bd b233 9ebc 1da2 36bd
00000350: 6b9c 2e3d 60e0 8f3d df66 44bd ed2c b23a
00000360: 3901 8c3c 26a1 76bc 472a 65bd 6a46 f0bc
00000370: a2f8 59bd 34d1 08bd cd4c b93d 41f9 173c
00000380: 984b 68bc aae5 5fbb 2ffc f7bd 2772 2ebe
00000390: b1f3 6b3d 9e07 c03d 1957 a0bd 04ac e03d
000003a0: 4f1c e93c 4f3e 9e3d 244a af3c 4a9e 53bd
000003b0: 6be5 22be ab3a 3e3b fb0c 07be 0744 d13c
000003c0: f504 8bbd f5c8 37be 75f0 48bd ee40 d73c
000003d0: 2bc8 e4bd 0132 6fbe f2e2 37bc 54c2 d4bd
000003e0: d7e5 9a3d 393d 1e3d e94d 793c d4fe 343b
000003f0: 6acd 92bd d865 ff3d 5140 403d e7e0 42bc
-0.09357907 0.011615049 -0.048650928 0.093067385 0.07929397 0.02651731 -0.027327089 -0.07554198
-0.01898363 0.01573648 0.06543364 -0.04085141 0.21209098 -0.080617316 -0.090496175 0.010318141
0.13024735 -0.029224059 -0.10336902 -0.028236937 0.012654186 0.04164824 -0.033888876 0.103506245
-0.02103719 0.07712223 -0.050946545 -0.137282 -0.014407899 0.04820824 0.017152585 -0.03731337
-0.16796632 0.030676987 0.052454714 0.06007582 -0.0798277 -0.0005969267 -0.015633447 -0.071996406
-0.20564434 0.0012332824 0.043089077 0.098109886 0.028651556 -0.14615506 0.1451675 0.06458229
-0.038961392 0.07680114 0.1167984 0.012321402 -0.09271941 -0.03496403 -0.073396266 0.081070274
-0.063626274 0.049074728 0.11101298 0.03166397 0.07213697 -0.14064747 -0.062357202 0.09823867
-0.009254616 0.011910511 0.0023022525 0.102514856 -0.11859768 0.020370234 -0.008706737 -0.099547274
0.06331541 0.0534833 -0.061617855 -0.025984515 -0.097082496 0.071170874 0.10117907 -0.038210686
0.04661849 -0.0045831036 0.081448145 -0.1424158 0.026375297 0.03756786 0.055031378 0.06393202
0.08114523 -0.11459661 0.12445762 -0.022939404 -0.11786668 0.004772811 0.09021039 0.031422712
-0.1792815 -0.10269146 0.07916618 0.0450973 -0.10245129 0.08582605 0.06899941 0.073360085
-0.3580196 -0.12647533 -0.06538297 -0.10369191 0.050442256 -0.11459357 -0.04752464 -0.04412182
-0.12815951 0.032388885 -0.05814778 -0.067282885 -0.045305062 -0.0828013 0.051007207 0.20728266
-0.0904895 -0.053899743 0.16989367 -0.105423324 -0.06280706 -0.06021947 -0.15513955 -0.09121007
0.05466383 -0.1181701 0.09264515 0.12384928 0.014447169 0.020826632 -0.017762525 -0.09437871
0.06186418 0.051642314 0.0439542 0.03997576 -0.06972425 0.011452785 0.037813894 -0.08263363
-0.010506197 0.090175435 0.019653406 -0.025940908 -0.0061388253 -0.068540536 0.028531581 0.021968348
0.01967907 -0.077171944 0.1696113 0.000164968 -0.08699243 -0.024754848 -0.069444545 -0.039652105
-0.076166645 -0.39875492 0.13339435 0.030139957 0.012747912 0.003753871 -0.1514047 -0.11185814
0.03802968 -0.12202009 -0.02481547 -0.05341942 -0.009086897 -0.06733821 -0.19815002 0.018635483
-0.1480463 -0.031699114 -0.12309671 -0.0032390787 0.037572965 0.0032219405 0.118191026 0.120693
-0.077288054 0.119798414 0.061110683 0.098236054 0.04050135 0.05409753 -0.06157309 -0.1515586
-0.025899477 0.05144252 -0.002929947 -0.0076759383 0.018683104 -0.16157214 -0.050039776 -0.0015301926
0.05628577 0.1867648 -0.031719025 0.0600975 -0.13830851 0.071911 0.06470678 -0.033399742
-0.041589297 -0.039181426 -0.01931176 -0.044588197 0.04262964 0.07025218 -0.047949668 0.0013593711
0.017090427 -0.015053069 -0.055948522 -0.029330451 -0.05321563 -0.033402637 0.09047852 0.009275735
-0.014178179 -0.003416399 -0.12108647 -0.17035733 0.05760545 0.09376453 -0.078291126 0.109703094
0.028455881 0.07726728 0.021397658 -0.051664628 -0.15907829 0.0029026668 -0.13188545 0.025545133
-0.06788055 -0.17947753 -0.049057443 0.026276078 -0.111709915 -0.23358919 -0.011223542 -0.10388628
0.0756337 0.038632605 0.015216329 0.002761771 -0.07168086 0.12470597 0.046936337 -0.011894441
