saved-model/logmel/unetidnn/logmel-unetidnn-fan-2.pkl (torch, 144293 bytes, 32 tensors)

encoder.0.0.weight f4 [64, 256]
000000 5b 1f 6e 3d e0 39 1c 3d eb 28 62 bd 1f 0f 5f 3c
       0.05813537 0.03814113 -0.055214804 0.013614445
000010 10 75 7f 3d 55 82 58 3d dc 74 06 3c 91 c0 d5 3c
       0.0623675 0.05285867 0.008206572 0.0260928
000020 39 47 ec 3c 97 8e 53 3d 2e 66 1d 3d 9c eb ab 3d
       0.028842555 0.051649656 0.038427524 0.08394548
000030 50 95 c2 3d aa c2 32 3d e7 41 85 3d 62 2a 53 3d
       0.09501135 0.043642677 0.065067105 0.05155409
000040 20 2f 31 3d d0 d3 69 3d 03 54 d4 3c 47 0a 63 3d
       0.043257833 0.057086766 0.025918966 0.055429723
000050 db f5 51 3d 0b 1d 51 3c b5 7a 00 bb 9a 3c 41 3c
       0.051259857 0.012763272 -0.001960439 0.011794234
000060 e8 e2 fa bc b7 79 42 bc c7 39 ce 3d ac b6 50 3d
       -0.030625775 -0.011869839 0.10069614 0.05095546
000070 cf 5c e7 bb 16 4f 3e 3d a9 4a 8f ba 60 5e ea 3d
       -0.007060624 0.04646214 -0.0010932285 0.11443782
000080 69 c5 63 3d 5d 7f 1a 3d 0a 28 c1 3c 93 b1 31 3d
       0.055608187 0.03771912 0.023578662 0.04338224
000090 3c ac 42 3d 8d 8d 57 3d 25 81 b6 bc be ff 64 3d
       0.047527537 0.052625228 -0.022278378 0.055907957
0000a0 8d 1c 64 3d 0f 5c 06 3d e6 97 87 3d 51 c3 f7 3c
       0.05569129 0.032802638 0.06620769 0.030244501
0000b0 53 43 93 bc 58 ea 07 3d 27 df b4 3b 97 b1 9e bc
       -0.017976439 0.033182472 0.005519766 -0.01937179
0000c0 a7 b5 9c 39 72 80 c0 bc 37 9c 79 bb ba cb 44 3d
       0.0002988998 -0.023498747 -0.0038087496 0.04804585
0000d0 5e 9f 01 3d a0 56 91 3c 39 74 52 bc b7 22 f8 bc
       0.031646125 0.017741501 -0.012845092 -0.03028999
0000e0 cb 41 51 bc d8 eb a5 3b 10 f9 4f bb 87 cc 58 3c
       -0.012772034 0.005063515 -0.0031734146 0.013232357
0000f0 5c 8f 3f bc 33 05 f2 bc 48 19 22 3d fe fb 03 3c
       -0.011691894 -0.029543495 0.03957489 0.008055685
000100 d3 80 d4 3c 2b f4 b0 3d 52 86 98 bd 6b db cc 3b
       0.025940334 0.08640321 -0.074474946 0.0062517426
000110 80 24 70 3d 53 47 d0 3d 27 ff 9b 3d 23 5d ab 3d
       0.05862856 0.10169854 0.07617026 0.08367374
000120 81 ed 67 3d 8d bd 41 3d f0 ca 0f 3d af 3c e1 3d
       0.056622986 0.04729991 0.035105646 0.109979026
000130 33 25 60 3d 54 8f a1 3d d9 4d 72 3d 9f 86 cb 3c
       0.054722976 0.07888666 0.059156273 0.024844466
000140 f6 3e 1a 3d 98 62 01 3e 3d f4 1f 3d 51 63 9e 3c
       0.0376577 0.12635267 0.039051283 0.019334467
000150 ac e4 ae 3c d0 f5 d9 3c 2f 5d 48 3d aa f7 19 3d
       0.021349274 0.02660647 0.04891699 0.037589706
000160 bc b6 b1 bc a1 d6 3b bd 53 d3 e9 3d 09 14 8a 3d
       -0.02169358 -0.045858983 0.1141726 0.06742103
000170 8f 5a 3c 3d bb ec 87 3c f2 65 e4 3c 5d ed fb 3d
       0.0459848 0.016592374 0.027880643 0.12301133
000180 8b ce 51 3d dc 03 ee 3c 2b 62 1c 3c 55 3e 5c 3d
       0.051222365 0.029054575 0.009544889 0.053770382
000190 c5 bf 64 3d fc 95 d6 3c 41 3b b3 bc 85 5b 89 3c
       0.05584695 0.026194565 -0.02187884 0.016767273
0001a0 d4 9e 26 3d 8f 87 e4 3c cb c1 8c 3d 94 42 20 3b
       0.040678814 0.02789667 0.068729006 0.0024453746
0001b0 e5 8d 04 bd d9 3c 70 bc 9c be 0f bc ab c6 b2 bc
       -0.032361884 -0.014662945 -0.008773472 -0.021823248
0001c0 07 56 74 3d ff 13 49 3d 39 44 5b 3d 08 27 2c 3c
       0.059652355 0.049091335 0.05353186 0.010507353
0001d0 c7 e8 c4 bb 21 d6 80 bc ca 5b f4 bb 4e 25 dd 3c
       -0.0060091945 -0.015727105 -0.007457231 0.026995327
0001e0 25 e4 12 bd 67 c7 9d 3a af 59 43 bc 51 9f 40 bd
       -0.035862107 0.0012037576 -0.011923238 -0.047026936
0001f0 9e 72 e0 3c 73 e9 45 bd d9 12 ee 3b 10 87 8d 3c
       0.027398404 -0.048318338 0.0072654304 0.017276317
000200 5b 7c bb 3c 33 29 19 3d d1 10 35 bd 2e 24 a6 3b
       0.022886446 0.037392806 -0.04420549 0.005070231
000210 36 6a 6a 3d cf 3f 85 3d 44 4a 5f 3d 73 54 55 3d
       0.057230197 0.06506311 0.054514185 0.05208249
000220 69 ca c3 3d 14 5b 42 3d 05 2e f7 3c e4 55 c8 3d
       0.09560091 0.04745014 0.030173311 0.09782007
000230 63 1e 9b 3d 67 72 52 3d 2d 8a 7e 3d 58 a7 47 3d
       0.07574155 0.051378634 0.062143493 0.048743576
000240 f2 ad a3 3d a2 41 a6 3d d6 4e ba 3d c8 63 9b 3d
       0.07992162 0.08117987 0.09097068 0.07587391
000250 4b 95 5e 3d cb 5e 1c 3c a3 09 77 bc fb 4a bf 3c
       0.054341596 0.009544085 -0.015077981 0.023351183
000260 2d 51 81 bd 7e 79 73 bb 35 50 02 3e a3 b2 bd 3d
       -0.06314311 -0.0037151272 0.12725909 0.09262588
000270 a3 7c 5c 3d 1d 96 a8 3c 66 d2 17 3c 4d 93 b6 3d
       0.0538298 0.020579392 0.0092664715 0.08914814
000280 fd 0f 9b 3d 12 d3 84 3d 8f 2f 6f 3d 43 20 16 3d
       0.07571409 0.06485571 0.058394965 0.03665186
000290 c4 7c c4 3c dd 3c 83 3c 3d 92 f8 3b a2 bd 12 3d
       0.023985274 0.016020233 0.0075857923 0.03582538
0002a0 58 9c a7 3c 87 57 96 3d fc 9f 89 3c 64 de 8a bb
       0.020460293 0.07340913 0.01679992 -0.004237937
0002b0 e8 1c 1a bc 2d ac c6 bc 41 45 82 3c 70 7c a8 bc
       -0.009406306 -0.024252022 0.015902163 -0.020567149
0002c0 ed b3 0a 3d 10 75 52 bc b2 9b 0a 3d 2a 99 27 bc
       0.033862997 -0.012845293 0.03383989 -0.010229388
0002d0 d1 a0 f6 bc e9 14 d1 3c ea 6c 1d 3c 13 a3 08 bc
       -0.03010598 0.025522666 0.009608487 -0.008339661
0002e0 bc 92 20 3c 42 cb 31 3d aa d8 be bc ff 42 45 bd
       0.009800609 0.043406732 -0.023296673 -0.048159596
0002f0 b7 7c ec bc c0 a2 30 3d c3 0b 0b 3d ee 55 fe bc
       -0.028868062 0.04312396 0.033946764 -0.031046834
000300 16 7a b3 3c a8 cf ec 3c 78 1f 01 bd 46 7e 7b ba
       0.021908801 0.028907612 -0.03152415 -0.00095937063
000310 50 a0 45 3d 0d c5 1d 3d b3 cd 20 3d 93 53 58 3d
       0.04824859 0.038518 0.03925867 0.052814078
000320 94 c5 03 3d 4f 5d d7 3c cb d8 5b 3b 43 7f 8d 3d
       0.032170847 0.02628961 0.0033545967 0.06909039
000330 70 15 0b 3d 6d b4 28 3d ee 42 50 3d 5d 54 4d 3d
       0.03395599 0.041187692 0.05084508 0.050129283
000340 09 a5 96 3d e1 17 1d 3d eb 13 17 3c 52 6e 7d bc
       0.07355697 0.03835285 0.009221057 -0.015468197
000350 34 fe 41 3c bb 53 ec 3c 2a e4 e7 3c dd 05 37 3b
       0.011840392 0.02884852 0.02830704 0.0027927079
000360 bd 34 88 bc 9b 72 1e bd 6e 4c ac 3d 42 1f ff 3c
       -0.01662671 -0.038683515 0.08413015 0.031142835
000370 f9 ee 38 3d ca e3 02 3c 50 da 06 3c b1 78 b6 3d
       0.045149777 0.007988879 0.008230761 0.08909739
000380 95 cb c5 3d e1 9d c6 3c b3 76 ac 3c aa 66 68 3d
       0.09657971 0.024245204 0.021052694 0.056738533
000390 fe a1 e1 3c 7e 7c ca 3c df cf 20 b9 74 21 0f 3d
       0.027543064 0.024717566 -0.00015336227 0.034944013
0003a0 e1 be af 3d e2 b0 90 3c bd 4b b3 3d 1f b2 30 3b
       0.08581329 0.01766247 0.0875468 0.0026961637
0003b0 16 6d 57 3c 50 73 2f 3d 37 2a 27 bd 27 ef 62 bc
       0.013148567 0.04283458 -0.040811744 -0.013850964
0003c0 55 cc c7 3c 02 f4 58 3d ce 39 b0 bc b6 67 ec bb
       0.024389425 0.05296708 -0.021511938 -0.0072145117
0003d0 68 2b 56 bd ea 96 89 bd a6 b1 28 bc f2 22 b0 bc
       -0.05228749 -0.06718238 -0.010296261 -0.021501038
0003e0 e3 30 02 3d 77 9a 3c bd db 4d 5e bd 40 84 7c 3c
       0.031784903 -0.046045747 -0.054273468 0.01541239
0003f0 2e 19 92 3a 9d df bf bc 78 06 4a 3d fd 72 32 3c
       0.001114642 -0.023422057 0.049322575 0.010891673

encoder.0.0.bias f4 [64]
000000 bf c6 a8 b9 51 95 61 39 e1 52 02 39 f7 fd d0 39
       -0.00032191534 0.00021513297 0.00012428641 0.0003986207
000010 32 14 7b b9 da 46 8d 39 f0 be e4 38 ac 90 0f ba
       -0.00023944749 0.00026946404 0.00010907452 -0.0005476575
000020 91 f4 51 b9 be 1f 6d 39 37 a5 2c 3a 9f f9 48 39
       -0.00020022901 0.00022613906 0.0006585898 0.00019166477
000030 8c 70 82 b9 f1 15 3e 38 bd 9a 5e b9 3d 01 b4 38
       -0.00024879386 4.5319965e-05 -0.00021229214 8.5832995e-05
000040 db c2 25 39 0a 5d 30 39 92 1b 64 b8 46 27 ec 39
       0.00015808216 0.00016819328 -5.4385113e-05 0.0004504269
000050 a2 34 be 39 f2 5c 04 b9 d5 78 0e 3a 75 6e 03 ba
       0.00036278839 -0.00012623126 0.00054348755 -0.0005013713
000060 d9 ef 79 39 7f 07 58 39 de 17 26 39 a9 eb 91 38
       0.0002383584 0.00020602158 0.00015839885 6.958034e-05
000070 4e 49 6e 39 bf fc ca 38 23 7c ba 38 09 c6 a6 39
       0.00022724757 9.679188e-05 8.8922934e-05 0.00031809535
000080 9f 1e 09 35 e1 bb 57 39 ca e2 37 39 6b be da 39
       5.1081037e-07 0.00020573988 0.00017536725 0.00041722073
000090 8d 72 36 b9 83 c8 09 39 f0 5e 2c b8 85 8b 4a 39
       -0.00017399546 0.00013140035 -4.1096413e-05 0.00019316196
0000a0 a7 c9 0a b9 25 b1 00 b8 c2 ff a3 38 fd 1b 21 39
       -0.00013235827 -3.0682557e-05 7.820084e-05 0.00015364583
0000b0 f9 4f 75 b8 32 97 1d 39 23 5c 69 38 b4 0f df 39
       -5.8487032e-05 0.00015029011 5.5637338e-05 0.00042545574
0000c0 17 a5 9c 39 ef 2c bd 38 18 2e fd 37 5b 58 59 38
       0.0002987764 9.020592e-05 3.0181414e-05 5.181912e-05
0000d0 f0 1e 27 b9 6d c3 91 36 5f 62 85 b7 44 23 07 ba
       -0.00015937886 4.3440873e-06 -1.5900643e-05 -0.00051550963
0000e0 bf 4a 14 37 c9 c9 b9 39 e7 3b 0c b9 e8 5f 1d 39
       8.838891e-06 0.0003543629 -0.00013373756 0.00015008415
0000f0 8f 05 d2 39 c5 11 00 38 83 f0 13 37 5b 1d 2c ba
       0.00040058463 3.0534127e-05 8.817881e-06 -0.00065656536

encoder.0.1.weight f4 [64]
000000 16 30 b1 3f 8c 95 b2 3f 7c 0a b0 3f da c0 b2 3f
       1.38428 1.3951888 1.37532 1.3965104
000010 68 d2 af 3f 32 07 b2 3f 92 68 b1 3f 48 d8 b2 3f
       1.3736086 1.3908446 1.3860037 1.3972254
000020 48 eb b0 3f ac d2 b1 3f 93 c4 b2 3f 26 29 b1 3f
       1.3821802 1.3892417 1.396624 1.3840683
000030 cf a7 b3 3f 04 a3 b3 3f b8 5e b2 3f 2f b7 b3 3f
       1.4035586 1.4034123 1.3935156 1.4040278
000040 a2 93 b3 3f 65 f0 b0 3f e6 cd b2 3f 86 92 b0 3f
       1.4029429 1.3823363 1.3969085 1.3794715
000050 0b eb b2 3f 3b 6d b2 3f 4b f7 b1 3f d2 7f b2 3f
       1.397798 1.3939584 1.3903593 1.3945258
000060 08 0a b2 3f 14 c8 b2 3f 50 6f b2 3f 1d b6 b0 3f
       1.3909311 1.3967309 1.394022 1.3805577
000070 68 b7 b2 3f cb 6a b2 3f b4 55 b2 3f 1c 40 b1 3f
       1.3962221 1.3938841 1.3932405 1.384769
000080 2c ee b3 3f 17 71 b2 3f 63 49 b3 3f 92 de b1 3f
       1.4057059 1.3940762 1.4006771 1.3896048
000090 3d 12 b3 3f 2c f7 b0 3f 83 c1 b0 3f f1 a0 b1 3f
       1.3989941 1.3825431 1.3809055 1.387724
0000a0 f1 4b b4 3f 06 ec b3 3f 86 fd b0 3f bb 09 b2 3f
       1.4085675 1.4056404 1.3827369 1.390922
0000b0 90 cb b2 3f 68 c9 b3 3f c7 ad b0 3f 3e a4 b2 3f
       1.3968372 1.4045839 1.3803033 1.3956373
0000c0 09 d9 af 3f 8e 03 b3 3f 86 0c b2 3f 1a ad b2 3f
       1.3738109 1.398546 1.3910072 1.3959076
0000d0 6d ca b2 3f aa f7 b3 3f 9b 8e b3 3f f9 82 b2 3f
       1.3968025 1.4059956 1.4027895 1.394622
0000e0 1b 99 b1 3f 77 1a b3 3f 78 56 b4 3f af cf b1 3f
       1.3874849 1.3992451 1.4088888 1.3891505
0000f0 e4 e8 b1 3f 64 7a b4 3f e4 9f b4 3f af 79 b3 3f
       1.3899198 1.4099851 1.4111295 1.402151

encoder.0.1.bias f4 [64]
000000 6b f9 d1 3e 2b a0 cb 3e 5a c0 cd 3e 10 33 d2 3e
       0.41010603 0.39770636 0.40185815 0.41054583
000010 5e c6 ce 3e 12 b1 cf 3e 4d 52 d0 3e 05 88 da 3e
       0.40385717 0.4056478 0.4068779 0.426819
000020 ee 92 d1 3e ff ee d5 3e ec 6b d2 3e 88 e0 cc 3e
       0.4093241 0.41783902 0.41097963 0.40015054
000030 e6 b9 d0 3e 9c 9b d7 3e 43 6c d4 3e da 10 d3 3e
       0.4076683 0.42110908 0.41488847 0.41223794
000040 ae 44 d5 3e c2 ac cf 3e 1e b1 d3 3e 3b 15 cf 3e
       0.4165396 0.4056149 0.41346067 0.40445885
000050 55 4b d6 3e 49 9f d0 3e 98 7f d4 3e 9a 22 cf 3e
       0.4185435 0.40746525 0.41503596 0.40456086
000060 d0 bd d1 3e a5 1d d4 3e a9 1b cb 3e fe 96 d0 3e
       0.40965128 0.41428867 0.3966954 0.40740198
000070 db 2a d2 3e f2 74 d2 3e 4d c3 d3 3e 70 c0 d0 3e
       0.4104832 0.41104847 0.4135994 0.40771818
000080 9e e8 cf 3e b0 0d cf 3e ff 34 d5 3e 83 ad d2 3e
       0.4060716 0.4044013 0.41641995 0.41148004
000090 04 a5 d4 3e 39 9c d1 3e ea 4e d1 3e f1 2a cf 3e
       0.41532147 0.409395 0.4088052 0.4046245
0000a0 ae 7e d1 3e 9f b7 d6 3e e9 b4 cf 3e fe f8 d2 3e
       0.4091696 0.41936967 0.4056771 0.4120559
0000b0 b5 7f db 3e 15 4b d5 3e 9f cb cc 3e 0b 77 cf 3e
       0.4287087 0.41658846 0.399991 0.4052051
0000c0 c3 a1 cc 3e 95 b8 d3 3e a2 01 d3 3e eb af d4 3e
       0.39967164 0.41351762 0.41212183 0.41540465
0000d0 74 68 cd 3e 54 e4 d4 3e e3 57 d8 3e 27 f7 d5 3e
       0.40118754 0.4158045 0.42254552 0.41790125
0000e0 7d 3c ce 3e 42 1b cf 3e e2 ea d1 3e 25 92 cf 3e
       0.40280524 0.40450484 0.40999514 0.40541187
0000f0 b0 ef d4 3e a3 8a d3 3e b5 48 db 3e fa 7c d3 3e
       0.41589117 0.4131671 0.4282891 0.41306287

encoder.0.1.running_mean f4 [64]
000000 c2 a3 e0 c2 9e dd 4b 41 20 ec 2a 41 a9 d5 ab 41
       -112.31984 12.741606 10.682648 21.479326
000010 fe 49 22 c2 0a e6 1c 42 fd 49 47 41 88 1b 07 c2
       -40.572258 39.224648 12.455564 -33.776886
000020 7c d4 30 c2 ab 21 22 42 ff 19 9a 42 43 19 0b 42
       -44.207504 40.53288 77.05077 34.77467
000030 88 72 47 c2 20 9e 2c 40 d6 95 97 c1 39 88 1b 41
       -49.861847 2.6971512 -18.948162 9.7207575
000040 01 ad 83 41 d8 57 04 41 2e 07 53 c0 5d c8 0b 42
       16.459475 8.271446 -3.2973132 34.945667
000050 f2 de d2 42 37 c7 c7 c1 d9 f0 29 42 e6 32 02 c2
       105.43544 -24.972273 42.485203 -32.549706
000060 b2 8a e6 41 91 c6 de 41 f7 3f c7 41 76 88 ba 40
       28.817722 27.846956 24.906233 5.829158
000070 de 09 8e 41 5d 5c 5a 41 11 5a 90 40 f3 c2 fb 41
       17.754818 13.64755 4.5109944 31.47019
000080 2a ff fd bf 40 c2 cf 41 1a 23 5c 42 6c 28 0f 42
       -1.9843495 25.969849 55.03428 35.789474
000090 11 f3 8a c1 4a c9 04 41 1f d9 f6 c0 36 a6 9b 41
       -17.368685 8.299143 -7.714004 19.456158
0000a0 2e 8e 2a c1 b2 54 81 41 e4 15 e0 40 8b 1e f6 41
       -10.659712 16.166355 7.002672 30.764914
0000b0 6e a5 d0 c1 43 03 04 41 63 33 32 41 60 7b 93 41
       -26.080776 8.250796 11.137546 18.435242
0000c0 5e a6 bf 41 61 e9 14 41 e4 d6 f8 3f 0e 32 db 41
       23.956234 9.306977 1.944058 27.39944
0000d0 0c 38 e4 c0 26 c6 ec 3f a8 8b 4a c1 70 be 6e c2
       -7.1318417 1.849797 -12.659096 -59.685974
0000e0 a5 d5 f0 41 ff 20 12 42 0e 6a 19 c1 70 f0 97 41
       30.104319 36.532223 -9.588392 18.992401
0000f0 b1 62 a3 42 5e d5 ab 3f f5 d7 b2 bf f3 12 1b c2
       81.69276 1.342449 -1.3972155 -38.768505

encoder.0.1.running_var f4 [64]
000000 de 3d 64 42 34 29 0c 41 ac f6 6a 41 f2 ed ed 40
       57.060417 8.760059 14.685223 7.435296
000010 be b1 a2 41 a6 37 52 41 13 6c 73 41 11 36 3e 41
       20.336788 13.138586 15.213885 11.8882
000020 ec a0 af 41 28 ed 36 41 1e a9 94 41 f1 bc 59 41
       21.953575 11.432899 18.582577 13.608628
000030 b5 ce 7e 41 3f ed ea 40 05 89 19 41 fb 21 9f 41
       15.925466 7.3414607 9.595952 19.891592
000040 1c e5 97 41 84 26 53 41 95 92 0c 41 7f 9a 37 41
       18.98687 13.196903 8.785787 11.475219
000050 8d 7b d7 41 3b 20 70 41 6b 5d 87 41 ca 6d 1d 41
       26.935328 15.007869 16.920614 9.839304
000060 bb 89 6d 41 02 ff 8c 41 bd 14 00 41 f2 ff 5c 41
       14.846126 17.624516 8.005063 13.812487
000070 17 a1 17 41 89 2d 70 41 5c ab 08 41 10 34 57 41
       9.476829 15.011117 8.541836 13.450211
000080 5b a0 23 41 f7 56 8d 41 e2 f8 83 41 df 92 6f 41
       10.226649 17.667463 16.496525 14.973357
000090 2c 09 fb 40 3a 0c 40 41 a2 f9 70 41 ac 63 29 41
       7.8448696 12.002985 15.0609455 10.586834
0000a0 c5 ce 0a 41 d2 4c 01 41 65 5c 39 41 4f 5d 06 41
       8.675481 8.081255 11.585057 8.39778
0000b0 25 4d 06 41 a6 c6 2f 41 64 e8 00 41 38 36 27 41
       8.393834 10.985998 8.056736 10.450737
0000c0 c0 08 6c 41 9c 31 27 41 78 15 1a 41 3d 84 57 41
       14.752136 10.449612 9.630241 13.469785
0000d0 0f a3 0c 41 33 3b d9 40 ab 64 04 41 c5 2e 6d 41
       8.789809 6.7884765 8.274577 14.823918
0000e0 f2 9a 10 41 7e cf 6e 41 f0 5a 1b 41 e6 43 58 41
       9.037828 14.925657 9.709702 13.516577
0000f0 52 6b 1b 42 42 30 2a 41 cc ae 2d 41 f6 d0 45 41
       38.854805 10.636782 10.855175 12.363516

encoder.1.0.weight f4 [32, 64]
000000 2a 65 04 bd b4 97 58 3d 30 31 22 be ac 7d b7 bc
       -0.03232304 0.05287905 -0.15839076 -0.022398792
000010 0d 66 26 be dd e3 ad 3d 1a ee dd bc 70 a1 8d 3d
       -0.16249867 0.08490727 -0.027091075 0.069155574
000020 ff 0e 75 be 9d 6a 98 ba 1d 04 00 3c 0c de 62 bd
       -0.23931502 -0.0011628453 0.007813481 -0.05538754
000030 fe c1 0d 3d 73 fb 7a 3c 21 69 14 3d 51 a3 a0 bd
       0.034608833 0.015318739 0.03623307 -0.0784365
000040 d7 48 af bc cc a1 44 bd 14 1c 14 3d 05 b3 9c 3c
       -0.021397037 -0.048005864 0.03615959 0.019128332
000050 38 e3 52 bd 5c 4c 83 bd 3d 95 0a be 0b 8a 89 bc
       -0.051486224 -0.06411049 -0.13533492 -0.016789457
000060 c7 cd 0b bd 99 f2 54 37 e4 e0 fa bc b8 9b 66 be
       -0.03413179 1.2692669e-05 -0.030624814 -0.2252034
000070 5c ed a6 bc 19 03 8b 3c 16 ff 30 3b 57 db 56 be
       -0.020376854 0.01696925 0.0027007512 -0.20982109
000080 c6 97 87 3c 06 55 e9 bc 43 81 9e bd d1 57 12 bc
       0.016551863 -0.028482925 -0.077394985 -0.00893207
000090 8e 56 56 bd 7b e3 10 bd fb ef 98 bd 97 86 c6 ba
       -0.05232864 -0.035373192 -0.07467648 -0.0015146312
0000a0 6e c0 26 bd 97 1f 69 3b 74 8f e7 bd c1 58 48 3d
       -0.04071086 0.0035571808 -0.113066584 0.048912767
0000b0 23 56 ab bd 18 4b 55 3c db 19 c8 3b 9f 10 5b 3b
       -0.08366039 0.013018392 0.006106598 0.0033426655
0000c0 8d 4f 2f be 73 31 a7 bd b0 fc 5b be bb 96 38 3d
       -0.1712019 -0.081637286 -0.21483111 0.045065623
0000d0 b7 b8 27 bc be 06 74 bc 65 14 1d 3d ca 5f 74 3c
       -0.010236911 -0.014894186 0.038349528 0.014915416
0000e0 85 a2 a0 3b 50 08 c7 ba 78 75 33 3d d6 2b 60 3d
       0.0049021863 -0.0015184972 0.0438132 0.054729305
0000f0 45 80 8b bd 6b 19 af bc db 32 98 39 8a 08 d4 bc
       -0.06811575 -0.021374425 0.0002902959 -0.025882978
000100 61 d1 b6 bd 71 e7 72 bd 07 8c bf 3d c0 75 7c 3d
       -0.089266546 -0.05930275 0.0935288 0.061635733
000110 6f 55 8d bd 1c a4 b4 bd 9b 80 17 be 71 9c f3 bd
       -0.06901061 -0.08820364 -0.14795153 -0.11895073
000120 3e 5d 8b bd c4 2e a1 bd 1c e1 1f bd b1 3e c2 bd
       -0.06804894 -0.07870248 -0.03903304 -0.09484614
000130 2f 3c 8d bd df 23 a2 bd 44 27 4e bd 12 bb bb bd
       -0.06896245 -0.07916998 -0.050330415 -0.0916654
000140 e8 66 ec bd 1a ab 2d 3d 50 6a b2 bc fe e7 80 3d
       -0.11543065 0.042399503 -0.02177921 0.06294249
000150 d8 5d 13 be 06 c2 62 bd 39 3a 96 3c 22 a6 77 3d
       -0.14391267 -0.055360816 0.01833831 0.06046117
000160 9a ea 7f bd 8d df 2e 3d f6 a4 b0 bd f1 3a 86 ba
       -0.062479593 0.042693663 -0.08625214 -0.0010240955
000170 ca 8c aa bd a4 49 c9 bd c9 43 e9 3c 3f 13 22 3e
       -0.08327635 -0.09828499 0.028474705 0.15827654
000180 6f 1e f8 bb fe a8 0f bb 8d 62 93 bc 6e 31 b0 bc
       -0.0075719873 -0.0021920796 -0.017991329 -0.021507945
000190 9b c1 96 bd 68 59 0a 3e 07 35 a1 3c 4f ef 06 3d
       -0.07361146 0.13510668 0.019678606 0.032943066
0001a0 3a 38 8a bc 76 5f cf bd 02 ed 90 3d 95 dc 01 be
       -0.016872514 -0.101256296 0.07076456 -0.12681802
0001b0 f2 d7 9e bd ef 29 2d bd 2d 7d 02 bd 61 9b cb 3b
       -0.07756032 -0.04227632 -0.03185766 0.006213591
0001c0 0f 50 3b bd 9e 80 23 3d 37 8b 7e bd 17 a0 09 be
       -0.045730647 0.03991758 -0.062144484 -0.13439976
0001d0 47 33 78 bd ba 55 46 bd 2d 08 ce bd 6f 17 43 be
       -0.060595777 -0.0484216 -0.10060153 -0.19051908
0001e0 ba 13 10 be a8 fd 9d bd ab 16 ce 3c ea f2 aa bd
       -0.14070025 -0.07714397 0.025157293 -0.083471134
0001f0 88 f0 84 be 9b 3c 9d 3c 1b 42 bb bd 73 11 ac bd
       -0.2596476 0.019193938 -0.09143468 -0.08401766
000200 95 8c 1c 3e 7f 28 de 3d dc 6d a0 3d bf 24 e9 3d
       0.15288003 0.10847568 0.07833454 0.11383962
000210 9c cd d5 3d 54 e6 f5 bc d5 ce 67 bc e1 3d d7 3c
       0.104396075 -0.030017056 -0.014148434 0.026274623
000220 c3 f2 cd 3d 1d be 3d 3d 6f 1f 6f 3d aa 2c 15 3d
       0.10056069 0.046323884 0.058379587 0.036419548
000230 ee ec 8c 3d 22 f4 75 3d 15 cf 9c 3d 49 8d 41 3d
       0.06881128 0.060047276 0.07656685 0.04725388
000240 7b d9 aa 3c 08 61 a5 3d ab 1a 56 3d 92 31 fb 3c
       0.020855656 0.08075148 0.052271526 0.030663285
000250 80 b9 5b 3d 9c f5 15 3e a2 a6 b6 3c 9d 88 c4 3d
       0.053643703 0.14644474 0.022296254 0.095963694
000260 ff f9 b8 3c 98 15 fc 3d 08 b2 98 3d 8a 6c fd 3d
       0.022580145 0.12308806 0.07455832 0.12374218
000270 77 ae 04 3d 13 d4 5d 3d 5d 7e 33 3d 82 c3 70 bc
       0.032392945 0.054157328 0.04382168 -0.01469505
000280 bd 82 a8 3d 76 76 1d 3e 53 67 fc 3d 3c 44 40 3d
       0.08228061 0.1537722 0.12324395 0.046940073
000290 aa e1 98 3d f8 3e b7 3d 6a 3c 12 3e 86 a1 c8 3d
       0.07464917 0.08947557 0.14280859 0.09796433
0002a0 9b d8 ba 3d ff e6 14 3d 88 4c 6e 3d 38 0c 48 3d
       0.091233455 0.036353108 0.058178455 0.048839778
0002b0 73 10 6b 3d 40 d5 cc 3c 3d 1c ac 3d ba ad 38 3d
       0.057388734 0.02500403 0.084038235 0.045087554
0002c0 4f 1c 22 b8 a0 98 b2 3d 78 c6 9e 3d 4d 16 d4 3c
       -3.8650174e-05 0.08720517 0.07752699 0.02588954
0002d0 6b 7f 29 3d 04 f8 94 3d 40 41 7d 3d 07 24 87 3c
       0.04138128 0.07273868 0.061829805 0.016496671
0002e0 b4 47 98 3c db 0d 36 3d f8 ac b4 3d f3 5e a7 3d
       0.018588878 0.044446807 0.08822054 0.08172407
0002f0 8d e0 d0 bc 8e 74 84 3d 96 42 71 3d 68 2d db 3d
       -0.0254977 0.064675435 0.058901392 0.1070202
000300 d6 55 b6 bd 9a 4d 46 bd 28 21 0d bc 5f ad d0 bc
       -0.08903091 -0.04841385 -0.008613862 -0.025473295
000310 99 c0 5f bc 9b 79 b1 bd 3c e7 af bd a2 22 f9 bd
       -0.013656759 -0.086657725 -0.08589026 -0.12164809
000320 6d e0 cd 3c 09 f7 c6 bd fe c7 13 bd 09 3c 3d 3c
       0.025131429 -0.09715087 -0.0360794 0.011549958
000330 f1 89 ea bd 67 58 8d bd 75 1f 06 be a7 98 c0 bd
       -0.114520915 -0.06901627 -0.13097937 -0.09404116
000340 08 b8 e9 bd b4 e2 27 3e 7d 6a e4 bd d7 20 13 3e
       -0.11412054 0.16395074 -0.111531235 0.14367996
000350 5d 0d 3c bd ee bc 9c bd d1 b2 fb 3d fe 0e 72 bd
       -0.04591118 -0.07653223 0.12289966 -0.05909633
000360 5e fc 97 3c 38 b6 a0 bd 2d d5 8d bd 25 d7 16 3e
       0.018552955 -0.078472555 -0.06925426 0.14730509
000370 25 21 bb bd c4 68 c8 bd 16 5b 2f 3d 04 07 da 3d
       -0.09137181 -0.097856075 0.042811476 0.106458694
000380 5b 68 0e bd b2 44 83 bd 55 dc 98 bb 17 8e 6c bd
       -0.03476749 -0.06409587 -0.0046649375 -0.057752695
000390 af 3c b5 bd 47 db 26 3d dc 67 34 bd 7e 39 01 bd
       -0.08849465 0.040736463 -0.04404436 -0.03154897
0003a0 db d8 59 3b 2d a6 c5 bd 65 e8 0d bc da 4a 2f bd
       0.0033240828 -0.09650836 -0.008661364 -0.042795993
0003b0 c5 74 88 bd 9d b3 4c bd e8 6d 4b bd 0a cc 30 bd
       -0.06662897 -0.04997598 -0.04966536 -0.043163337
0003c0 34 a1 4f 3e bc a2 95 3b 09 47 2b 3d d7 b8 96 bd
       0.20276338 0.0045665186 0.04181579 -0.07359474
0003d0 0b fc 59 bd 4f 43 a9 bd 63 00 fa bd 8b 01 01 be
       -0.053218883 -0.08264791 -0.12207105 -0.12598245
0003e0 b9 5a bc bd 63 b3 43 bd a4 4f cc bd 47 1f d1 bd
       -0.091969915 -0.0477785 -0.09976128 -0.10211044
0003f0 6c db b0 bd 09 56 76 bd f9 3e df bd 08 d1 c5 bd
       -0.086356014 -0.060140643 -0.10900683 -0.0965901

encoder.1.0.bias f4 [32]
000000 7a 19 10 38 9d cb 4b b8 1a 83 91 39 ad 5b 63 38
       3.4356002e-05 -4.85886e-05 0.00027754233 5.4206397e-05
000010 e8 8a 0a 38 d9 78 b4 b7 ed 6f 01 b8 da 5b a2 38
       3.303113e-05 -2.1513946e-05 -3.0860236e-05 7.741871e-05
000020 e9 6e 28 39 a8 43 56 b8 83 69 22 39 b1 d0 44 38
       0.00016063046 -5.1084586e-05 0.0001548883 4.69244e-05
000030 34 8b c1 37 cd b9 54 38 5f e7 3a b6 5a e7 2d 39
       2.3072214e-05 5.071778e-05 -2.7850836e-06 0.00016584751
000040 c6 40 3e 39 1e 73 5c b9 43 85 51 b8 d3 35 07 38
       0.00018143942 -0.0002102372 -4.9953593e-05 3.2236636e-05
000050 c8 3e c2 b8 df c1 00 38 f2 45 72 39 76 aa 06 39
       -9.262335e-05 3.0698135e-05 0.00023104975 0.00012842737
000060 6a 51 f6 b4 c1 72 c0 b5 31 fe 08 b8 7b c8 eb b7
       -4.5880307e-07 -1.4338513e-06 -3.266166e-05 -2.8107539e-05
000070 eb 08 b6 b7 ac 9a 5b b8 a0 f6 cf 38 08 8a 2b b8
       -2.1700243e-05 -5.235772e-05 9.916467e-05 -4.089813e-05

encoder.1.1.weight f4 [32]
000000 14 b0 70 3f 36 a0 57 3f 3e a9 85 3f 92 6d 5b 3f
       0.94018674 0.8422884 1.0442274 0.85714066
000010 fc 53 75 3f a3 4b 74 3f 98 8e 50 3f 2f 16 81 3f
       0.95831275 0.9542791 0.8146758 1.0084895
000020 a4 8d 70 3f 50 80 63 3f 52 ef 59 3f 1b dc 72 3f
       0.93966126 0.88867664 0.851308 0.94867104
000030 b8 35 59 3f 7c fa 62 3f 57 ba 5c 3f bd 38 74 3f
       0.84847593 0.8866346 0.8622183 0.95399076
000040 98 02 8c 3f 0e c7 8e 3f c5 9e 6f 3f 97 f1 6d 3f
       1.0938292 1.1154497 0.9360164 0.9294676
000050 12 7f 80 3f 4d ab 70 3f c3 6d 7e 3f 87 a1 89 3f
       1.0038779 0.94011384 0.99386233 1.0752419
000060 4b 1b 6c 3f f5 01 63 3f 09 9c 7a 3f 66 29 67 3f
       0.92229146 0.8867486 0.9789434 0.90297544
000070 29 6d 81 3f bf c7 85 3f fc 78 87 3f d8 0b 51 3f
       1.0111438 1.0451583 1.0583797 0.816587

encoder.1.1.bias f4 [32]
000000 fd 75 01 bc 6d f4 8f bb 36 6f 62 3e 9e 03 77 bd
       -0.007901666 -0.0043931515 0.22112736 -0.060306184
000010 c0 63 b6 3d 97 39 f2 3d c2 16 03 be 48 b1 74 3c
       0.089057446 0.11827391 -0.1280165 0.014934845
000020 06 88 10 3c b2 43 79 3d 56 9d 1f bd 09 40 7c bb
       0.008821493 0.060855575 -0.038968407 -0.0038490316
000030 18 b7 8d bd 9d 87 b0 bd ef 53 31 3d af c2 cf bc
       -0.06919688 -0.08619616 0.043292936 -0.025361387
000040 d4 25 c9 3c 12 66 17 bd e1 27 ae 3d 90 1f 02 bd
       0.02455417 -0.036962576 0.085037 -0.03176838
000050 83 89 bb bd 10 a5 1c bc 32 3e 9f 3c ea 59 72 bd
       -0.09157088 -0.009560838 0.019438837 -0.05916778
000060 cf 51 9d bc 36 6a 24 bc b5 66 56 3d 5d a9 3c bd
       -0.019204048 -0.010035088 0.052344043 -0.046059955
000070 dc 98 ba bd 7c b8 99 3b b3 e9 23 3d e9 99 48 3d
       -0.09111187 0.0046911817 0.040017795 0.048974905

encoder.1.1.running_mean f4 [32]
000000 cb a9 d0 bf b4 d8 0b c0 32 b2 4c 40 74 7e fd bf
       -1.6301817 -2.1851015 3.1983762 -1.9804215
000010 90 72 07 bf 47 ee 3d 40 09 a9 8b be 59 ae 2b 40
       -0.52909184 2.9676683 -0.272774 2.6825163
000020 34 eb 0a bf f8 34 46 c0 c0 b1 0c c0 56 e9 62 3f
       -0.5426514 -3.096983 -2.198349 0.8863729
000030 e3 e4 6d bf 5d a1 0f c0 cd 65 8f bf 91 8b bf 3f
       -0.9292738 -2.2442238 -1.1202942 1.4964467
000040 8b 00 47 c0 31 1a 2b c0 23 f3 2d c0 5e 4e f9 bf
       -3.1094081 -2.6734736 -2.717965 -1.9477041
000050 f2 e4 5a c0 29 2a f8 3f 50 d3 05 40 59 bb 30 c0
       -3.4202237 1.9387866 2.0910225 -2.7614348
000060 af 79 9b bf c6 e0 20 3f f2 d0 45 c0 68 91 11 3f
       -1.214651 0.6284298 -3.090878 0.568625
000070 02 5b 0f c0 4d cb 17 c0 d6 ac 49 40 6e 0b e7 bf
       -2.2399297 -2.3717835 3.151174 -1.8050363

encoder.1.1.running_var f4 [32]
000000 5f 6e bd 3f 8c 97 6b 3f c2 ef 41 3f 43 44 99 3f
       1.4799308 0.9202812 0.75756466 1.1973957
000010 07 51 06 40 32 42 c5 3f cf 63 83 3f f8 f9 04 40
       2.0986955 1.5410826 1.0264834 2.077757
000020 cf 68 ec 3f 00 17 c4 3f 41 ed 01 3f b3 74 96 3f
       1.8469485 1.5319519 0.50752646 1.1754364
000030 ad ad c4 3f ce 2f bb 3f 9c 24 64 3f 06 4f 6c 3f
       1.5365502 1.4623964 0.8911836 0.9230808
000040 4b 44 37 40 53 08 ae 3e 46 4a cf 3f 3f 34 dd 3f
       2.8635433 0.33990726 1.6194541 1.7281569
000050 e5 30 16 3f 21 c2 e9 3f a3 fe ad 3f 5e 0f f2 3e
       0.5866836 1.8262368 1.3593334 0.4727735
000060 7b df 46 40 ba c5 dc 3f d7 e1 8f 3f ce 46 e0 3f
       3.1073902 1.7247841 1.1240796 1.7521608
000070 91 32 56 40 9e 06 d5 3e 81 43 8b 3f 26 46 85 3f
       3.3468363 0.4160661 1.0879976 1.0412033

encoder.2.0.weight f4 [16, 32]
000000 9d c8 1b bd a4 2e 59 3d fe 0d b6 bd d2 19 fa bd
       -0.038033117 0.053022996 -0.088893875 -0.12211956
000010 4b 2e 7d bb a9 59 59 be 2a 44 ca bd a6 f6 a2 3b
       -0.003863233 -0.21225609 -0.098762825 0.0049732504
000020 3a e2 9e 3d fc b9 03 3e 9c 4e 75 ba d8 31 a9 3d
       0.07757993 0.12863916 -0.0009357722 0.0826146
000030 f6 73 e2 bd 07 2a 38 bd 64 ba 32 3d d8 59 c2 3c
       -0.11057274 -0.044961955 0.043634787 0.023724481
000040 0e 81 81 3e 60 90 f8 3d bd 69 41 bd 2b c6 24 3e
       0.25293773 0.12136912 -0.04721998 0.1609122
000050 55 e0 9a 3d 46 07 3a be b7 98 ee bd 4e 6e a4 3d
       0.07562319 -0.18166837 -0.11650222 0.080288514
000060 fb c9 c8 bd 07 3e 2a 3d 64 63 10 3e 1f e9 d5 bb
       -0.0980415 0.04156306 0.14100415 -0.0065280343
000070 cb 0f 4b 3d 41 bd c8 3d df 40 34 be 14 c4 f0 3d
       0.04957561 0.09801722 -0.17602871 0.11756149
000080 b0 c5 55 3d c4 92 26 3e 4e 2f 9f bd ed 3e 17 b9
       0.052190483 0.16266924 -0.077726945 -0.00014423924
000090 7b a0 d2 bd f9 5f 9b be 14 25 76 bd 04 0e 83 be
       -0.102845155 -0.3034666 -0.060093954 -0.2559663
0000a0 61 16 37 be 2b 77 c0 bd e8 6d be 3d 4b c2 1e 3e
       -0.1787963 -0.093977295 0.09298307 0.15503804
0000b0 04 47 1e be c4 8c e0 3d d2 be 14 bd c5 f9 bd 3d
       -0.15456778 0.10964349 -0.036314793 0.092761554
0000c0 6c dd bb 3d 34 a9 d8 3d c8 e7 c4 bd df fd f3 3d
       0.09173092 0.10579148 -0.09614521 0.119136564
0000d0 c2 aa 24 3e 0b d5 7b bd 94 c8 97 bc d9 6b c6 3b
       0.16080764 -0.06148247 -0.01852826 0.006055337
0000e0 df 25 7c 3d d5 65 d4 bd 68 ab d8 3d a6 f7 08 be
       0.061559554 -0.103709854 0.10579568 -0.1337572
0000f0 15 22 ab 3d 65 0a bb 3d 26 93 42 be be 44 39 bc
       0.0835611 0.09132842 -0.19001445 -0.011307893
000100 0a fb f9 bc 93 0a 81 3c 69 5e 2d be 28 6f b3 bd
       -0.030515213 0.015752112 -0.16930546 -0.08761436
000110 07 0b 28 3b 65 07 4b 3c be c6 04 3c f4 a8 49 be
       0.0025641338 0.0123919 0.008104024 -0.19693357
000120 49 77 4d bd f9 d2 97 3d 2b 94 f5 3d 61 c1 67 bc
       -0.050162587 0.07413287 0.119911514 -0.014145226
000130 f9 84 c7 bd ad 21 d6 3d 57 4a 13 3d 4c 3f 6e bc
       -0.097421594 0.10455642 0.035959568 -0.014541458
000140 99 4b 57 3e 8d 82 2e 3e 50 0e df bc d7 f5 f2 3d
       0.21024932 0.17041989 -0.027228504 0.118632965
000150 af ad 9b 3d c9 38 06 be 0e 26 36 be 44 90 2c 3c
       0.07601487 -0.131076 -0.17787954 0.0105324425
000160 f8 54 01 be 2a 0e ab 3d 59 50 0f 3e 77 73 5c 3c
       -0.1263007 0.08352311 0.13995494 0.013455263
000170 ee 9f c8 3d 5b 76 14 3e 5a 4c 45 be db cf f1 3d
       0.09796129 0.14498274 -0.19267407 0.118072234
000180 2b be dc 3d 74 44 01 3e 23 ce 67 be 8e 11 08 bd
       0.10778459 0.12623769 -0.22637229 -0.033219866
000190 3e f7 29 3e 97 7b a6 bd 71 ff 42 bd b3 8f 6b be
       0.16598222 -0.08129042 -0.04760689 -0.23004036
0001a0 de 70 e6 3c 93 99 5d 3c 0b fe 01 3d 6a 60 da 3d
       0.028129991 0.0135253845 0.031736415 0.10662921
0001b0 a2 b1 9f 3d 54 35 d0 3c a0 53 11 bd 7c 46 45 3d
       0.07797553 0.025416054 -0.03548014 0.048162922
0001c0 b5 44 1a bd be 5a 49 bc d2 02 ea bd 4f 29 17 3e
       -0.03766318 -0.012289701 -0.11426319 0.14761852
0001d0 3b be 40 3e 08 17 50 be ba bd a0 3d 9e f3 a9 bb
       0.18822567 -0.20321286 0.078486875 -0.005186512
0001e0 b0 8f 1a bd af d3 12 3e ab 3e 0e 3e 5c ae 42 be
       -0.037734687 0.14338563 0.13891093 -0.19011825
0001f0 6d 36 0b 3e 1c ff 1f 3d b7 4d 66 be 94 8a 49 bd
       0.1359498 0.03906165 -0.22490583 -0.049204424
000200 35 6b 98 bd 7e 23 4b 3d f0 1b 3c bd 95 78 48 3c
       -0.07442323 0.049594395 -0.04592508 0.01223578
000210 ae 3d b3 3c 71 b8 b7 bc d8 c7 17 bc 29 15 01 be
       0.021879997 -0.022426816 -0.009263955 -0.12605728
000220 89 59 9a 3d 60 1e c9 bd 80 ab 92 3c c4 95 c7 bd
       0.07536609 -0.09820247 0.017904043 -0.097453624
000230 20 29 46 bd 53 64 c1 bd 44 d8 22 bc fc 3e 93 bd
       -0.048379064 -0.094429635 -0.009939257 -0.07189748
000240 4b 41 8e be f1 4d 6a be 41 a0 de bd 2b ba 60 be
       -0.2778419 -0.22881295 -0.1087041 -0.21946017
000250 b8 bb 98 be 14 94 33 3d f8 99 f7 3d 99 78 59 be
       -0.29830718 0.04384239 0.12089914 -0.2123741
000260 ce 31 29 3e 39 28 ff 3a 1a da 3e be 86 98 7f bc
       0.16522905 0.0019466943 -0.18637887 -0.015600329
000270 b4 dd 51 be 39 01 41 be cc 5f 05 3d b3 6b b2 bc
       -0.2049473 -0.18848123 0.032562062 -0.02177987
000280 59 92 12 3e 25 26 9d 3d ae 54 ce 3c 6c 9a 9a 3d
       0.1431364 0.07673291 0.025186863 0.07548985
000290 f3 ca 07 be cf 1a 46 be de 11 76 bb 24 af 78 be
       -0.13261013 -0.19346164 -0.003754727 -0.24285561
0002a0 d5 bb 35 be 33 64 14 3e e8 19 fa 3d c1 b4 0f 3c
       -0.17747433 0.14491348 0.122119725 0.008771122
0002b0 b2 39 68 3d 7a ea 11 bd fa 5c d5 3d d3 fd a4 bc
       0.056695648 -0.035624005 0.104181245 -0.020140564
0002c0 56 d9 14 3d ed 09 4e 3d 3f da 77 3d 58 56 22 3e
       0.03634008 0.050302435 0.06051087 0.1585325
0002d0 77 ea 31 bd cd 27 21 be e4 c1 2b bd a4 ef fd 3d
       -0.043436494 -0.15737839 -0.041932955 0.123992234
0002e0 be 67 81 bd 22 a8 9c bc 48 88 5a 3d 9f 2b df bb
       -0.063186154 -0.01912314 0.053352624 -0.00681062
0002f0 fc e7 38 3d cb 05 a1 3d c9 06 60 be da 13 3f bd
       0.045143113 0.07862433 -0.21877588 -0.04664979
000300 53 14 8c bb c5 20 17 3e 79 7c 54 be 61 99 8a bd
       -0.004274884 0.14758594 -0.20750608 -0.06767536
000310 5a 0d de 3d 52 05 92 3c 24 a9 b0 3d f5 cf 00 be
       0.1084239 0.017824803 0.08626011 -0.1257933
000320 63 70 5c 3d 88 29 c6 3d dd e4 fe 3d 3e 5d c8 bd
       0.053818118 0.0967589 0.12445996 -0.097834095
000330 c7 58 aa 3c 73 61 10 bd eb aa 80 3b c3 67 75 3d
       0.020794285 -0.035249185 0.003926625 0.059913408
000340 47 43 34 3e 5d 02 85 3d a7 1b c8 3d 35 4c a8 3d
       0.1760379 0.064945914 0.09770899 0.0821766
000350 b9 70 b0 bd 37 e2 1c be 25 f2 04 be 77 8d 1a 3e
       -0.0861525 -0.15320669 -0.12982996 0.15093027
000360 c9 f0 96 3c ea 0b 8a 3d 3c 88 d0 bc 7f 9c 5f be
       0.018425362 0.06740554 -0.025455587 -0.21837042
000370 24 85 bb 3d d1 df 22 3e ed 42 93 be b7 61 90 3d
       0.09156254 0.15905692 -0.28761998 0.070498876
000380 fc 13 49 be 06 ff 8d 3d 75 58 73 3d 8b 53 05 bd
       -0.1963653 0.069334075 0.05941053 -0.032550376
000390 93 f6 77 3d 6f 5c 75 3c 36 2a 13 3d 12 1a 2f 3e
       0.060537886 0.014975651 0.035928927 0.17099789
0003a0 fa 58 c1 bc 69 5d a4 bd a2 59 53 bd 39 be 3b be
       -0.023601998 -0.08025629 -0.051599152 -0.18334283
0003b0 82 3d 27 3e d8 4f 8d 3d 68 65 b9 bc 02 a6 23 be
       0.16332057 0.068999946 -0.022631362 -0.15981296
0003c0 92 d0 ab 3c 92 30 c9 3c 60 a5 b3 bd 15 60 73 bd
       0.020973478 0.024559293 -0.08771777 -0.059417803
0003d0 db 5b 4e 3d f5 ea 44 bd 5e 8e 25 bd e9 cd e7 bc
       0.05038057 -0.048075635 -0.040418975 -0.028296428
0003e0 9c 51 42 bd f1 27 d6 bc ea 2a 23 be e1 94 73 3e
       -0.04744111 -0.026142092 -0.15934339 0.23787262
0003f0 58 b5 b6 3d c3 db 14 3d 8f ef 12 3e 5b 9d 1d bb
       0.08921307 0.036342394 0.14349197 -0.002405009

encoder.2.0.bias f4 [16]
000000 c1 52 d6 b7 a3 43 89 38 83 34 9a 38 bf 2e 32 b9
       -2.5549323e-05 6.5452674e-05 7.353073e-05 -0.00016992817
000010 8e 6b 0d 39 da fb 92 b8 07 fe c7 b8 6d 68 80 b8
       0.00013486875 -7.0087335e-05 -9.536376e-05 -6.1229664e-05
000020 73 d1 10 b9 01 79 ef b8 dd 37 3d 37 f8 45 2d b7
       -0.00013810936 -0.00011418947 1.1278285e-05 -1.0327894e-05
000030 1e 6c c7 b8 74 19 65 38 dc 56 92 b9 f8 d8 c2 36
       -9.509198e-05 5.462156e-05 -0.00027912005 5.806909e-06

encoder.2.1.weight f4 [16]
000000 5f ad 79 3f 9b 14 72 3f 71 47 60 3f 1e e0 62 3f
       0.9753017 0.9456269 0.8760901 0.88623226
000010 58 c7 91 3f d9 39 63 3f ec e8 67 3f 4e c5 65 3f
       1.138896 0.88760144 0.90589786 0.8975419
000020 9e 6c 93 3f 37 e2 78 3f fc f7 77 3f e5 35 92 3f
       1.1517522 0.97220176 0.9686277 1.1422697
000030 9d 19 64 3f e1 2b 64 3f 7d c7 8e 3f 49 50 51 3f
       0.8910158 0.89129454 1.1154629 0.8176313

encoder.2.1.bias f4 [16]
000000 57 81 5d bd ae 90 9a 3d 55 eb 25 bd 07 93 56 bd
       -0.054078426 0.07547127 -0.040507633 -0.05238631
000010 6a bf 14 be 86 55 2c 3d 78 90 c0 3c 55 52 25 bd
       -0.14526144 0.04207375 0.023506388 -0.04036172
000020 8b da 73 be cc 82 83 bc 45 7c 74 be 51 be d6 38
       -0.23813836 -0.01605358 -0.2387553 0.000102397644
000030 bd 05 fb bc 2e f1 62 39 12 9d 54 be 31 3d ca bd
       -0.030642385 0.00021642886 -0.20763043 -0.098749526

encoder.2.1.running_mean f4 [16]
000000 e6 73 ba 3d 90 80 47 be a0 94 86 3d ce fc 0b bd
       0.09104137 -0.19482636 0.06571317 -0.03417664
000010 a3 ac 57 bf 6f 5e 6c bd 62 f9 7d 3d 06 31 a9 bb
       -0.842478 -0.057707246 0.062005408 -0.0051633148
000020 6f 34 c5 be 88 f4 d2 3e 8a d8 aa bb 17 61 47 bf
       -0.38516566 0.41202188 -0.0052138017 -0.7788252
000030 56 e0 5c be b7 06 ca 3b 59 66 ad be a1 33 07 be
       -0.21569952 0.0061653513 -0.33867148 -0.13203289

encoder.2.1.running_var f4 [16]
000000 81 da 27 3f 08 ae 91 3f 7f e0 4b 3f 1a ce 1f 3f
       0.65567786 1.1381235 0.7963943 0.6242386
000010 d2 c2 2f 3f 14 46 1e 3f c6 51 45 3f 52 4b b6 3e
       0.6865665 0.6182568 0.770779 0.3560434
000020 dd 9c 63 3f f0 07 16 3f b0 43 95 3e 78 55 0e 3f
       0.8891123 0.5860586 0.29153204 0.55599165
000030 19 f5 8b 3f 85 e8 12 3f 75 0c 35 3f d0 a2 20 3f
       1.0934173 0.57386047 0.7072213 0.6274843

decoder.0.0.weight f4 [32, 16]
000000 0e 0e c9 bd ab 25 53 3e 9b ad b1 3d 47 2a 06 be
       -0.09817134 0.20619838 0.08675691 -0.13102065
000010 d1 be bf be 4e 6f 11 3e 43 ec c7 bd 27 e1 c9 bd
       -0.3745027 0.14202616 -0.0976186 -0.098573975
000020 ff 24 07 3e d4 ee 34 3e fc cb 1c 3c 10 2f c0 be
       0.13197707 0.1766923 0.009570118 -0.37535906
000030 ba f3 ca 38 7d 5b 92 3d 87 9c 68 3e b8 a0 43 bd
       9.677508e-05 0.07146356 0.2271596 -0.047760695
000040 3d 70 3b be 16 e5 1e bc 53 53 86 be dd b6 51 be
       -0.18304534 -0.009698173 -0.26235446 -0.20479913
000050 6e f9 af 3e 35 7c a5 bc ea ed f6 3d ab 78 2a 3e
       0.34369987 -0.020200828 0.12057097 0.16647594
000060 b0 18 23 be e7 a1 15 be 97 cd c3 bd 33 aa 09 3e
       -0.15927386 -0.14612542 -0.095606975 0.13443832
000070 37 21 12 bc 35 ab c9 bd 92 cb 25 3e 24 09 e3 bc
       -0.008919052 -0.09847108 0.16190937 -0.02771432
000080 22 8d 31 3e 5f 45 e9 3d 72 d1 99 bd 1e 93 1d 3d
       0.17338994 0.113901846 -0.07510652 0.03847038
000090 28 82 84 be ca e0 06 be 7a 82 d8 3d 0b 48 2c be
       -0.2588055 -0.13171688 0.105717614 -0.16824357
0000a0 a8 eb a0 be a5 2a fe bd 68 12 22 be 4d aa 3f 3d
       -0.3142979 -0.124104775 -0.15827334 0.04679327
0000b0 c1 f9 26 3e 93 9c 9c 3c 3c c4 63 be 51 fc ca 3d
       0.16306211 0.01911763 -0.22242826 0.09911407
0000c0 fd 31 d2 bd 3e 3a 13 3e b6 4b 3a bd 35 bd 5d bd
       -0.10263441 0.14377686 -0.04548236 -0.05413552
0000d0 c7 2e 31 bd 5b 33 df 3d d7 44 44 3e 5f ce 86 bc
       -0.0432575 0.10898467 0.19166885 -0.016455827
0000e0 e4 5b 96 be 3c 2e b2 bd a4 5f 18 3e cd 34 32 3e
       -0.29366982 -0.08700225 0.14880234 0.17402954
0000f0 2b 58 4d be c9 95 40 3e d1 bc b2 be 38 6d 1d bd
       -0.20053165 0.18807139 -0.3490968 -0.038434237
000100 20 57 26 3e c5 20 6d 3e ea 52 f4 bd 04 80 c7 bd
       0.16244173 0.23157032 -0.11929877 -0.09741214
000110 54 5a 1a 3e 82 8a 05 be 36 f1 83 3b 1e 38 64 3c
       0.1507352 -0.13041118 0.0040265573 0.013929395
000120 8e 6c 8d 3d cf 14 fc bc 6a 50 67 be 81 6d 8d be
       0.06905471 -0.030771641 -0.2258927 -0.27622607
000130 14 5d f4 3d 0a 22 b9 bc 16 76 90 be 56 aa 99 bd
       0.11931816 -0.022599239 -0.28215092 -0.07503192
000140 65 a0 cc 3b d8 e8 f1 bc de 90 13 3e cc 65 01 bc
       0.0062447065 -0.029529974 0.14410731 -0.007897805
000150 c5 cc 35 be c3 44 0c 3e df 18 d7 3d 3a f4 09 3e
       -0.17753895 0.13698106 0.10502791 0.13472071
000160 20 2a 7d be 82 d8 85 be dc 46 1a be 04 a9 1e be
       -0.247231 -0.26141745 -0.15066093 -0.15494162
000170 bb 54 bb 3c f3 db 23 3e 1a 25 d6 be 23 32 01 be
       0.022867551 0.16001873 -0.4182518 -0.12616782
000180 4b bf 19 be 96 47 5e 3e 40 59 14 bc 87 bc f5 bc
       -0.15014379 0.21706995 -0.009054482 -0.029997123
000190 d7 3a 6b be 85 6c fc 3c 54 e4 be 3d 75 4c 26 bd
       -0.22971664 0.030813465 0.09320894 -0.04060026
0001a0 d2 b3 8c 3d 6f 60 8b bd b2 0c 81 3d fc d0 be bd
       0.068702355 -0.068055026 0.063012496 -0.09317204
0001b0 59 4d 3d be 5f 77 56 3c 17 ca 68 bd f1 c2 c5 3c
       -0.18486537 0.013089984 -0.056833353 0.024140807
0001c0 4f 4d 1e 3a 58 43 82 3e c1 3c 8b 3d 77 af ae 3d
       0.00060387416 0.25442004 0.06798697 0.08529561
0001d0 1d 0b a1 bd 12 e5 08 3e 28 9a 43 be 43 9b 94 bd
       -0.07863448 0.13368633 -0.19101775 -0.07256176
0001e0 6f fa 99 be 8a 5b 6c 3e f2 71 04 be c6 aa a5 bd
       -0.30073878 0.23081794 -0.12934092 -0.08089213
0001f0 9c 55 8d 3e 76 30 e5 3c 4e 6d 29 3e e3 80 5a 3e
       0.27604377 0.02797721 0.16545603 0.21338229
000200 56 33 95 bb 24 ca 29 3b 43 82 62 3e e9 3c 41 3e
       -0.004553239 0.0025907839 0.22120003 0.18870892
000210 93 39 c3 bd f6 f9 47 be 06 78 6c be ce 0d 0a be
       -0.09532466 -0.19528946 -0.2309266 -0.13481829
000220 eb 09 52 be 34 8c 9c bd 70 86 2f bd 36 17 fc bd
       -0.20511596 -0.07643929 -0.04285282 -0.12309115
000230 98 fb 7c 3d 63 10 8f be fd 22 5e be d2 42 7d 3e
       0.061763376 -0.2794219 -0.21693034 0.24732521
000240 bd 09 f2 bd 43 ba 49 3d a2 90 2a 3d 5f a6 6d be
       -0.11818264 0.0492499 0.04164184 -0.23207997
000250 7a 57 20 be 29 c9 0f 3e d8 d5 2f 3e f8 77 43 be
       -0.1565837 0.1404158 0.17171419 -0.19088733
000260 26 12 04 be 4f 17 12 3e 16 4d 85 bd fa 11 22 be
       -0.12897548 0.14266704 -0.065088436 -0.1582717
000270 a1 33 80 3d 61 97 04 be 58 7c 4a be 26 c0 62 3e
       0.062598474 -0.12948371 -0.19773996 0.22143611
000280 f9 46 3a 3e 8c e5 d7 3d d4 c6 a7 3d 5c b5 55 3e
       0.18191136 0.105418295 0.0819222 0.20869964
000290 44 dd 9b be d6 d0 b5 bd a9 f8 42 3e ef b5 30 3e
       -0.3044225 -0.08877723 0.19040169 0.17256902
0002a0 af e2 6b bd 6c 3a ed bd 07 35 81 be 4d 2e 86 bd
       -0.05758923 -0.11583409 -0.2523577 -0.065518
0002b0 ce cc e4 3d ed c9 3c be a0 b0 c4 be 43 0b 10 bd
       0.11171876 -0.18436404 -0.38416004 -0.03516699
0002c0 bc aa 4f be 21 6f 61 3d fe d7 2e be 77 65 7d bc
       -0.20279974 0.05503762 -0.17074582 -0.015466086
0002d0 ed e4 68 3e 77 db 99 bd 2a df 51 be 9f 42 29 3d
       0.22743578 -0.07512563 -0.20495287 0.0413233
0002e0 a9 14 28 3e 43 fa fe bd 90 99 3f be 84 7d 88 3c
       0.16414131 -0.124500774 -0.18710923 0.016661413
0002f0 29 a8 5c be 0a 2e ba 3b e2 a6 6b be 0e 08 59 3d
       -0.21548523 0.005681758 -0.2301288 0.052986197
000300 73 ed 1d 3e cb 18 48 bd 75 8d e3 bc c1 db 25 be
       0.15422611 -0.04885177 -0.027777413 -0.1619711
000310 fa 54 55 3e de 5f 3a bd 29 5b e2 bd 3c 66 fd bd
       0.20833197 -0.045501582 -0.11052544 -0.12373015
000320 66 7f 56 3e a1 0f 3b be 8c d0 b0 bd cc 71 28 3e
       0.20947036 -0.1826768 -0.08633527 0.1644966
000330 f0 2f fd 3c b1 f1 03 bd 4e 28 ea bd 23 93 08 3e
       0.030906647 -0.032212917 -0.11433469 0.13337378
000340 1c 0d 1c 3e 24 0d f2 bd 6e 46 1d 3e 3a ed c9 3d
       0.15239376 -0.118189126 0.15358898 0.098597005
000350 fb d8 30 be b4 34 5f bc 63 90 fe 3d 05 dc ae 3d
       -0.17270271 -0.013623405 0.12429883 0.08538059
000360 8e 30 89 be c5 4b b4 3d 96 f8 1f be 46 41 a3 bd
       -0.26794857 0.088035144 -0.15622172 -0.07971434
000370 16 0f 9d 3d 52 19 35 be 90 26 9a 3d 89 06 12 bd
       0.07668893 -0.1768544 0.075268865 -0.035650764
000380 07 7d 1c 3b d3 aa 04 3e a1 56 9c 3c 28 21 50 be
       0.0023878233 0.1295579 0.019084277 -0.20325148
000390 cf ea 87 be 43 c2 0d 3e 48 2c a7 3c 93 a0 e1 bc
       -0.26546332 0.13843636 0.020406857 -0.027542388
0003a0 e2 92 ce be 5d 35 32 be 51 ab 1a 3d ee e5 f2 bd
       -0.40346438 -0.17403169 0.037761036 -0.11860262
0003b0 35 7f c2 bd 80 9d a9 3d 0b 48 0e bd d2 92 84 bd
       -0.09496919 0.08281994 -0.034736674 -0.06473316
0003c0 8a 20 e8 bc 50 a8 0b be 1b ab 2d 3c 8f d5 89 bd
       -0.028335828 -0.13638425 0.010599877 -0.06730186
0003d0 2f 8b 4c 3e c6 5b 27 be 48 ad 28 be 8e 92 ae 3d
       0.1997497 -0.16343603 -0.16472352 0.08524047
0003e0 ea b7 28 3b 6e f5 78 be 9b b2 d4 bd 31 21 56 3e
       0.0025744387 -0.24312374 -0.10385629 0.20911099
0003f0 ae b0 20 be a2 37 30 be a0 bc 3a bd 68 0b 86 bc
       -0.15692398 -0.17208722 -0.045590043 -0.01636286

decoder.0.0.bias f4 [32]
000000 54 9f 3d 3a 7c 1d 1b 38 60 bf 33 37 5e 46 76 ba
       0.00072335196 3.698234e-05 1.0713789e-05 -0.0009394641
000010 36 e7 9e b7 c2 30 af 38 81 1a 34 b9 c2 bf fb b8
       -1.8942734e-05 8.353732e-05 -0.00017176011 -0.0001200433
000020 4d fb 9c 38 0f 22 64 b8 1e 18 d7 37 f4 21 e8 b8
       7.485468e-05 -5.4391156e-05 2.5641228e-05 -0.00011068946
000030 40 63 a8 38 1b db 31 38 2e 2e 1c 3a 02 37 8a 39
       8.029351e-05 4.2404146e-05 0.0005957809 0.00026362395
000040 19 0e 8f 38 30 13 3a b6 16 8e 2f b9 a5 9d 7a b8
       6.821397e-05 -2.7727328e-06 -0.00016742232 -5.9751463e-05
000050 4b 51 17 39 d2 2e 3f 38 16 ca bb 39 1f ca d8 b7
       0.00014430766 4.5581553e-05 0.00035817985 -2.5843327e-05
000060 eb 69 2e b8 c2 25 63 39 e8 e1 64 38 8a 9a 5c 39
       -4.1583477e-05 0.00021662473 5.4569828e-05 0.00021038405
000070 80 06 1d 39 79 ed 84 37 f8 d8 bb 38 27 45 3a ba
       0.00014975108 1.5846208e-05 8.9572684e-05 -0.00071056414

decoder.0.1.weight f4 [32]
000000 95 b8 8c 3f 79 cf 8c 3f dd 71 78 3f b4 37 88 3f
       1.099383 1.1000816 0.9704874 1.0641999
000010 16 07 70 3f 12 be 8f 3f 12 50 88 3f 41 90 70 3f
       0.9376081 1.122988 1.0649436 0.93970114
000020 1b 9e 86 3f b1 36 7e 3f 6f 4e 88 3f 61 22 8e 3f
       1.0517 0.993022 1.0648936 1.1104242
000030 72 8f 8c 3f c2 99 89 3f aa ac 93 3f 2b 5b 8c 3f
       1.0981276 1.0750048 1.1537068 1.0965322
000040 46 1a 87 3f 1e 27 68 3f 41 d9 96 3f 48 86 74 3f
       1.0554893 0.9068469 1.1785051 0.95517397
000050 e5 33 93 3f 26 3c 8c 3f 1f b2 8d 3f 44 5b 87 3f
       1.1500212 1.0955856 1.1069983 1.0574727
000060 ca c3 6d 3f e7 6e 8d 3f 84 4b 79 3f 50 85 88 3f
       0.92876875 1.104947 0.9738085 1.0665684
000070 2f 94 87 3f b9 69 8f 3f 9c b0 8f 3f 3a 9a 93 3f
       1.0592097 1.1204139 1.1225772 1.1531441

decoder.0.1.bias f4 [32]
000000 87 7a 8c bd 4f ac 27 bd 46 d9 24 bd 69 b4 d1 bb
       -0.06859308 -0.04093581 -0.04024627 -0.0063996804
000010 3a 5a 65 bd 83 46 ae 3d 66 cc ba 3d d0 25 46 bd
       -0.05599425 0.08509543 0.09121017 -0.048375905
000020 5e 18 45 3d 2b 10 f5 3d 7b 82 ec 3d cb 2d 95 3d
       0.04811894 0.119659744 0.11548325 0.07284125
000030 4a 3e 7a bc 94 41 04 3e f5 c1 e9 3b 48 f8 0d bd
       -0.01527364 0.12915641 0.007133717 -0.034660608
000040 25 e4 b7 3d f7 6b cc bd 44 23 68 3d d8 89 b2 bc
       0.08979062 -0.0998153 0.056674257 -0.021794245
000050 ea 55 cb bc c4 ae 20 3d dd 74 b3 3d 7f eb a0 bb
       -0.02482124 0.03922917 0.08762524 -0.004910886
000060 f8 ee 01 3d 6f 34 86 3d b8 d1 02 bc 6d 5f a3 3d
       0.03172204 0.0655297 -0.007984571 0.079771854
000070 54 ff 45 bd a8 26 d4 3c 3b c5 0e bd 69 bc 5f 3d
       -0.048339203 0.025897339 -0.034856062 0.05462304

decoder.0.1.running_mean f4 [32]
000000 6d 13 c2 bd ac af 58 bd 29 1a 84 be 0f 68 a5 bd
       -0.094763614 -0.05290191 -0.2580121 -0.08076488
000010 db 78 33 be 11 c5 b1 be af 41 0b be 2a 41 5a 3e
       -0.17526571 -0.34720662 -0.13599275 0.2131392
000020 93 61 c4 be c8 62 5f be f2 b1 33 be b8 f6 91 be
       -0.38355693 -0.21815026 -0.1754835 -0.28508544
000030 b0 c4 79 3c 84 68 a2 bd 53 ab bb be fa d6 85 be
       0.015244648 -0.07930091 -0.36654148 -0.26140577
000040 97 2e 2e be 24 fc 16 3e 5c d0 46 be 37 f5 ca bd
       -0.1700996 0.14744622 -0.1941542 -0.09910052
000050 7c 10 5d 3c 34 ac a1 be e4 02 fa be cf d3 d6 be
       0.0134927 -0.31576693 -0.4883033 -0.41958472
000060 94 b6 16 be db 29 a8 3e 8e 1f 6c be 03 1d c0 bd
       -0.14718086 0.32844433 -0.23058912 -0.093805335
000070 18 59 df be 40 6f d1 be 8f bc e2 be 79 80 cd be
       -0.4362266 -0.4090519 -0.44284484 -0.4013708

decoder.0.1.running_var f4 [32]
000000 50 a3 f9 3d fa c3 5e 3e 34 6e c0 3e c1 f8 0a 3d
       0.121893525 0.21754447 0.37584078 0.033928636
000010 47 9d 1c 3e be 18 93 3e 98 c1 60 3c 70 19 4a 3e
       0.15294372 0.28729814 0.013718031 0.19736266
000020 8f 14 7a 3e fa d0 99 3e 9b ea 18 3f 7c 50 33 3e
       0.24421905 0.3004225 0.5973298 0.17511171
000030 d8 17 cb 3d 1c ff 98 3e 0d d6 14 3e a6 3f 5c 3e
       0.09916657 0.29882133 0.14534779 0.21508655
000040 f2 d4 fc 3e 42 79 64 3e cb 89 ea 3d 50 d2 30 3e
       0.49381214 0.22311881 0.11452063 0.17267728
000050 18 e1 62 3d 78 1c c9 3d 72 d4 c8 3e 37 2f 28 3f
       0.055390447 0.09819883 0.39224583 0.65697044
000060 4f 56 12 3e 32 a8 cb 3d ea 45 be 3d ae 0e 79 3e
       0.14290737 0.0994419 0.09290679 0.24322006
000070 ec 4e 4b 3e e3 27 13 3e 45 0d 28 3e 02 6d 80 3e
       0.19854325 0.14370684 0.16411312 0.25083166
