saved-model/gammatone/unetidnn/gammatone-unetidnn-valve-6.pkl (torch, 314066 bytes, 68 tensors)

encoder.0.0.weight f4 [64, 256]
-0.05963782 0.06517946 0.0054230755 0.054822985 -0.03360419 -0.049926754 -0.021538824 0.0069365106
-0.05295577 0.050689436 0.019648213 -0.022860218 -0.03660512 -0.031980235 0.035299197 -0.012218876
-0.05310134 -0.040037125 -0.043472342 -0.024172729 0.006801026 -0.0038444367 -0.009942056 0.056569327
0.045252774 0.060618218 0.050299164 0.009071381 0.03196852 0.045843292 -0.021454047 -0.052663263
-0.067721084 0.14291441 0.11398782 0.1057501 -0.0004265019 -0.04961704 -0.056232154 -0.0005110049
-0.034041613 0.017485017 0.014708184 0.009401114 0.022179633 0.035469282 0.045862544 0.045558117
-0.02715654 -0.009816658 0.004925681 0.0411064 -0.02105084 0.025238425 -0.0100077195 -0.003929363
-0.038249414 0.03756777 0.012523736 0.010676517 0.027956348 -0.041633688 -0.04405539 0.00064718904
-0.091694996 -0.13301207 -0.14708808 -0.10455276 -0.14028826 -0.0062849415 0.018414598 -0.048971836
0.0065294174 -0.019057881 -0.052899893 0.019565614 -0.051182147 -0.017434673 -0.054464936 -0.0030099328
-0.07946541 -0.11393704 -0.012009998 0.0042175152 0.047864724 -0.051326558 -0.034331035 -0.05125799
-0.0058219684 0.03665438 0.011837482 -0.017056156 0.007881222 -0.029963244 -0.069445245 -0.08725771
0.002481179 0.13522042 0.15065798 0.15453777 0.091891855 -0.07908065 0.0009901961 -0.082014866
-0.015370781 -0.02460621 0.044403717 0.047756128 0.009266217 0.03533963 -0.04496642 0.03339487
0.0131247165 0.037798323 -0.00921252 0.011996932 0.054874424 -0.0147007685 -0.026625443 -0.01913522
-0.00542572 0.029864902 -0.015343544 -0.049545176 0.022564247 -0.045948196 0.026099466 0.00360315
-0.18914597 -0.10174483 -0.11600289 -0.10448613 0.051001616 -0.01864973 0.0055153044 -0.041929804
0.01950908 0.058354426 -0.013742681 0.029094152 -0.03948105 -0.025075877 0.08062845 0.03919083
-0.07057901 0.005669128 -0.05409505 -0.0039364174 0.011631988 0.013501019 0.09354302 0.06287363
0.11480468 0.11556685 0.010315121 0.06673357 0.020544002 0.007762614 -0.012982546 -0.04787585
-0.008424598 0.1317174 0.21113826 0.20236099 0.04758365 -0.032693423 -0.04698486 0.032621652
0.06116002 -0.015203239 0.07110778 0.09306427 -0.037282776 0.0800304 0.08636227 0.00946717
0.10342131 -0.01406831 0.08995643 0.06979448 0.010939041 0.005090917 0.062518165 0.13350178
0.0189325 0.034069598 -0.08324441 -0.005054788 0.045776393 0.03224263 -0.017749332 0.0025003755
0.024323419 0.016146695 0.0077050887 -0.029800689 -0.06838703 0.020049507 0.10953504 0.18187353
0.08351244 -0.06589109 0.024331529 0.025430743 0.0013607204 -0.031759236 -0.059859578 -0.04065411
0.012600203 -0.03237228 0.01756172 -0.03825709 0.020847874 -0.025637496 0.069418676 -0.051965445
0.056436688 0.03223868 0.034390602 -0.012752476 -0.09181248 -0.031552173 -0.03234326 -0.13269958
-0.029121093 0.069670476 0.12118934 0.12360351 -0.006868939 -0.11307681 -0.10786661 0.07677982
-0.032149147 0.0011288613 0.06725287 -0.0004342456 -0.037038848 -0.014840728 -0.0071301716 -0.00312994
0.055698488 -0.0022265068 0.09697788 0.059154693 -0.007444302 0.028277148 -0.04367823 0.08113794
-0.008283176 -0.021514598 -0.07047507 0.033647776 -0.0028249978 -0.04335766 0.006328951 -0.03648558
00000000: c946 74bd cf7c 853d 0eb4 b13b 118e 603d
00000010: 8ca4 09bd ff7f 4cbd 3072 b0bc ab4b e33b
00000020: 26e8 58bd ba9f 4f3d 4af5 a03c 5a45 bbbc
00000030: 40ef 15bd b5fd 02bd e495 103d ae31 48bc
00000040: ca80 59bd f8fd 23bd 0e10 32bd e305 c6bc
00000050: 24db de3b f2f2 7bbb 01e4 22bc 3db5 673d
00000060: f95a 393d cf4a 783d 7f06 4e3d 21a0 143c
00000070: 6cf1 023d 2dc6 3b3d 66c0 afbc 6fb5 57bd
00000080: 5ab1 8abd 2858 123e 7272 e93d 8293 d83d
00000090: 1e9c dfb9 3d3b 4bbd b053 66bd f5f4 05ba
000000a0: 386f 0bbd bd3c 8f3c 98fa 703c 2107 1a3c
000000b0: 10b2 b53c 3d48 113d 5dda 3b3d 269b 3a3d
000000c0: 6477 debc 0cd6 20bc 9b67 a13b 2f5f 283d
000000d0: d072 acbc d0c0 ce3c 6bf7 23bc e3c1 80bb
000000e0: 6bab 1cbd a9e0 193d 5b30 4d3c 8fec 2e3c
000000f0: b604 e53c 1688 2abd 6d73 34bd 1fa8 293a
00000100: 96ca bbbd 5134 08be 429e 16be c21f d6bd
00000110: baa7 0fbe e9f1 cdbb 36da 963c b196 48bd
00000120: b9f4 d53b 461f 9cbc 8fad 58bd 1148 a03c
00000130: 5fa4 51bd 29d3 8ebc a016 5fbd 4b42 45bb
00000140: c3be a2bd d357 e9bd 95c5 44bc 1533 8a3b
00000150: cd0d 443d cc3b 52bd b39e 0cbd e6f3 51bd
00000160: 36c6 bebb e722 163d 00f2 413c 5ab9 8bbc
00000170: 3e20 013c 7a75 f5bc 4f39 8ebd 2cb4 b2bd
00000180: 479b 223b 3977 0a3e 1646 1a3e 263f 1e3e
00000190: cc31 bc3d 09f5 a1bd 78c9 813a 69f7 a7bd
000001a0: bad5 7bbc f692 c9bc ace0 353d ee9b 433d
000001b0: 55d1 173c 4ac0 103d b52e 38bd 0fc9 083d
000001c0: 0d09 573c 6ad2 1a3d 1cf0 16bc c88e 443c
000001d0: 01c4 603d 7edb 70bc 9a1d dabc 77c1 9cbc
000001e0: 3dca b1bb 3da7 f43c 7d63 7bbc e2ef 4abd
000001f0: a8d8 b83c 2d34 3cbd 8cce d53c d322 6c3b
00000200: 7baf 41be 985f d0bd ec92 edbd d3fc d5bd
00000210: 12e7 503d 52c7 98bc bab9 b43b 96be 2bbd
00000220: 82d1 9f3c 0d05 6f3d fb28 61bc dc56 ee3c
00000230: e2b6 21bd ed6b cdbc 8720 a53d 9086 203d
00000240: ba8b 90bd 18c4 b93b c592 5dbd 10fd 80bb
00000250: 1894 3e3c 6133 5d3c 7c93 bf3d e4c3 803d
00000260: b71e eb3d 50ae ec3d c100 293c 9cab 883d
00000270: e54b a83c 875d fe3b bfb4 54bc 7819 44bd
00000280: 5307 0abc ede0 063e a134 583e b837 4f3e
00000290: 13e7 423d 8ae9 05bd 3273 40bd 489e 053d
000002a0: ee82 7a3d 0217 79bc f5a0 913d 7b98 be3d
000002b0: d3b5 18bd fae6 a33d b4de b03d 301c 1b3c
000002c0: 8dce d33d c57e 66bc 143b b83d 69f0 8e3d
000002d0: aa39 333c b5d1 a63b 8609 803d b1b4 083e
000002e0: 5518 9b3c 908c 0b3d 0c7c aabd a3a2 a5bb
000002f0: 0780 3b3d d910 043d 0c67 91bc 57dd 233b
00000300: e841 c73c 1346 843c f87a fc3b 9320 f4bc
00000310: 800e 8cbd dd3e a43c e853 e03d 0e3d 3a3e
00000320: 9208 ab3d e8f1 86bd ea52 c73c 2254 d03c
00000330: 335a b23a f915 02bd 512f 75bd ed84 26bd
00000340: 1571 4e3c cc98 04bd 99dd 8f3c 77b3 1cbd
00000350: 29c9 aa3c ba05 d2bc 612b 8e3d b8d9 54bd
00000360: 282a 673d b50c 043d 29dd 0c3d c3ef 50bc
00000370: 2e08 bcbd da3c 01bd 5e7a 04bd 66e2 07be
00000380: 5c8f eebc 65af 8e3d 1e32 f83d d623 fd3d
00000390: d614 e1bb d194 e7bd 2be9 dcbd bd3e 9d3d
000003a0: d3ae 03bd 4df6 933a dfbb 893d 75ab e3b9
000003b0: 0cb6 17bd 8626 73bc 37a4 e9bb ae1f 4dbb
000003c0: 1924 643d 96ea 11bb 579c c63d 314c 723d
000003d0: 55ef f3bb 7aa5 e73c f2e7 32bd a62b a63d
000003e0: 29b6 07bc 623f b0bc 3c55 90bd 40d2 093d
000003f0: 9923 39bb cd97 31bd 1763 cf3b e771 15bd

encoder.0.0.bias f4 [64]
0.00018765975 -6.2627536e-05 -5.292595e-05 7.1123024e-05 -9.857071e-05 -0.00019409446 0.00022191906 -0.00012577197
4.0806277e-05 0.00010024008 0.00010508893 -0.00010021674 -7.85013e-05 3.34512e-06 -6.8999075e-06 4.3745313e-05
-9.810299e-05 6.8122604e-06 6.0443002e-05 -6.0210095e-05 0.00016107097 -0.00014166672 -0.00020279913 3.6698933e-05
-4.239804e-05 4.4052307e-05 0.00041914097 -0.00041797027 1.6112557e-05 -0.00011110653 -8.270596e-05 2.7416765e-05
-0.00013639216 -0.00017711468 -0.00027227844 7.072994e-05 -3.6970887e-05 -7.658693e-05 0.00016601082 0.00015198569
4.6145622e-05 0.00033302084 -0.00020787434 0.00017695654 -8.977987e-05 -0.00020591226 -0.00012459917 -5.87936e-05
-7.760261e-05 -7.619034e-05 0.000116939504 -7.210126e-05 0.00015601664 -3.9283103e-05 -0.00012992548 4.609858e-05
4.8911625e-05 0.0003895775 0.0001223336 9.0449386e-05 0.00015539759 6.395633e-05 -3.25793e-05 3.5831425e-05
00000000: 88c6 4439 e756 83b8 cefc 5db8 e227 9538
00000010: bfb7 ceb8 d685 4bb9 f2b2 6839 a8e1 03b9
00000020: 6827 2b38 fc37 d238 3163 dc38 742b d2b8
00000030: 11a1 a4b8 b97c 6036 c185 e7b6 2c7b 3738
00000040: a4bc cdb8 df94 e436 2e84 7d38 198a 7cb8
00000050: 29e5 2839 5f8c 14b9 7aa6 54b9 2eed 1938
00000060: 8cd4 31b8 cec4 3838 26c0 db39 0523 dbb9
00000070: 7429 8737 dd01 e9b8 6d72 adb8 0efd e537
00000080: 7e04 0fb9 dcb7 39b9 98c0 8eb9 d954 9438
00000090: 3011 1bb8 4c9d a0b8 3113 2e39 595e 1f39
000000a0: 7c8c 4138 4d99 ae39 d8f8 59b9 698d 3939
000000b0: 3348 bcb8 27ea 57b9 d6a6 02b9 2699 76b8
000000c0: 96be a2b8 61c8 9fb8 6b3d f538 1235 97b8
000000d0: 6698 2339 e9c3 24b8 9b3c 08b9 f959 4138
000000e0: 7526 4d38 3540 cc39 ad46 0039 a5af bd38
000000f0: 39f2 2239 4b20 8638 c2a5 08b8 b349 1638

encoder.0.1.weight f4 [64]
2.143977 2.3721945 2.2632742 2.372353 2.2776349 2.1071832 2.2271616 2.0728612
2.26031 2.2444901 2.3018286 2.2381206 2.373288 2.3194034 2.577146 2.1904678
2.3777483 2.365695 2.339131 2.434683 2.1865072 2.1571226 2.2967005 2.4122052
2.298927 2.3748713 2.0635304 2.3008678 2.2858274 2.3966787 2.2393377 2.352325
2.2262237 2.228725 2.1282616 2.2997968 2.4441044 2.2882984 2.3052366 2.2778673
2.3634515 2.2401593 2.2756782 2.3330162 2.2700505 2.2334743 2.3162522 2.1460989
2.342908 2.1335733 2.315597 2.3379266 2.1076202 2.2723083 2.364964 2.1172688
2.4427722 2.3429956 2.2516923 2.2954168 2.1968875 2.3766665 2.292201 2.2628973
00000000: eb36 0940 09d2 1740 7cd9 1040 a2d4 1740
00000010: c5c4 1140 17dc 0640 d189 0e40 c2a9 0440
00000020: eba8 1040 baa5 0f40 2951 1340 5e3d 0f40
00000030: f3e3 1740 1b71 1440 f6ef 2440 a030 0c40
00000040: 072d 1840 8c67 1740 53b4 1540 d9d1 1b40
00000050: bcef 0b40 4c0e 0a40 24fd 1240 9261 1a40
00000060: 9f21 1340 e4fd 1740 e210 0440 6b41 1340
00000070: ff4a 1240 2f63 1940 4f51 0f40 7e8c 1640
00000080: 737a 0e40 6ea3 0e40 7035 0840 df2f 1340
00000090: 356c 1c40 7b73 1240 ff88 1340 94c8 1140
000000a0: ca42 1740 c55e 0f40 b6a4 1140 2350 1540
000000b0: 8248 1140 3ef1 0e40 7a3d 1440 af59 0940
000000c0: 34f2 1540 778c 0840 be32 1440 97a0 1540
000000d0: 40e3 0640 806d 1140 925b 1740 5581 0740
000000e0: 6156 1c40 a4f3 1540 ba1b 1040 1ce8 1240
000000f0: ce99 0c40 4e1b 1840 6cb3 1240 4fd3 1040

encoder.0.1.bias f4 [64]
1.0002774 0.54523164 1.1963378 0.97206396 0.59968024 1.0134348 0.69010407 1.0754768
0.7072318 0.774692 0.95519257 0.61028665 1.4394108 1.2637446 1.6819571 1.3001113
0.76580864 0.85734814 0.7549986 1.3277236 1.1092249 0.79990655 0.47027668 1.1700686
0.5763518 0.6950211 1.1835654 0.85519993 0.964693 0.8420659 1.0253808 0.78920513
0.69953644 0.8393506 1.1820767 0.8852945 1.1340117 0.67688787 0.7926965 0.5663236
0.6949277 0.5520999 0.6086849 0.7018964 0.7587533 0.900227 0.6078216 1.2309161
0.7343519 0.8895148 1.362495 0.58366984 1.1294128 0.69746244 0.75987715 1.226432
0.7538328 0.48956084 1.265725 0.6960566 0.7508572 0.72699547 0.93740845 0.6626805
00000000: 1709 803f 4d94 0b3f 9921 993f 2fd9 783f
00000010: a584 193f 3bb8 813f a9aa 303f 39a9 893f
00000020: 250d 353f 3752 463f 8087 743f bf3b 1c3f
00000030: 9d3e b83f 62c2 a13f 5f4a d73f 0c6a a63f
00000040: 090c 443f 2b7b 5b3f 9747 413f d9f2 a93f
00000050: 15fb 8d3f adc6 4c3f 1bc8 f03e cfc4 953f
00000060: cb8b 133f e7ec 313f 127f 973f 62ee 5a3f
00000070: 1ff6 763f a191 573f ae3f 833f 5909 4a3f
00000080: d214 333f aedf 563f 4a4e 973f a9a2 623f
00000090: 4c27 913f 8648 2d3f 28ee 4a3f 95fa 103f
000000a0: c8e6 313f 6b56 0d3f c6d2 1b3f 7caf 333f
000000b0: a83d 423f 4775 663f 329a 1b3f a98e 9d3f
000000c0: 7cfe 3b3f 3eb7 633f 3c66 ae3f 636b 153f
000000d0: 9990 903f e68c 323f 4f87 423f b9fb 9c3f
000000e0: 30fb 403f b8a7 fa3e 4703 a23f c430 323f
000000f0: 2d38 403f 601c 3a3f 00fa 6f3f 6ea5 293f

encoder.0.1.running_mean f4 [64]
32.390022 -5.821143 192.97931 49.73097 9.665995 48.60317 16.211355 -5.463597
9.835292 29.95251 6.3100047 -31.692945 42.48991 45.960743 -12.916753 43.78713
16.60183 23.263353 38.345284 -47.72807 7.916873 76.48467 98.45494 107.2469
16.243034 28.034697 21.842852 82.992294 1.5437912 15.854363 83.50332 5.6502585
20.36005 -79.56184 116.10944 76.95319 24.714106 87.27576 167.01941 6.429333
-2.2556965 87.600655 -4.327537 20.036144 3.6497917 48.513622 54.492897 -17.975973
15.016248 -18.23961 35.112778 37.206417 73.48246 94.68781 45.311737 74.0834
24.21934 13.593192 62.567978 28.739693 106.39543 33.504246 12.535598 -48.12415
00000000: 628f 0142 ce46 bac0 b4fa 4043 83ec 4642
00000010: eaa7 1a41 a569 4242 dbb0 8141 c9d5 aec0
00000020: 5b5d 1d41 be9e ef41 8feb c940 278b fdc1
00000030: abf5 2942 cdd7 3742 05ab 4ec1 0526 2f42
00000040: 8cd0 8441 591b ba41 9261 1942 8be9 3ec2
00000050: 0657 fd40 27f8 9842 eee8 c442 6a7e d642
00000060: bcf1 8141 0f47 e041 29be ae41 0efc a542
00000070: f39a c53f 79ab 7d41 b301 a742 ebce b440
00000080: 62e1 a241 a91f 9fc2 0938 e842 09e8 9942
00000090: 7db6 c541 308d ae42 f804 2743 19bd cd40
000000a0: 555d 10c0 8933 af42 2f7b 8ac0 064a a041
000000b0: 3096 6940 f30d 4242 baf8 5942 cbce 8fc1
000000c0: 8d42 7041 b9ea 91c1 7c73 0c42 5fd3 1442
000000d0: 05f7 9242 2960 bd42 383f 3542 b32a 9442
000000e0: 35c1 c141 b77d 5941 9c45 7a42 e4ea e541
000000f0: 76ca d442 5904 0642 cf91 4841 217f 40c2

encoder.0.1.running_var f4 [64]
11089.533 1713.9147 13058.13 2740.4768 6155.4175 11332.825 2165.8389 4426.8086
3941.5422 1830.9806 2816.917 8531.578 2613.5205 3596.7332 5201.07 2708.2874
3415.9355 5730.799 13597.326 4417.0386 3024.6545 7141.165 15241.253 10821.78
4453.5615 4637.054 8090.379 33750.12 4465.6064 2380.2168 2154.8616 1389.865
3880.1985 4035.0908 6948.845 2721.1865 2335.046 13026.927 23378.936 916.5644
1484.0496 13860.136 1991.8113 1826.5013 3940.0295 3410.2996 2644.8179 4848.2876
1326.1907 6495.214 1690.6345 9356.147 3133.757 8226.849 1717.3802 7498.0586
1706.2173 3773.2717 3018.374 3998.8877 7319.9966 8668.808 3134.398 3873.1619
00000000: 2246 2d46 453d d644 8508 4c46 a147 2b45
00000010: 575b c045 4d13 3146 6c5d 0745 7856 8a45
00000020: ad58 7645 61df e444 ac0e 3045 504e 0546
00000030: 5458 2345 bbcb 6045 8f88 a245 9944 2945
00000040: f87e 5545 6416 b345 4e75 5446 4f08 8a45
00000050: 790a 3d45 5229 df45 0325 6e46 1f17 2946
00000060: 7e2c 8b45 6fe8 9045 08d3 fc45 1fd6 0347
00000070: da8c 8b45 78c3 1445 c9ad 0645 aebb ad44
00000080: 2d83 7245 7431 7c45 c326 d945 fc12 2a45
00000090: bcf0 1145 b58b 4b46 dfa5 b646 1f24 6544
000000a0: 9681 b944 8b90 5846 f6f9 f844 0b50 e444
000000b0: 7940 7645 cb24 5545 164d 2545 4d82 9745
000000c0: 1ac6 a544 b6f9 ca45 4e54 d344 9730 1246
000000d0: 1ddc 4345 658b 0046 2bac d644 7850 ea45
000000e0: f446 d544 59d4 6b45 fca5 3c45 34ee 7945
000000f0: f9bf e445 3b73 0746 5ee6 4345 9712 7245

encoder.1.0.weight f4 [64, 64]
0.005701751 -0.06395706 -0.069067284 0.067823045 0.12609275 -0.012727863 -0.12898867 0.110957555
-0.02938858 -0.17250113 -0.010975898 0.02901103 -0.15346847 -0.014712779 0.18749395 -0.12024343
-0.021933421 -0.015747076 -0.07028188 -0.018626153 0.050093286 0.009851909 -0.052364606 -0.01743284
-0.00505817 -0.040074877 0.067159675 -0.099117205 0.036485557 -0.0374981 0.0542173 0.07819902
-0.0019484186 0.04187566 -0.17237195 -0.045235258 0.021013938 -0.061720263 -0.16380227 -0.075769775
0.18585439 -0.17888646 0.016201777 0.013287169 -0.018407032 0.002849063 0.03349535 -0.012142348
-0.04045792 -0.0138062965 -0.018209651 0.015490051 0.04870992 0.04106342 -0.17438854 -0.04522617
-0.0039406153 -0.0020283929 -0.13275734 0.03383922 -0.07196135 0.079389215 -0.060427215 0.08108357
0.035947695 -0.05918751 -0.14479826 0.083352834 -0.21810071 -0.07780079 -0.09746286 -0.08956486
0.02549001 0.21971925 -0.08232014 0.04372256 -0.0014489789 0.054493822 0.15494008 0.00940108
-0.02081628 -0.00080448075 0.061337862 0.034342837 -0.047511484 -0.1207819 -0.1941164 -0.08166144
0.058590747 0.27261832 -0.15039434 -0.07579328 -0.118628554 -0.010850388 -0.04327188 0.026899995
-0.015890392 0.12185138 -0.17201118 0.028527958 0.10248877 -0.050658353 -0.16380997 0.0885173
0.04176958 -0.05714188 0.09115036 -0.09114459 -0.036900148 -0.014081795 -0.12854816 0.044258386
-0.07863049 -0.10623074 0.05429544 -0.0067031095 0.036999684 0.021189487 0.04889902 -0.064009406
-0.07274292 -0.13207807 -0.006713974 -0.07896568 -0.15944058 -0.13913615 0.17028376 0.00871013
0.057104133 0.04486978 0.0021736745 0.03918204 -0.2553514 -0.071119644 -0.021983491 0.0028758603
-0.14569338 0.07844512 -0.2532237 0.04115941 -0.01756842 -0.09189955 -0.038451273 0.081921786
0.018653825 -0.013383746 -0.008245979 -0.09113283 0.157224 -0.050717775 -0.02080605 0.0820954
0.13150713 0.052427202 -0.12758008 0.11344275 -0.12486844 0.029849965 0.042044345 -0.08196394
-0.059055787 0.06484769 -0.014044244 0.04200924 0.101469964 -0.052023493 0.09933823 0.06520396
-0.101180695 0.12483772 0.04912931 -0.16699335 -0.103118055 -0.18611282 -0.20182917 -0.055888154
-0.009979944 -0.077190556 -0.04015266 0.017936585 -0.17214356 0.0019335417 0.04602955 0.00653807
0.03632241 -0.124547094 -0.017615324 -0.03261015 -0.1605631 0.010590836 -0.0100165075 -0.15605606
0.03547788 0.08454316 -0.011580563 0.04247058 -0.04004777 -0.075193234 -0.016619017 -0.0037949712
-0.008652415 0.05573329 0.09193909 0.07171702 0.031127091 -0.12236306 -0.11092219 -0.12030672
0.086866 -0.09584303 -0.0833424 -0.0107868165 0.03971737 0.04924281 0.19210096 0.13073467
-0.17029653 -0.06611645 -0.06060166 -0.05038845 -0.0023469713 -0.015574089 0.041740604 -0.0604983
0.062137064 -0.027267464 0.033492748 0.049733255 -0.052499007 0.0045357114 0.048925113 0.09074422
0.012486145 0.32006878 -0.13006298 -0.04848207 -0.008161956 -0.006185552 0.0059446464 -0.09545879
0.10570313 0.016920889 -0.1176583 0.24990524 0.108887896 -0.0037498586 -0.009885597 0.08700789
-0.028313553 -0.07056276 0.062320855 0.017335812 0.1321751 0.08162568 -0.06405984 0.15115602
00000000: c1d5 ba3b ebfb 82bd 2673 8dbd cfe6 8a3d
00000010: 751e 013e 8788 50bc 9b15 04be b73d e33d
00000020: 52c0 f0bc 23a4 30be 41d4 33bc 8aa8 ed3c
00000030: d726 1dbe de0d 71bc 6afe 3f3e 3042 f6bd
00000040: b8ad b3bc 0300 81bc f2ef 8fbd e095 98bc
00000050: 9e2e 4d3d e769 213c 457c 56bd 51cf 8ebc
00000060: 01bf a5bb 8e25 24bd 038b 893d f6fd cabd
00000070: e171 153d 9c97 19bd f612 5e3d cf26 a03d
00000080: 1462 ffba d085 2b3d 4682 30be 9b48 39bd
00000090: 6c25 ac3c 63ce 7cbd c8bb 27be 2f2d 9bbd
000000a0: 9d50 3e3e 032e 37be 97b9 843c 6db2 593c
000000b0: 58ca 96bc 58b7 3a3b 6c32 093d b3f0 46bc
000000c0: 34b7 25bd ce33 62bc 682c 95bc fcc9 7d3c
000000d0: 0e84 473d 1e32 283d e992 32be 143f 39bd
000000e0: 4720 81bb c9ee 04bb 8af1 07be fe9a 0a3d
000000f0: 7960 93bd d096 a23d 8782 77bd 250f a63d
00000100: e43d 133d 9a6e 72bd ff45 14be e4b4 aa3d
00000110: cb55 5fbe 0556 9fbd 9c9a c7bd c86d b7bd
00000120: 6dd0 d03c 15fe 603e 7697 a8bd 6d16 333d
00000130: aaeb bdba ea34 5f3d 9da8 1e3e fd06 1a3c
00000140: e786 aabc cae3 52ba 693d 7b3d 13ab 0c3d
00000150: 679b 42bd 805c f7bd 73c6 46be 1d3e a7bd
00000160: dafc 6f3d a194 8b3e f900 1abe 8239 9bbd
00000170: 87f3 f2bd d3c5 31bc db3d 31bd 615d dc3c
00000180: 912c 82bc 378d f93d b323 30be 77b3 e93c
00000190: a2e5 d13d 227f 4fbd cdbd 27be 8f48 b53d
000001a0: 9416 2b3d 9b0d 6abd 0aad ba3d 04aa babd
000001b0: 9c24 17bd 54b7 66bc 21a2 03be 4848 353d
000001c0: 0609 a1bd 818f d9bd e564 5e3d c2a5 dbbb
000001d0: fb8c 173d 9395 ad3c 574a 483d 5d17 83bd
000001e0: 3dfa 94bd 793f 07be e500 dcbb c2b8 a1bd
000001f0: 6444 23be b579 0ebe de5e 2e3e efb4 0e3c
00000200: 06e6 693d 60c9 373d 3574 0e3b 597d 203d
00000210: 6bbd 82be 2da7 91bd b916 b4bc ee78 3c3b
00000220: a530 15be d6a7 a03d 89a6 81be c596 283d
00000230: a6eb 8fbc d535 bcbd 157f 1dbd 9cc6 a73d
00000240: e8cf 983c 8047 5bbc 251a 07bc d9a3 babd
00000250: 54ff 203e 71bd 4fbd 7371 aabc a221 a83d
00000260: cea9 063e e8bd 563d 5aa4 02be ac54 e83d
00000270: 06bb ffbd ea87 f43c b136 2c3d b6dc a7bd
00000280: 7be4 71bd dece 843d d419 66bc e111 2c3d
00000290: 7ccf cf3d 9616 55bd d871 cb3d a789 853d
000002a0: d337 cfbd ebaa ff3d d13b 493d 4e00 2bbe
000002b0: 8f2f d3bd 5c94 3ebe 4eac 4ebe faea 64bd
000002c0: eb82 23bc 1516 9ebd 1e77 24bd bfef 923c
000002d0: 6746 30be e56e fd3a 7b89 3c3d 4e3d d63b
000002e0: cfc6 143d 8c12 ffbd 034e 90bc 3892 05bd
000002f0: a76a 24be 3085 2d3c 471c 24bc 29cd 1fbe
00000300: 4151 113d f724 ad3d 67bc 3dbc a2f5 2d3d
00000310: 2109 24bd e9fe 99bd 9b24 88bc 0db5 78bb
00000320: dcc2 0dbc 9748 643d 904a bc3d 5fe0 923d
00000330: 3efe fe3c 7c99 fabd 2c2b e3bd 5f63 f6bd
00000340: cde6 b13d 5a49 c4bd 6caf aabd 30bb 30bc
00000350: aeae 223d d4b2 493d 1db6 443e 4fdf 053e
00000360: 3762 2ebe 1068 87bd 7239 78bd 1f64 4ebd
00000370: a5cf 19bb 772a 7fbc 32f8 2a3d 11cd 77bd
00000380: 6f83 7e3d 0460 dfbc b12f 093d 19b5 4b3d
00000390: 3309 57bd 4ea0 943b b365 483d 1bd8 b93d
000003a0: b092 4c3c 0ee0 a33e 3b2f 05be 2395 46bd
000003b0: bab9 05bc 2cb0 cabb 4fcb c23b e67f c3bd
000003c0: e27a d83d ad9d 8a3c d6f6 f0bd 29e7 7f3e
000003d0: 9e00 df3d 30c0 75bb 33f7 21bc 3131 b23d
000003e0: d3f1 e7bc 3583 90bd 2744 7f3d d503 8e3c
000003f0: e958 073e 5d2b a73d ce31 83bd a5c8 1a3e

encoder.1.0.bias f4 [64]
0.000314768 0.001049772 -0.0010866015 0.0010140141 -0.001006131 0.0026396126 0.0015074359 -0.000682568
0.0011705456 0.0012617037 0.0010807322 -0.00055928837 -0.00064043683 0.0006013437 -0.00026987016 0.001303221
0.0012026815 -0.00354819 -0.0014207556 0.0016076213 -0.001084898 -0.0033654734 -6.6054763e-06 -0.0032267976
-0.00084492465 0.00085778616 0.0019433183 0.0028972859 0.001085362 -0.0012863422 -0.0012094276 0.0022188039
-0.0016690104 0.0016393621 -0.0006097695 -0.0019286656 0.00066561304 0.000593688 0.00055088557 -0.0010063432
0.00026860143 -0.0005973634 0.0010614548 0.0001979993 0.0016712282 -0.00020712925 -0.00024287897 -0.0002024526
-9.184996e-05 -0.0012777915 -0.001898442 -0.0015112614 0.0061951824 0.0011081657 -0.0015947915 -0.00037813172
-0.0010864445 -0.0014426814 -0.0005431112 0.0009835183 -0.0006860699 0.0002160649 -0.0014238254 -0.0011827082
00000000: 7207 a539 8198 893a 4c6c 8eba abe8 843a
00000010: 27e0 83ba 5afd 2c3b 2895 c53a 5dee 32ba
00000020: fe6c 993a c05f a53a 5ba7 8d3a 359d 12ba
00000030: fde2 27ba 7ea3 1d3a 5c7d 8db9 d7d0 aa3a
00000040: 4ba3 9d3a c088 68bb a638 baba d2b6 d23a
00000050: 2333 8eba 468f 5cbb 9ca4 ddb6 ae78 53bb
00000060: ef7d 5dba 0edd 603a f1b6 fe3a 64e0 3d3b
00000070: b542 8e3a 7b9a a8ba a885 9eba 5a69 113b
00000080: b2c2 daba dddf d63a f0d8 1fba 47cb fcba
00000090: 897c 2e3a baa1 1b3a 4e69 103a 46e7 83ba
000000a0: 13d3 8c39 6198 1cba 8320 8b3a 089e 4f39
000000b0: 1d0d db3a d630 59b9 54ad 7eb9 7549 54b9
000000c0: 929f c0b8 917b a7ba 25d5 f8ba 8515 c6ba
000000d0: f500 cb3b df3f 913a 5308 d1ba fb3f c6b9
000000e0: 0767 8eba 5b18 bdba 935f 0eba 66e9 803a
000000f0: 5fd9 33ba 7b8f 6239 a79f baba 1a05 9bba

encoder.1.1.weight f4 [64]
1.0231953 1.0811443 1.004416 0.9400682 0.94905096 1.0664617 0.92813677 0.9479173
0.97499144 1.0453266 0.9793205 0.9920722 1.0121102 0.9685044 0.9255297 0.93108076
1.0031044 0.8871595 1.0265841 0.97973704 0.9229338 1.0116984 1.0871278 0.9399608
1.0547214 0.9692522 1.0236957 1.028718 0.9724895 0.94565153 0.9972574 0.9530288
0.9272671 1.0947341 0.99706835 1.041813 0.9224424 0.8915113 0.9921225 1.0074396
0.95431215 0.9986196 1.0148735 1.0141479 0.9866664 0.86990523 1.0317812 0.97064704
1.0332345 0.96677667 1.0053039 1.0342972 1.0170069 0.96559054 0.97018206 0.9720373
0.96427536 0.9153375 0.99941033 0.9526536 0.99749535 1.0466077 0.99246097 0.97953707
00000000: 10f8 823f f062 8a3f b490 803f 4fa8 703f
00000010: 01f5 723f d181 883f 5f9a 6d3f b5aa 723f
00000020: 0a99 793f 43cd 853f c0b4 7a3f 72f8 7d3f
00000030: d48c 813f e8ef 773f 84ef 6c3f 4f5b 6e3f
00000040: ba65 803f e31c 633f 1c67 833f 0cd0 7a3f
00000050: 6445 6c3f 557f 813f 0127 8b3f 45a1 703f
00000060: 1c01 873f ea20 783f 7608 833f 08ad 833f
00000070: 12f5 783f 3816 723f 434c 7f3f b2f9 733f
00000080: 6061 6d3f 3f20 8c3f df3f 7f3f 215a 853f
00000090: 2f25 6c3f 163a 643f bdfb 7d3f c8f3 803f
000000a0: cd4d 743f 89a5 7f3f 60e7 813f 99cf 813f
000000b0: 2b96 7c3f 1cb2 5e3f 6811 843f 537c 783f
000000c0: 0741 843f ad7e 773f ccad 803f da63 843f
000000d0: 482d 823f f130 773f da5d 783f 70d7 783f
000000e0: c0da 763f 8f53 6a3f 5bd9 7f3f 1be1 733f
000000f0: db5b 7f3f 3ef7 853f ec11 7e3f f1c2 7a3f

encoder.1.1.bias f4 [64]
-0.011096669 0.10197376 0.1617038 0.058105342 -0.018232329 0.3659098 -0.03459852 -0.03372311
-0.11022708 0.093564555 -0.018415619 0.084466614 0.15793376 0.28619096 -0.014797327 0.08850848
-0.04359334 0.06434985 -0.097368725 0.046935752 0.07254389 0.12060983 0.028245367 -0.050347574
0.08864096 0.043116294 0.0894838 0.032523528 -0.014647989 0.08790442 0.09144962 -0.023035418
0.058616266 0.22032778 -0.02625766 0.32115442 0.004553321 -0.09942495 0.06982841 0.11620905
-0.054298792 -0.012000828 -0.05272391 0.2161919 0.10218946 0.036357 0.01974481 -0.020966258
0.0484727 -0.10304964 -0.16926457 0.30180615 0.17323795 -0.04707515 0.18226199 0.06597452
0.12377893 -0.06590223 0.17303555 -0.07149499 -0.023167992 0.08730538 -0.056067884 -0.016954064
00000000: cece 35bc 9ed7 d03d ae95 253e deff 6d3d
00000010: f75b 95bc 8858 bb3e 2db7 0dbd 3e21 0abd
00000020: bcbe e1bd c69e bf3d 5adc 96bc d5fc ac3d
00000030: 63b9 213e 9f87 923e 7d70 72bc ef43 b53d
00000040: ee8e 32bd dbc9 833d 4169 c7bd b43f 403d
00000050: e491 943d 4902 f73d d462 e73c 4239 4ebd
00000060: 6489 b53d b69a 303d 4843 b73d 6437 053d
00000070: 1efe 6fbc 3c07 b43d f049 bb3d c6b4 bcbc
00000080: 9c17 703d 9b9d 613e 4e1a d7bc 5a6e a43e
00000090: 0634 953b 4f9f cbbd 3302 8f3d 03ff ed3d
000000a0: 6968 5ebd 1f9f 44bc 07f5 57bd 6961 5d3e
000000b0: b548 d13d 14eb 143d debf a13c 6ec1 abbc
000000c0: 4f8b 463d b10b d3bd b153 2dbe 5686 9a3e
000000d0: 4a65 313e dfd1 40bd e3a2 3a3e a61d 873d
000000e0: cf7f fd3d c0f7 86bd 3b30 313e f76b 92bd
000000f0: cdca bdbc 2acd b23d 70a7 65bd 40e3 8abc

encoder.1.1.running_mean f4 [64]
-1.0735494 -1.1967547 -1.9151078 0.5411241 1.1426809 -1.302398 0.592563 -0.17048143
0.72966486 -1.5165625 0.28215864 -1.9570811 0.43991405 -1.190453 0.5451997 0.62839925
-0.11163043 0.6958464 -0.23376934 1.3928627 1.3555051 -0.6908266 -0.17817447 2.1585855
-0.010699103 -1.3020247 -0.5740437 0.19493824 1.2015785 0.3184035 0.19453625 0.82499397
0.485907 -2.1348617 0.51397586 -0.557459 0.3231861 0.9597443 -1.4728475 0.70638525
-0.4986965 0.9780887 0.16794561 -1.1474619 1.4612092 1.5048915 -1.4237572 -0.4955406
-0.57815796 0.114764564 0.69279367 0.8253862 -0.1621024 0.9888103 -0.8356092 -1.8258952
-0.6779998 1.4785156 -1.2861292 1.761415 1.2472719 -1.6657597 0.6356558 0.013832174
00000000: 116a 89bf 422f 99bf 4122 f5bf 1c87 0a3f
00000010: 5e43 923f fab4 a6bf 35b2 173f af92 2ebe
00000020: 51cb 3a3f b81e c2bf 1977 903e a281 fabf
00000030: 6a3c e13e c460 98bf 3592 0b3f c6de 203f
00000040: 7f9e e4bd fd22 323f 3b61 6fbe 5349 b23f
00000050: 3181 ad3f 03da 30bf 5e73 36be 4426 0a40
00000060: 4a4b 2fbc bfa8 a6bf 87f4 12bf e49d 473e
00000070: 53cd 993f c905 a33e 8334 473e ce32 533f
00000080: cdc8 f83e 93a1 08c0 ec93 033f a2b5 0ebf
00000090: a678 a53e cdb1 753f 4486 bcbf aad5 343f
000000a0: 2655 ffbe 0564 7a3f eff9 2b3e 08e0 92bf
000000b0: e708 bb3f 49a0 c03f ad3d b6bf 7fb7 fdbe
000000c0: 2902 14bf af09 eb3d ed5a 313f 834c 533f
000000d0: 2cfe 25be ac22 7d3f 7cea 55bf efb6 e9bf
000000e0: 6591 2dbf 0040 bd3f e29f a4bf 0c76 e13f
000000f0: 9ba6 9f3f 9d37 d5bf 57ba 223f 58a0 623c

encoder.1.1.running_var f4 [64]
4.02032 5.1094885 3.9905674 4.468704 2.688994 5.271113 3.570593 1.6924429
1.613831 6.334963 3.7629817 5.434126 1.4480051 3.4078176 2.4798784 1.4118929
3.244386 1.1478736 2.9934793 5.6067786 0.9567721 2.4881039 2.091657 3.4222264
4.412842 2.9792616 5.7357492 1.7590277 1.5745325 1.1742908 2.5924346 1.5281718
1.1525412 6.2190084 2.505863 2.269738 1.6231459 2.5067658 6.4767857 5.3399587
1.9930365 3.0143125 1.5441535 4.6608844 2.5791905 3.8449 6.596521 3.7663102
4.544294 1.8610513 0.5394639 0.86501354 2.0192657 3.096473 3.2764928 2.504746
2.8102555 6.6133175 2.6522596 4.7882557 1.7726605 5.666386 2.0159051 2.6505964
00000000: 76a6 8040 ee80 a340 7565 7f40 a0ff 8e40
00000010: 7a18 2c40 f5ac a840 9984 6440 f8a1 d83f
00000020: 0492 ce3f 04b8 ca40 b1d4 7040 5ce4 ad40
00000030: 3b58 b93f af19 5a40 54b6 1e40 e8b8 b43f
00000040: 05a4 4f40 86ed 923f 2a95 3f40 bb6a b340
00000050: 04ef 743f 183d 1f40 b5dd 0540 c205 5b40
00000060: 0036 8d40 39ac 3e40 428b b740 d227 e13f
00000070: 488a c93f 294f 963f 73ea 2540 229b c33f
00000080: 7886 933f 1e02 c740 0f60 2040 6343 1140
00000090: 3fc3 cf3f da6e 2040 d441 cf40 f1e0 aa40
000000a0: d21b ff3f 7fea 4040 d2a6 c53f f725 9540
000000b0: 7511 2540 d712 7640 b316 d340 3a0b 7140
000000c0: db6a 9140 ee36 ee3f 4e1a 0a3f 8771 5d3f
000000d0: a63b 0140 9d2c 4640 0fb2 5140 c24d 2040
000000e0: 3adb 3340 4ca0 d340 9fbe 2940 6439 9940
000000f0: 8ae6 e23f 0953 b540 9704 0140 5fa3 2940

encoder.2.0.weight f4 [64, 64]
-0.034215324 0.03568888 0.03162609 0.006507262 -0.14368384 -0.04584876 0.15351628 -0.008972689
0.06304828 -0.06917755 -0.10979783 0.019053513 0.044069596 0.019068308 0.07591245 -0.016906044
-0.06190622 0.06760398 -0.07316719 0.1274532 0.1162964 -0.11382615 -0.061232027 0.038103934
0.015978564 0.023024505 -0.03737144 -0.04992589 0.019764392 0.030009726 0.030305196 -0.11776523
0.016068941 -0.041316852 -0.13954915 0.18579663 -0.08150098 -0.004786814 0.04454372 0.038360234
-0.007530439 0.010377816 0.033762928 -0.018564066 0.0038250317 -0.10843572 -0.034355137 -6.365798e-05
-0.018812967 -0.03856221 -0.0004873919 -0.09507332 -0.08347454 -0.08957548 -0.0849206 -0.08686902
-0.111091115 0.20883778 -0.0249346 0.008090612 0.05521194 0.05104039 0.010200564 0.1365793
-0.01661216 -0.120578356 0.15115765 0.044908132 0.024957456 -0.16552581 -0.04034419 0.12782781
-0.13619393 0.03293412 0.034228142 0.030266998 -0.06919758 -0.053576358 0.0016910968 -0.014571975
0.11128786 -0.06660225 -0.12471192 -0.12149686 -0.13161153 -0.057929777 -0.06335602 -0.04374601
-0.011973953 0.08727812 -0.11684406 -0.043415334 -0.11007955 0.045144625 -0.11463654 0.0675822
0.040850602 0.07480379 -0.1373949 0.054611478 -0.0023735221 -0.054215536 -0.0830131 0.018555136
-0.09208856 -0.069242075 -0.040726524 0.030088106 -0.15960798 -0.06819674 0.047183502 -0.035149634
0.08822956 0.008185158 -0.061759774 0.046362534 0.065178 -0.019428682 0.113415495 -0.051907346
-0.010426685 0.0467732 0.008747186 -0.11733474 -0.033529 -0.012377655 -0.120943606 0.044923127
0.056932278 -0.00015746793 -0.003720948 0.04823132 -0.13110927 -0.13021374 0.14600366 0.09486857
0.011653367 -0.0041494616 0.16159047 -0.0038718586 0.12038555 -0.062346924 -0.06218386 -0.030846775
0.010629158 -0.15983516 0.2176536 0.022867339 0.010955389 -0.044259585 0.20520405 -0.0075640674
0.13019194 0.031100273 0.070694424 0.025303254 -0.047216687 -0.078954905 0.109503075 0.033606086
0.02776933 -0.093484424 0.024705939 -0.046482455 -0.03673882 0.15560916 0.08905635 -0.15579623
0.066867106 0.046633344 -0.016615665 0.15807827 0.11075196 0.054828007 0.04695843 -0.077940576
-0.056203507 -0.041304912 0.042244848 -0.0062596994 -0.10730912 0.026934305 -0.036693178 -0.12703685
-0.07285774 -0.048400603 0.02838776 -0.016752752 0.074718304 0.113720864 -0.011269832 0.07745838
0.13495496 0.007922058 -0.03217114 0.052321825 -0.049263258 0.014973585 -0.035361815 0.038666196
0.08149465 -0.14670232 -0.10098017 0.059125777 -0.03325655 -0.03282839 0.02006965 -0.0118939355
-0.02865892 -0.07436134 -0.11574823 0.01903645 -0.043428846 0.022162918 -0.02487706 0.15864576
-0.09857266 -0.02628244 0.09710918 0.057505447 -0.1071938 -0.05416429 0.00071716274 0.035014115
-0.00916715 -0.11615301 0.0563329 0.018934919 0.034023102 0.030895656 0.0788152 -0.03539347
-0.029296177 0.07293576 0.119999744 0.03456247 -0.025888735 -0.05587041 -0.07789423 0.004434058
0.11127771 0.06145184 -0.09579675 -0.17252222 0.14648546 0.073848754 -0.024315516 0.043641236
-0.08722656 0.08963051 -0.029361913 0.054909818 -0.09725085 -0.053431578 0.09847496 0.03243443
00000000: 5e25 0cbd 812e 123d 5c8a 013d df3a d53b
00000010: db21 13be e9cb 3bbd 5f33 1d3e 2f02 13bc
00000020: 751f 813d f6ac 8dbd afdd e0bd 1d16 9c3c
00000030: 5282 343d 2435 9c3c fd77 9b3d 8b7e 8abc
00000040: 6091 7dbd f573 8a3d aed8 95bd 1783 023e
00000050: cf2c ee3d af1d e9bd 6fce 7abd df12 1c3d
00000060: 7ae5 823c e39d bc3c cc12 19bd 177f 4cbd
00000070: efe8 a13c f5d6 f53c 9a42 f83c e62e f1bd
00000080: 03a3 833c dc3b 29bd f9e5 0ebe 7941 3e3e
00000090: fce9 a6bd b5da 9cbb 7a73 363d 9f1f 1d3d
000000a0: e7c1 f6bb b707 2a3c ff4a 0a3d ab13 98bc
000000b0: 62ad 7a3b 8c13 debd f9b7 0cbd 1e80 85b8
000000c0: a71d 9abc 68f3 1dbd a288 ffb9 cdb5 c2bd
000000d0: b3f4 aabd 5973 b7bd daea adbd 62e8 b1bd
000000e0: bd83 e3bd 92d9 553e a543 ccbc 7c8e 043c
000000f0: ea25 623d ba0f 513d 4420 273c 72db 0b3e
00000100: 3916 88bc c9f1 f6bd 12c9 1a3e 97f1 373d
00000110: 9473 cc3c 997f 29be f33f 25bd 4be5 023e
00000120: 6c76 0bbe eee5 063d cf32 0c3d 7ff2 f73c
00000130: 76b7 8dbd e272 5bbd cba7 dd3a 4bbf 6ebc
00000140: e4ea e33d c366 88bd f768 ffbd 59d3 f8bd
00000150: 2cc5 06be c647 6dbd cdc0 81bd 042f 33bd
00000160: 662e 44bc dfbe b23d f04b efbd 47d4 31bd
00000170: 6371 e1bd 92e9 383d 90c6 eabd 8968 8a3d
00000180: f652 273d bb32 993d 40b1 0cbe 49b0 5f3d
00000190: 188d 1bbb 1c11 5ebd c602 aabd f100 983c
000001a0: ed98 bcbd cace 8dbd dbd0 26bd 557b f63c
000001b0: 4670 23be bbaa 8bbd 7d43 413d 10f9 0fbd
000001c0: b3b1 b43d 0a1b 063c d1f7 7cbd a4e6 3d3d
000001d0: 0b7c 853d e628 9fbc 6246 e83d cc9c 54bd
000001e0: b0d4 2abc 4195 3f3d 5b50 0f3c 324d f0bd
000001f0: b455 09bd a6cb 4abc 48b1 f7bd 5001 383d
00000200: d231 693d fa1d 25b9 26db 73bb 348e 453d
00000210: 8241 06be c056 05be fc81 153e 744a c23d
00000220: c4ed 3e3c 35f8 87bb f977 253e 02bf 7dbb
00000230: b38c f63d 7d5f 7fbd 81b4 7ebd 60b2 fcbc
00000240: eb25 2e3c d4ab 23be 96e0 5e3e 4954 bb3c
00000250: 3b7e 333c 8a49 35bd 0321 523e ffdb f7bb
00000260: 0951 053e 00c6 fe3c 3dc8 903d c548 cf3c
00000270: 4966 41bd 1cb3 a1bd 2643 e03d 89a6 093d
00000280: 827c e33c c374 bfbd 1c64 ca3c 6364 3ebd
00000290: 727b 16bd 0258 1f3e 2d63 b63d 0c89 1fbe
000002a0: 9ff1 883d 9b02 3f3d 931d 88bc 45df 213e
000002b0: ecd1 e23d 5593 603d 7c57 403d 4f9f 9fbd
000002c0: a635 66bd 572f 29bd ef08 2d3d 2a1e cdbb
000002d0: e2c4 dbbd 55a5 dc3c 964b 16bd f315 02be
000002e0: 7036 95bd b63f 46bd 738d e83c 113d 89bc
000002f0: e905 993d 7ce6 e83d 1aa5 38bc 80a2 9e3d
00000300: a231 0a3e 85cb 013c e3c5 03bd 694f 563d
00000310: 45c8 49bd c453 753c 8dd7 10bd 7260 1e3d
00000320: abe6 a63d 2239 16be b1ce cebd df2d 723d
00000330: 0538 08bd 1077 06bd 1b69 a43c c8de 42bc
00000340: 1dc6 eabc c24a 98bd 680d edbd 54f2 9b3c
00000350: 72e2 31bd 028f b53c faca cbbc 0974 223e
00000360: 76e0 c9bd 464e d7bc 2ee1 c63d d58a 6b3d
00000370: 6c88 dbbd 60db 5dbd faff 3b3a f66a 0f3d
00000380: d031 16bc a1e1 edbd 54bd 663d 671d 9b3c
00000390: cf5b 0b3d e318 fd3c dd69 a13d bef8 10bd
000003a0: 89fe efbc 585f 953d 6dc2 f53d 6091 0d3d
000003b0: 9d14 d4bc 5fd8 64bd 0387 9fbd 934b 913b
000003c0: 91e5 e33d edb4 7b3d 1631 c4bd aaa9 30be
000003d0: 4900 163e 043e 973d 5531 c7bc 27c1 323d
000003e0: d7a3 b2bd 3390 b73d 6588 f0bc 1ee9 603d
000003f0: 742b c7bd 12db 5abd 3dad c93d f7d9 043d

encoder.2.0.bias f4 [64]
-0.003208159 -0.0014923326 0.00023990488 0.0028418798 -0.0047145714 -0.0073240492 0.0023295358 0.0013027004
0.00027102922 0.0019145446 0.003145298 0.0046578594 -0.0020677212 2.5142306e-05 0.002055946 0.0029714438
-0.0010708988 0.0012166197 -0.000131873 -0.0015481716 0.0007674055 -0.005406652 -0.00114948 -0.0009787164
0.000326752 -0.0005411044 -0.0006918847 -0.0035598625 -0.0014152629 -0.00083419273 -0.003585636 -0.0005438309
0.0046203784 -0.0004839256 0.00012528793 -0.00013115903 0.00091755483 0.0011874742 0.007547524 0.0011796968
-0.0024337873 0.00617537 -0.004391474 -0.0069007683 -0.00048446152 -0.0038361805 0.00073169015 0.0028455039
-0.0030223974 0.012526753 0.0029879468 -0.002292204 -0.0014939681 -0.000876137 0.0055644214 0.0008737146
-0.0030230617 -0.0031559856 0.00036939976 0.0004089206 0.0017921384 0.0030373042 -0.0006139825 0.00020328055
00000000: fa3f 52bb 5f9a c3ba fa8e 7b39 d53e 3a3b
00000010: b17c 9abb 94fe efbb 20ab 183b 5fbf aa3a
00000020: ed18 8e39 75f1 fa3a 5821 4e3b f5a0 983b
00000030: 9b82 07bb b1e8 d237 0dbd 063b 8ebc 423b
00000040: 675d 8cba fc76 9f3a 6447 0ab9 05ec caba
00000050: b62b 493a 492a b1bb 26aa 96ba 4648 80ba
00000060: e94f ab39 e7d8 0dba 995f 35ba 954c 69bb
00000070: 5880 b9ba baad 5aba fdfc 6abb e08f 0eba
00000080: 8b66 973b 65b7 fdb9 b95f 0339 bc87 09b9
00000090: 1088 703a 06a5 9b3a 3851 f73b 0ea0 9a3a
000000a0: 2d80 1fbb c25a ca3b 5be6 8fbb d71f e2bb
000000b0: 53ff fdb9 6e68 7bbb e5ce 3f3a a27b 3a3b
000000c0: 6a13 46bb 033d 4d3c 6ed1 433b cd38 16bb
000000d0: 40d1 c3ba 8fac 65ba c055 b63b ff09 653a
000000e0: 8f1e 46bb a7d4 4ebb ffab c139 6564 d639
000000f0: 30e6 ea3a 820d 473b abf3 20ba b527 5539

encoder.2.1.weight f4 [64]
0.9800816 0.9977573 0.9086738 0.97956467 0.9687984 0.95833576 1.054588 1.0095022
1.0751103 0.9745777 1.0189649 0.99151963 1.0141618 1.0401359 0.9465034 0.9924579
0.93668735 0.99394065 1.0170193 0.96515316 0.9628589 0.9675988 0.9745665 0.97387075
1.0068254 1.0009153 0.9811464 1.003477 1.0491142 0.99767435 0.9929684 0.9543392
1.0022709 1.0471511 0.9752122 1.0307099 0.8644424 1.0335299 0.949208 0.99147993
0.9389611 1.0180346 1.0022585 1.0110368 0.99246246 0.968404 1.0110874 0.99154794
0.9698226 1.0223701 1.0092803 0.8921274 0.9958994 0.9752892 1.0026404 1.0235809
1.0850079 0.98003536 0.9645652 1.0517029 0.89472306 1.0737473 0.97006416 0.9607585
00000000: a1e6 7a3f 066d 7f3f d99e 683f c0c4 7a3f
00000010: 2c03 783f 7e55 753f bdfc 863f 5e37 813f
00000020: 379d 893f ed7d 793f 716d 823f 3bd4 7d3f
00000030: 0ed0 813f 2c23 853f 0c4e 723f b911 7e3f
00000040: beca 6f3f e572 7e3f b02d 823f 4714 773f
00000050: ec7d 763f 8eb4 773f 317d 793f 984f 793f
00000060: a8df 803f fe1d 803f 692c 7b3f ef71 803f
00000070: 6049 863f 9667 7f3f 2d33 7e3f 934f 743f
00000080: 6a4a 803f 0c09 863f 82a7 793f 4dee 833f
00000090: 194c 5d3f b54a 843f 4cff 723f a1d1 7d3f
000000a0: c15f 703f f54e 823f 024a 803f a769 813f
000000b0: 0512 7e3f 53e9 773f 506b 813f 16d6 7d3f
000000c0: 4b46 783f 06dd 823f 1930 813f 7662 643f
000000d0: 43f3 7e3f 8eac 793f 8556 803f b304 833f
000000e0: 8ae1 8a3f 99e3 7a3f bfed 763f 339e 863f
000000f0: 920c 653f 8d70 893f 2056 783f 45f4 753f

encoder.2.1.bias f4 [64]
-0.05163701 0.026712976 -0.13997042 -0.009528767 0.0006247582 -0.03591923 0.08869443 -0.03577928
0.07568612 0.011960878 -0.09840826 -0.028848512 0.112521246 0.06973574 0.008527982 0.3261617
-0.023885727 0.14982995 0.035975575 0.0018285981 -0.067099705 0.01393833 0.0002817181 -0.11369895
0.063918754 -0.016091539 0.09464437 0.023147872 0.21695271 -0.033221167 -0.0207606 -0.005389572
-0.06369673 0.039962724 0.07003741 0.06731309 -0.024969842 0.039764646 0.09414348 -0.037669435
0.022005843 -0.007981281 -0.087420456 0.02966741 -0.075598426 -0.033937577 -0.0069628204 0.1347029
0.04624673 -0.056391835 0.097458325 -0.010891739 -0.17689362 0.030022183 -0.10668207 0.05066673
-0.030826839 -0.06638149 0.06834805 0.06310828 -0.09084968 -0.03180907 -0.07891572 0.2936576
00000000: 5481 53bd 2cd5 da3c 6854 0fbe 8c1e 1cbc
00000010: d0c6 233a 0b20 13bd 6da5 b53d 4b8d 12bd
00000020: 5301 9b3d 8ff7 433c 458a c9bd b753 ecbc
00000030: 8a71 e63d 9dd1 8e3d f3b8 0b3c abfe a63e
00000040: 00ac c3bc 066d 193e 205b 133d 92ad ef3a
00000050: 926b 89bd 985d 643c 90b3 9339 ffda e8bd
00000060: d6e7 823d 67d2 83bc e8d4 c13d 9ba0 bd3c
00000070: da28 5e3e eb12 08bd 2212 aabc 029b b0bb
00000080: 6e73 82bd f4af 233d c66f 8f3d 72db 893d
00000090: 8e8d ccbc 41e0 223d 4cce c03d 444b 1abd
000000a0: 9945 b43c ebc3 02bc 7f09 b3bd 1109 f33c
000000b0: 59d3 9abd 2102 0bbd 5f28 e4bb 8fef 093e
000000c0: 366d 3d3d 20fb 66bd 3b98 c73d 4473 32bc
000000d0: 9a23 35be 15f1 f53c 217c dabd eb87 4f3d
000000e0: 9188 fcbc 05f3 87bd 10fa 8b3d ea3e 813d
000000f0: 660f babd 3a4a 02bd 919e a1bd 4a5a 963e

encoder.2.1.running_mean f4 [64]
-0.16139217 -0.42710963 0.22948712 -0.063862585 -0.0056112306 -0.28399608 -0.85809726 0.3105716
-0.8000138 0.0022929723 0.41851386 0.112206176 -0.49863598 -0.9132257 0.22976018 0.1121906
-0.035294283 -0.2847709 -0.3852302 0.118542016 -0.15579465 0.21395132 0.1411234 0.8542779
-0.38862023 0.3626646 -0.27848828 0.3138809 0.0100311935 0.25819486 0.3603587 -0.48867586
0.5015139 0.2495057 -0.061026074 -0.10924047 -0.22646531 -0.4656182 -0.5540207 0.16675676
0.2961495 0.02030894 0.29038018 0.021470834 -0.15936776 -0.056889538 0.14357832 -0.568672
-0.5005153 0.5864438 -0.2390993 -0.09231874 0.92692167 -0.2768151 0.9745443 -0.2039817
0.5427206 0.42618445 -0.61098576 -0.40838957 0.58274454 -0.054467093 0.21312502 -0.33024606
00000000: fd43 25be 1dae dabe acfe 6a3e 63ca 82bd
00000010: 6ade b7bb ef67 91be 43ac 5bbf 3e03 9f3e
00000020: b4cd 4cbf b145 163b 7347 d63e 5acc e53d
00000030: 374d ffbe 29c9 69bf 4146 6b3e 2fc4 e53d
00000040: bd90 10bd 7ecd 91be e53c c5be 28c6 f23d
00000050: a288 1fbe 0e16 5b3e a782 103e f5b1 5a3f
00000060: 3bf9 c6be 2daf b93e 0496 8ebe ffb4 a03e
00000070: e059 243c 1e32 843e ef80 b83e b933 fabe
00000080: 3763 003f 6c7e 7f3e 7af6 79bd 78b9 dfbd
00000090: 86e6 67be 8265 eebe 4dd4 0dbf 49c2 2a3e
000000a0: e8a0 973e ef5e a63c b6ac 943e 9ae3 af3c
000000b0: 4d31 23be 0105 69bd 3206 133e 7d94 11bf
000000c0: c521 00bf 2e21 163f 72d6 74be 9c11 bdbd
000000d0: bd4a 6d3f b5ba 8dbe bc7b 793f 94e0 50be
000000e0: bdef 0a3f d934 da3e 9069 1cbf 7018 d1be
000000f0: bf2e 153f e318 5fbd 723d 5a3e 0316 a9be

encoder.2.1.running_var f4 [64]
0.25817525 0.5220901 0.1946785 0.18126498 0.11417872 0.16802162 0.7954484 0.37706152
1.3405704 0.36874205 0.17434606 0.32367137 0.7307576 0.5838033 0.20597628 0.11848675
0.20734675 0.5049244 0.2929744 0.14818925 0.44980896 0.1243657 0.6718608 0.22648712
0.1700052 0.20916131 0.13662986 0.15855928 0.26504648 0.15727477 0.17782775 0.8910745
0.20391463 0.3610282 0.4813942 0.19017293 0.23210232 0.22073704 0.2249544 0.57813245
0.3520569 0.27346665 0.16155474 0.13130623 0.1228076 0.21640126 0.26132822 0.21320571
0.15650709 0.12638646 0.10994202 0.1450617 0.4810286 0.17239021 0.19923249 0.32893607
0.46831176 0.1613781 0.14588054 0.40528104 0.18296309 0.1340056 0.097297855 0.32961544
00000000: 8c2f 843e b2a7 053f cd59 473e 879d 393e
00000010: 88d6 e93d dc0d 2c3e 82a2 4b3f 350e c13e
00000020: d097 ab3f c2cb bc3e c687 323e 41b8 a53e
00000030: ee12 3b3f 2274 153f 72eb 523e 2ea9 f23d
00000040: b552 543e ba42 013f be00 963e ecbe 173e
00000050: 5c4d e63e 72b3 fe3d 12ff 2b3f 3dec 673e
00000060: d815 2e3e 622e 563e b3e8 0b3e 5d5d 223e
00000070: 2cb4 873e a30c 213e 7a18 363e 751d 643f
00000080: ffce 503e b0d8 b83e 4d79 f63e b1bc 423e
00000090: 3bac 6d3e e408 623e 725a 663e 7d00 143f
000000a0: cd40 b43e d203 8c3e 9b6e 253e 2475 063e
000000b0: 8d82 fb3d 4b98 5d3e d0cc 853e 9952 5a3e
000000c0: 6543 203e 746b 013e 4829 e13d 0e8b 143e
000000d0: 6149 f63e 0f87 303e 9a03 4c3e 4f6a a83e
000000e0: 8fc6 ef3e 4d40 253e b561 153e ff80 cf3e
000000f0: ad5a 3b3e c438 093e 1944 c73d 5bc3 a83e

encoder.3.0.weight f4 [64, 64]
0.008596462 -0.005382561 -0.046332046 0.028463352 0.052482266 -0.008987617 -0.097208284 0.03058813
0.13929583 -0.052777667 -0.14805594 -0.069403626 -0.0642584 -0.020626416 -0.013261287 0.038438197
-0.08146753 -0.18465586 0.083149366 0.11685119 0.07627562 -0.044801813 -0.041996 0.024898997
-0.069158874 -0.15435834 -0.04622672 0.03158367 0.07161886 -0.13286054 -0.089927375 0.008253065
-0.049170654 -0.07656091 0.0823111 -0.0035496058 -0.061717402 -0.024176052 0.015908467 -0.061166175
-0.024343682 -0.049790513 -0.10829009 0.09461516 0.015543051 0.08675406 -0.079263456 0.047143724
0.06005115 -0.09449904 -0.07168017 -0.048336297 0.10996105 0.07081018 -0.051686432 0.012267463
0.036214925 0.010979431 0.1057788 0.17585452 0.032256808 -0.22074832 0.027628025 0.01917438
0.05782899 -0.07289905 0.039645694 0.048944645 -0.08268124 0.04965706 -0.014606342 -0.058508992
-0.03872776 0.07425088 -0.022576692 0.112676546 0.037108835 0.062294923 -0.11749833 0.040362936
-0.023190944 0.10650002 0.08815321 0.085601315 0.065852724 0.017129827 0.0009461369 -0.055619884
-0.041256335 0.028570784 -0.09238745 -0.13237914 -0.08224049 0.026908515 -0.13217159 0.0074264235
0.089052744 0.15049893 -0.09995058 0.058011565 0.058277797 0.15560111 -0.11126203 0.049992803
0.0779178 0.0072156386 0.06921699 0.119354755 0.0011430171 0.096144415 0.071234174 -0.11205889
-0.013855974 0.14870943 -0.022315156 0.09382416 -0.018279808 0.028231816 0.06929512 -0.0032862579
0.010543556 0.10152959 -0.072267875 0.0863289 -0.04914537 0.12637845 -0.053265262 0.086489275
0.039111596 -0.123574816 0.1445068 -0.07270551 0.007158681 -0.016612275 0.11670847 -0.02978989
0.16214538 0.026406351 0.096207246 0.026501225 0.11290402 -0.06971831 0.08770029 0.107993804
0.005913634 -0.08446181 0.09659796 -0.00028243486 0.07310823 -0.0621431 -0.028276809 0.041757848
0.06959361 0.0035823341 -0.08742369 0.05533629 -0.10049755 0.08658407 0.060447067 0.056406483
0.02196951 0.21625437 0.04396237 0.04747193 0.07646209 -0.11870307 -0.07338514 0.117281236
-0.049557943 0.12095582 -0.03647014 0.041976795 0.011150262 -0.009114755 0.0060405983 -0.028668314
0.06380948 0.09919024 -0.040309753 -0.10575763 0.14567721 -0.1132882 0.13932714 0.1552812
0.13905482 -0.0035621072 -0.027557453 -0.0005096494 0.029539777 -0.045323756 -0.04270591 0.0027538214
-0.17904612 -0.13260542 -0.02740258 -0.08209242 -0.15650177 -0.12317238 -0.16453953 0.091676965
0.098190956 0.03898252 -0.025448328 -0.08347274 0.005032817 -0.24036486 0.09959769 -0.0045607244
-0.122079566 -0.11362138 -0.06155312 0.021396216 0.061738778 0.02415973 0.022190856 -0.03759748
-0.06573543 0.031091005 0.009055931 -0.08851496 -0.042617634 0.09306515 -0.15159191 -0.14129362
0.09360066 -0.08631994 -0.09611858 0.039747458 0.0454608 -0.06530004 -0.035143096 0.003767342
-0.09622034 -0.10728368 0.045806833 0.024700018 -0.01957754 -0.1357234 0.06514811 -0.020231964
0.06469165 -0.04664819 -0.10608834 -0.10228169 -0.11112247 0.026497971 0.0148533555 -0.023993349
-0.06849502 0.051406816 0.043461796 -0.15975593 0.01674972 -0.07016979 -0.06612614 -0.0031862047
00000000: 2dd8 0c3c 3260 b0bb acc6 3dbd fa2b e93c
00000010: a5f7 563d cc40 13bc 2315 c7bd f593 fa3c
00000020: 91a3 0e3e 652d 58bd fa9b 17be 7d23 8ebd
00000030: e899 83bd bbf8 a8bc de45 59bc 5f71 1d3d
00000040: 73d8 a6bd 6d16 3dbe 374a aa3d ad4f ef3d
00000050: 6436 9c3d 1b82 37bd ff03 2cbd fbf8 cb3c
00000060: 2ba3 8dbd 1d10 1ebe 3b58 3dbd e15d 013d
00000070: e9ac 923d 980c 08be d82b b8bd dd37 073c
00000080: 2b67 49bd f7cb 9cbd b992 a83d 81a0 68bb
00000090: 63cb 7cbd db0c c6bc 7952 823c 6289 7abd
000000a0: 676c c7bc 23f1 4bbd 32c7 ddbd 98c5 c13d
000000b0: 48a8 7e3c 1dac b13d e154 a2bd c719 413d
000000c0: 32f8 753d b688 c1bd 0ecd 92bd 48fc 45bd
000000d0: 4233 e13d ed04 913d 27b5 53bd 78fd 483c
000000e0: 1a56 143d 12e3 333c 8ea2 d83d 3513 343e
000000f0: b71f 043d d90b 62be 2b54 e23c 9713 9d3c
00000100: 17de 6c3d 194c 95bd 8663 223d 2e7a 483d
00000110: c854 a9bd 3465 4b3d 704f 6fbc 20a7 6fbd
00000120: 00a1 1ebd d810 983d c1f2 b8bc f6c2 e63d
00000130: 6fff 173d f628 7f3d f7a2 f0bd 9b53 253d
00000140: effa bdbc af1c da3d ac89 b43d be4f af3d
00000150: cbdd 863d da53 8c3c 2c06 783a add1 63bd
00000160: 67fc 28bd 470d ea3c a235 bdbd 668e 07be
00000170: b46d a8bd 3f6f dc3c fd57 07be 5b59 f33b
00000180: 4961 b63d 641c 1a3e e4b2 ccbd 899d 6d3d
00000190: b3b4 6e3d e655 1f3e 59dd e3bd 41c5 4c3d
000001a0: 5e93 9f3d 2a71 ec3b a3c1 8d3d 4470 f43d
000001b0: 4ad1 953a 5de7 c43d 39e3 913d 227f e5bd
000001c0: 2b04 63bc 4947 183e 46ce b6bc e226 c03d
000001d0: 89bf 95bc 6946 e73c 9aea 8d3d 425e 57bb
000001e0: e1be 2c3c bfee cf3d 2e01 94bd 35cd b03d
000001f0: a84c 49bd 5a69 013e ad2c 5abd 4a21 b13d
00000200: 7b33 203d cb14 fdbd 97f9 133e a0e6 94bd
00000210: 5e93 ea3b 7716 88bc da04 ef3d ed09 f4bc
00000220: 7009 263e 2252 d83c 4e08 c53d 1919 d93c
00000230: 393a e73d 79c8 8ebd 369c b33d db2b dd3d
00000240: 28c7 c13b 50fa acbd 27d5 c53d c413 94b9
00000250: c5b9 953d c389 7ebd c4a4 e7bc 470a 2b3d
00000260: 1887 8e3d 98c5 6a3b 310b b3bd 4ea8 623d
00000270: a9d1 cdbd fd52 b13d 5897 773d 7c0a 673d
00000280: 67f9 b33c c971 5d3e e311 343d ed71 423d
00000290: 2898 9c3d 981a f3bd f34a 96bd 2531 f03d
000002a0: 45fd 4abd afb7 f73d b761 15bd dcef 2b3d
000002b0: 97af 363c 0e56 15bc 36f0 c53b d0d9 eabc
000002c0: 8bae 823d 4124 cb3d d71b 25bd 7597 d8bd
000002d0: 682c 153e a503 e8bd c6ab 0e3e 0902 1f3e
000002e0: 6364 0e3e 3e72 69bb 2bc0 e1bc fe99 05ba
000002f0: 67fd f13c 67a5 39bd 64ec 2ebd 7579 343b
00000300: de57 37be b7c9 07be 607b e0bc 1220 a8bd
00000310: 0042 20be cd41 fcbd 0d7d 28be 22c1 bb3d
00000320: 5718 c93d 23ac 1f3d 0379 d0bc c2f3 aabd
00000330: 54ea a43b 3522 76be e0f9 cb3d 2172 95bb
00000340: da04 fabd 53b2 e8bd 201f 7cbd 1e47 af3c
00000350: cde1 7c3d a0ea c53c 99c9 b53c d1ff 19bd
00000360: 4ca0 86bd 90b2 fe3c 545f 143c 5547 b5bd
00000370: d48f 2ebd f198 be3d e93a 1bbe 46af 10be
00000380: b4b1 bf3d 82c8 b0bd d1d9 c4bd 3bce 223d
00000390: 1b35 3a3d 07bc 85bd 35f2 0fbd 83e5 763b
000003a0: 2b0f c5bd 8cb7 dbbd f29f 3b3d b157 ca3c
000003b0: 1461 a0bc 13fb 0abe 5f6c 853d 81bd a5bc
000003c0: 0e7d 843d 2c12 3fbd d844 d9bd 1079 d1bd
000003d0: 2d94 e3bd 4612 d93c 7d5b 733c b38d c4bc
000003e0: 1e47 8cbd f48f 523d ff04 323d 0f97 23be
000003f0: b536 893c 2eb5 8fbd 246d 87bd a5cf 50bb

encoder.3.0.bias f4 [64]
0.000797939 0.0015811843 -0.002036605 0.00039033176 -0.002567204 -0.001905526 3.7280258e-06 0.0014861354
-0.00051052944 -0.002880716 -0.00092733564 -0.0040342533 -0.00081632385 0.0020594373 -0.0022988655 -0.0011140058
0.0025688212 0.0014247883 0.004013496 0.0021225705 0.0002005878 -0.0020830762 -0.0011384503 0.0005116727
0.001571564 0.00023953282 0.0007512884 0.0021397984 0.0020433667 0.0026841755 0.00047957114 -0.00051822915
0.004285751 0.0006437865 -0.002766404 -0.0053493166 0.0018817533 0.0005062789 0.004177715 -0.004834217
-0.0012140782 0.000753043 0.0021531524 -0.0009872563 -0.00036499376 0.0012311642 0.0003666451 0.0021174434
0.0007559963 0.00079545367 -0.0018104792 0.0022856414 0.00011555983 0.0020889188 0.0012403661 -0.0028283095
0.001702306 0.0007230833 0.00020226254 -0.0014981632 0.0013923092 -0.0011112293 0.0026238933 -0.0023655538
00000000: c82c 513a be3f cf3a 9078 05bb 71a5 cc39
00000010: 893e 28bb d8c2 f9ba ff2e 7a36 6eca c23a
00000020: 0dd5 05ba 65ca 3cbb 7118 73ba c531 84bb
00000030: 91fe 55ba a0f7 063b 90a8 16bb d503 92ba
00000040: ab59 283b f6bf ba3a a583 833b d31a 0b3b
00000050: e154 5239 3884 08bb 0e38 95ba c621 063a
00000060: f0fc cd3a 1a2b 7b39 1cf2 443a dc3b 0c3b
00000070: 01ea 053b fee8 2f3b f36e fb39 c5d9 07ba
00000080: 7c6f 8c3b c8c3 283a 8f4c 35bb 5249 afbb
00000090: 2aa5 f63a cdb7 043a 37e5 883b 5a68 9ebb
000000a0: b421 9fba dc67 453a e71b 0d3b d366 81ba
000000b0: a25c bfb9 045f a13a 463a c039 cec4 0a3b
000000c0: 0e2e 463a fe85 503a 9a4d edba b3ca 153b
000000d0: b658 f238 3ee6 083b c893 a23a 295b 39bb
000000e0: e91f df3a 4d8d 3d3a 7016 5439 045e c4ba
000000f0: 257e b63a aba6 91ba a0f5 2b3b 6807 1bbb
