saved-model/gammatone/unetidnn/gammatone-unetidnn-pump-2.pkl (torch, 313983 bytes, 68 tensors)

encoder.0.0.weight f4 [64, 256]
000000 6f 98 f6 3c be 6c 36 3c e1 73 89 bc 3e f8 58 bc
       0.030101983 0.011134325 -0.016778888 -0.013242779
000010 8a 59 27 bd 09 87 02 bd 70 b9 e5 3b bb 6b d5 3c
       -0.040856875 -0.03186706 0.0070106313 0.026052346
000020 50 73 10 bc df f7 dc 3a e3 b2 39 ba 5f ab f6 ba
       -0.008816555 0.0016858539 -0.0007083846 -0.0018819383
000030 cc d9 95 3c 19 fc 4a 3c 8b 9e a7 bd 9f 10 a2 3d
       0.01829233 0.012389206 -0.081845365 0.079133265
000040 ad f6 08 bc 66 d9 4f 3c e8 99 f9 bc e7 b4 4a bb
       -0.008359593 0.012686109 -0.030468896 -0.003093058
000050 8b bb 6c 3c 5f b6 79 bd ae 0e da 3b b5 b5 34 3c
       0.014449011 -0.06096494 0.006654582 0.01102965
000060 20 c8 ef 3b da 29 90 bc 08 1f 57 3d 18 82 ac 3b
       0.007317558 -0.017598081 0.052519828 0.005264532
000070 da ba ef bc 94 7e ae 3c 5c c6 93 bc 46 1b 75 3c
       -0.029263902 0.021300592 -0.018038921 0.014960116
000080 b7 58 2f bd 89 5f 5b bd 9b 95 9a bb 40 5b a0 3c
       -0.042809214 -0.053557906 -0.0047175414 0.019574761
000090 0d 50 06 3e 4f 90 4b bd 8f 94 1d bc f2 a2 ab bc
       0.13116474 -0.04969817 -0.009617939 -0.020951722
0000a0 d7 9a 86 3d 53 c8 05 be ed b3 98 3c a3 5b 9a 3d
       0.06572502 -0.13064699 0.018640483 0.075370096
0000b0 a5 1f 1e bd a0 1f 61 bd 2e 02 51 bc 2d 52 02 3b
       -0.038604397 -0.0549618 -0.012756867 0.0019885406
0000c0 ff e7 0c bb 2e 93 8e 3c 26 e5 39 3b 7f d0 a5 bc
       -0.0021500585 0.017404165 0.0028365343 -0.02024102
0000d0 af 2f 15 3c 4a 16 12 bc ed 93 99 3c 6e 4a 86 bc
       0.009105607 -0.008916447 0.018747294 -0.016392913
0000e0 ab f4 74 bc f7 16 50 3c 6d 65 7c bc 3c fc c3 bc
       -0.0149509115 0.012700788 -0.015405041 -0.023923986
0000f0 6b ae 99 3c 64 05 10 bc 59 7f df bc 5a 0c ad 3c
       0.018759927 -0.008790348 -0.027282404 0.021124054
000100 90 6f ac bd 50 fd 33 bd df 8a 09 3d 78 40 6a 3d
       -0.08419716 -0.04394275 0.033579703 0.05719039
000110 0a 56 87 3d b6 84 64 bb fb 4f 17 bd a4 c0 8a 3c
       0.066082075 -0.003486914 -0.03694151 0.016937561
000120 fa 79 41 3a 5a 17 3a bd 87 9e af 3b 53 24 d6 3d
       0.00073805416 -0.045432426 0.005359474 0.10456147
000130 3a f7 d2 3d 85 e6 00 3c d5 f5 89 bd 3b 31 5f 3c
       0.10301061 0.00786746 -0.06736342 0.013622577
000140 76 c2 98 bb bd 1c b6 bc 4f d0 0c 3c 14 a8 d1 3c
       -0.0046618534 -0.0222305 0.0085945865 0.025592841
000150 8f 3c d0 bc 00 6e 30 bd 9c 3e a5 3c 71 c8 2b bd
       -0.025419502 -0.043073654 0.020171456 -0.041939203
000160 1a 32 12 bd a4 4d 04 3d 66 83 11 3d a5 3c 33 3d
       -0.03569231 0.032300606 0.035525702 0.043759007
000170 c5 7d 6c 3d f0 e0 f6 bb cc 9a 93 bd c5 29 2b bd
       0.05773713 -0.007534139 -0.072072595 -0.04178788
000180 74 dc 6b bd ca 81 d4 bd 7e 54 df 3c 7a 0c db 3d
       -0.057583287 -0.10376318 0.027261969 0.10695739
000190 38 bd 4c 3e b5 96 36 3e f1 9f 31 3d c4 8a a2 3c
       0.19994056 0.17830928 0.043365423 0.01984156
0001a0 7d ff ea 3c bc 32 33 be d4 34 8b bd 05 2a e4 bd
       0.02868628 -0.17499822 -0.067971855 -0.11140827
0001b0 a5 6d 15 bd ac 04 ad 3b 60 c3 59 3d 4e 0c ae 3d
       -0.03648152 0.005280098 0.05316484 0.08498441
0001c0 4a bc b4 3c ba 8d cb bd 09 ab ce bd eb 68 61 bd
       0.02206244 -0.099391416 -0.10091216 -0.0550317
0001d0 60 2f 4e 3c 14 04 8a bd 51 76 3e 3d 9a 60 af 3d
       0.012584537 -0.06739059 0.046499554 0.08563347
0001e0 92 22 bb 3b b2 05 fc bb a6 73 26 3d 3e e2 b6 3d
       0.005710908 -0.0076911086 0.040637635 0.08929871
0001f0 d1 64 b6 3d 76 3d b9 3d 2e ab a5 3d 9d 81 e2 3b
       0.08905948 0.09044926 0.080892906 0.0069124238
000200 68 b1 94 bd 91 e0 12 3b 63 a7 70 3d 41 d9 a2 3d
       -0.072604 0.0022411684 0.058753382 0.07951594
000210 61 7a 5b 3d 91 32 75 bc 8c cc aa ba 37 73 53 bc
       0.053583506 -0.014965669 -0.001303093 -0.012905887
000220 f4 c0 19 3d 1e e4 37 3b 73 ce 3d 3d c3 ff ca 3d
       0.03753753 0.0028059552 0.046339463 0.09912064
000230 d8 61 92 3d cc fb 3a bc c8 ee 38 bd fa c3 12 bc
       0.071475685 -0.011412572 -0.045149595 -0.008957857
000240 c7 3f 28 3d 8e ae d4 bc 75 a8 64 bd 1f 6b 75 3d
       0.041076448 -0.02596214 -0.055824716 0.05991661
000250 d4 f7 fd 3b 38 a4 13 3d 7f ed 9d 3a f6 1d 5b bb
       0.0077504907 0.036045283 0.0012048929 -0.0033434606
000260 90 48 34 3c 71 4b 18 bc a0 a8 b5 3d cf 02 cc 3d
       0.011003628 -0.00929533 0.08870053 0.09961473
000270 8c ae 1b 3b c4 d7 15 3d 5f ff 82 bd 23 fc c8 bd
       0.002375516 0.036582723 -0.063963644 -0.09813716
000280 02 8d d9 3b a1 4c 9d bd 2a 3b 8f bc 09 1f f6 3d
       0.006639124 -0.076806314 -0.017484266 0.12017638
000290 35 5a 22 3e 3e ec 1c 3e 4d 80 e6 3d e1 14 cb 3c
       0.15854724 0.15324494 0.1125494 0.02479023
0002a0 2e a9 55 3d 43 b2 12 be 44 16 bd bd 0a fb 29 be
       0.052163295 -0.14325814 -0.092327625 -0.1659967
0002b0 9c 4a b7 bd 02 74 70 bd 5e da 29 3d aa 17 85 bd
       -0.089497775 -0.058704384 0.041468017 -0.06498654
0002c0 a7 5d 21 ba ae ea eb bd 5c cb 55 be e6 36 5a bd
       -0.0006155618 -0.11519371 -0.20878357 -0.05327501
0002d0 ff 47 15 3d 71 fb 55 bd 67 72 3f bc 5a 45 83 3c
       0.036445614 -0.052241746 -0.0116849905 0.01602428
0002e0 3e 26 9d 3b 03 93 d5 3b 98 86 43 3d 36 0f ba 3d
       0.0047958186 0.0065177693 0.04773578 0.090849325
0002f0 d4 f7 c8 3d 73 45 b5 3d 76 93 9e 3d 39 18 37 3d
       0.098128945 0.08851137 0.0774297 0.044700835
000300 2a c6 3c 3c 45 94 2f bb eb 5c e9 3a 09 d7 b1 bd
       0.011521855 -0.0026791256 0.0017804181 -0.08683593
000310 cc d3 d9 3d 79 ee cf bc fb ad 4a bc 37 46 de bc
       0.106361 -0.025382267 -0.012370582 -0.02713309
000320 b6 ba cc 3b 71 90 96 bc 2a c5 6a bb ac ab 9f 3c
       0.0062478436 -0.018379422 -0.0035823085 0.01949104
000330 7e 7d 25 3c a2 f6 96 3b e9 80 4e 3c fb 0c 8d bc
       0.01010072 0.0046070376 0.012603977 -0.017218104
000340 7f cf 88 3c 06 72 65 3c 48 56 4f bd 48 cc 23 bd
       0.016700504 0.014004236 -0.050619394 -0.03998974
000350 de f5 1d bc 05 30 24 3d ff 02 b1 bd 16 07 d1 3c
       -0.009641139 0.040084857 -0.086431496 0.025516074
000360 ca 90 3b bd 28 8d 82 3b da fb ad 3d df 3c 2a 3d
       -0.04579238 0.0039841123 0.084953025 0.041561957
000370 94 01 30 3d 37 b9 0f bd cc 22 96 bc bd e5 95 3b
       0.042970255 -0.035088744 -0.01832714 0.004574506
000380 dc 74 5d 3c 1f 43 0a bd e0 1b e1 bc 35 24 5b 3d
       0.013516631 -0.033755418 -0.027479112 0.053501327
000390 fa 9a a6 3d e4 51 56 3d be a8 36 bd ee 90 04 3d
       0.08135028 0.05232419 -0.04459452 0.03236478
0003a0 a9 4c 9b 3d fa d7 06 bd 87 12 4d 3d 93 1c 1e bb
       0.07582981 -0.032920815 0.050066497 -0.0024125918
0003b0 38 61 df bb d8 f8 d7 3c 20 bb 0f bd 7d 54 0c 3d
       -0.0068170093 0.026363775 -0.035090566 0.03426026
0003c0 cf 73 0a bc a7 3f 1a 3d 64 2c 85 ba 70 fd bd bc
       -0.0084504625 0.03765836 -0.0010160324 -0.023192137
0003d0 21 ab a3 3c 68 04 fe bc 77 d1 70 3d e4 79 20 bd
       0.019979062 -0.03100796 0.05879351 -0.039178744
0003e0 bd b8 19 bd cc 92 b4 3c f2 12 14 bc 92 66 3b 3d
       -0.037529696 0.022042654 -0.00903772 0.045752116
0003f0 aa ee d7 bc 25 f7 3a bc 06 e3 16 3d fe 43 6d bd
       -0.026358921 -0.011411463 0.0368376 -0.05792617

encoder.0.0.bias f4 [64]
000000 ff 23 92 b6 58 75 12 39 6c ec 13 b9 f8 bd 33 39
       -4.3553296e-06 0.00013967359 -0.00014107086 0.00017141539
000010 4b c1 1f b9 77 91 ad 36 f2 b1 04 b9 22 f8 a3 39
       -0.00015235429 5.172736e-06 -0.00012654791 0.00031274656
000020 ab 97 65 39 f2 89 23 b9 d4 5e 56 b9 74 54 43 b9
       0.00021895643 -0.0001559628 -0.00020443957 -0.0001862811
000030 1d 54 84 38 9b 20 97 b9 65 4a 33 38 cb 9b 79 38
       6.309918e-05 -0.00028825257 4.274621e-05 5.951132e-05
000040 73 3b e3 38 b3 7e fc b8 ed ac 27 39 d5 ae 98 b9
       0.00010835277 -0.00012039896 0.00015990781 -0.0002912196
000050 0e 7a 00 39 0b 44 9c 38 f8 f3 38 b8 31 1e 1a 39
       0.000122525 7.451334e-05 -4.4096232e-05 0.00014697832
000060 8e fc e9 b9 b6 2c 5c b9 55 db 0b 39 c8 83 c5 b8
       -0.0004462939 -0.00020997491 0.0001333778 -9.418238e-05
000070 7d 10 1d 38 d9 e2 80 b8 3f e6 f4 b8 8f 3c 4b 38
       3.7447073e-05 -6.145769e-05 -0.00011677713 4.845537e-05
000080 90 6c 38 b9 23 ae ef 38 88 03 28 37 8b 5b a3 b9
       -0.0001758805 0.000114288436 1.00144025e-05 -0.00031157988
000090 ea a9 14 39 e7 f9 a7 39 32 94 3f b9 ac ae 64 39
       0.00014177678 0.00032038914 -0.00018270386 0.00021808845
0000a0 ff bc b2 b7 07 7e 8e 39 b7 54 c5 b9 c8 8c 8a b8
       -2.1307262e-05 0.00027178248 -0.00037637886 -6.606575e-05
0000b0 78 b0 c6 b9 dc 03 13 b9 7e 83 c4 37 f1 a7 6a 39
       -0.00037896982 -0.0001402045 2.3426252e-05 0.00022378542
0000c0 9a 52 33 b9 df 21 38 38 74 fd c2 39 c3 de 26 b9
       -0.00017101542 4.3900563e-05 0.000371914 -0.00015913979
0000d0 fb 1b 65 b8 1f 3f 01 b9 3b c7 39 b9 d7 95 d2 39
       -5.4623913e-05 -0.00012325913 -0.00017717194 0.0004016596
0000e0 f2 fa de 37 17 44 0c b7 7a f2 76 b7 fc db af b5
       2.6581318e-05 -8.360504e-06 -1.4719199e-05 -1.310254e-06
0000f0 f1 64 c0 38 c9 42 69 b8 4b 6b f2 37 77 97 1e 39
       9.174075e-05 -5.5613727e-05 2.889861e-05 0.00015124479

encoder.0.1.weight f4 [64]
000000 3a 9b 08 40 3b 07 05 40 55 6a 0f 40 37 93 0c 40
       2.1344743 2.0785663 2.240865 2.1964853
000010 9f 65 fc 3f ba 86 ff 3f 3a 50 0b 40 17 d1 0b 40
       1.9718512 1.996299 2.1767716 2.1846368
000020 a9 68 fb 3f 87 57 05 40 aa 14 13 40 31 8c 03 40
       1.9641315 2.0834672 2.2981362 2.0554316
000030 fe 0d 03 40 1b 82 12 40 bf 21 0a 40 f4 bd 00 40
       2.047729 2.289191 2.1583097 2.0115938
000040 27 61 07 40 33 e2 0b 40 87 09 0b 40 15 69 fe 3f
       2.1153047 2.185681 2.1724565 1.9875818
000050 d8 12 07 40 a8 b2 09 40 8e 33 0f 40 4c 83 03 40
       2.1105251 2.1515293 2.2375216 2.0548887
000060 01 37 11 40 1e b1 0b 40 62 ad 03 40 bc 04 0a 40
       2.2689822 2.1826854 2.0574574 2.156539
000070 d1 0b 11 40 10 92 0f 40 c5 8e 01 40 b7 3c 0e 40
       2.2663462 2.24329 2.024339 2.2224557
000080 d1 6b 0c 40 f1 12 0c 40 1e 57 0c 40 83 57 0c 40
       2.1940806 2.188656 2.1928172 2.1928413
000090 4c fe 0c 40 9e c4 04 40 7a 5e 03 40 70 f6 0b 40
       2.203021 2.0745006 2.0526414 2.1869164
0000a0 ab 4d 11 40 88 11 05 40 e9 ee 0a 40 9f 66 0c 40
       2.2703655 2.079195 2.170832 2.1937635
0000b0 5c 9c 0b 40 8d 7c 03 40 b6 f9 f7 3f 87 87 09 40
       2.1814184 2.054477 1.9373081 2.148897
0000c0 63 a3 03 40 c0 16 10 40 5e c4 05 40 cf 79 0f 40
       2.0568473 2.2513885 2.0901103 2.2418096
0000d0 76 78 11 40 bd c7 0e 40 a9 bf 00 40 5f 6c 03 40
       2.2729774 2.230941 2.011698 2.0534894
0000e0 c2 5b 0f 40 d8 cf 0d 40 ed bf 0a 40 15 50 04 40
       2.2399755 2.2158108 2.1679642 2.0673878
0000f0 00 5c 06 40 92 f1 07 40 6a 55 05 40 09 23 12 40
       2.0993652 2.1241193 2.0833383 2.2833884

encoder.0.1.bias f4 [64]
000000 7a 4b 84 3f 85 ac 86 3f e1 f2 8d 3f af a8 89 3f
       1.0335534 1.0521399 1.1089746 1.0754603
000010 bd 44 82 3f 32 ba 80 3f 6f a0 8b 3f 64 78 83 3f
       1.0177227 1.0056822 1.0908335 1.0271115
000020 12 22 80 3f bb e0 83 3f 06 e8 95 3f 18 ff 88 3f
       1.0010397 1.0302957 1.1711433 1.0702848
000030 25 6f 86 3f 14 4d 91 3f 4e 2a 87 3f 3d db 84 3f
       1.0502669 1.1351647 1.0559785 1.0379406
000040 e2 9b 89 3f 3f f2 8e 3f 90 f6 8a 3f 9a eb 80 3f
       1.0750697 1.1167678 1.0856495 1.00719
000050 5e fe 89 3f fa 6a 89 3f fb 51 87 3f f2 b1 80 3f
       1.0780752 1.0735772 1.0571893 1.0054305
000060 ae 86 8e 3f 7e 5f 8f 3f dd 61 83 3f 16 04 87 3f
       1.1134851 1.1201017 1.026424 1.0548122
000070 e1 d9 8d 3f 07 ac 90 3f ba 09 86 3f 8e 2d 89 3f
       1.1082116 1.1302499 1.0471718 1.0717027
000080 64 ab 87 3f 31 c4 90 3f 88 d5 8b 3f 4c 65 8b 3f
       1.0599179 1.1309873 1.092454 1.0890288
000090 6e 6c 8e 3f 5f e3 89 3f 05 a4 81 3f b2 9e 91 3f
       1.112684 1.0772513 1.012818 1.1376555
0000a0 a7 86 91 3f 53 4d 83 3f 4b ca 8d 3f 91 0e 8f 3f
       1.1369218 1.0257972 1.107736 1.117632
0000b0 5b 40 8d 3f 2a ed 88 3f 69 c2 7c 3f 3d f2 8a 3f
       1.1035265 1.0697377 0.98734146 1.0855175
0000c0 5f c8 84 3f 20 4d 93 3f 97 f9 8b 3f f5 4c 91 3f
       1.0373648 1.1507912 1.0935544 1.135161
0000d0 69 e2 91 3f 4e ee 8d 3f 2e f6 83 3f 5c 8c 85 3f
       1.139722 1.108835 1.0309503 1.0433459
0000e0 46 c8 91 3f fc 90 8d 3f 6b b6 89 3f cf 6c 82 3f
       1.1389244 1.1059871 1.0758795 1.0189456
0000f0 bd 7e 88 3f f6 1e 8d 3f ad f6 8a 3f f0 84 93 3f
       1.0663677 1.1025074 1.085653 1.1524944

encoder.0.1.running_mean f4 [64]
000000 9c ce 2a 42 2c 11 71 42 37 d4 46 c1 ae 19 d0 c1
       42.701767 60.26677 -12.42681 -26.012539
000010 97 9e 32 c3 5c 2b 5e c3 10 6e 05 42 55 9f bc 42
       -178.61949 -222.16937 33.357483 94.311195
000020 2b 27 73 c3 32 21 7d 42 2a a6 a6 c1 b0 24 cc 41
       -243.153 63.282417 -20.831135 25.517914
000030 e8 69 68 42 5e c7 3d 41 14 a9 a5 41 dc aa c1 41
       58.103424 11.861174 20.707558 24.208427
000040 cc 6a 2e 41 dd 20 27 c1 3d aa eb 42 ea 7a 01 c3
       10.901073 -10.445523 117.8325 -129.48013
000050 bb 2f 59 42 69 9c 1a c2 21 cf 76 40 2e 45 af 41
       54.29661 -38.652744 3.8563921 21.90878
000060 29 ad a8 c0 d6 42 5b c0 be 12 84 42 0a 8f 20 c2
       -5.2711377 -3.4259543 66.036606 -40.139687
000070 06 ca 24 42 92 ff a9 3f 80 09 64 c0 f7 72 3e 42
       41.19729 1.3281119 -3.5630798 47.61227
000080 dc 5b be c2 e2 88 6b 42 c7 2b f2 c1 c6 69 2f 42
       -95.17941 58.883675 -30.271376 43.853294
000090 ef c4 cb c2 dd b2 09 c3 fa 4c bb c2 0b f4 fd 42
       -101.884636 -137.69868 -93.650345 126.97665
0000a0 2c 36 81 41 89 d7 6f 42 ce 1e e6 40 5e 54 ec 41
       16.151451 59.960484 7.1912603 29.541195
0000b0 fb 57 4b c2 8f 41 60 c2 7c 04 cf c2 d7 2d c1 c1
       -50.83592 -56.064022 -103.50876 -24.147383
0000c0 e4 69 b0 c0 98 96 56 bf b4 29 6b 42 8b f4 da 41
       -5.512926 -0.8382354 58.790726 27.369406
0000d0 3d f3 76 41 ca 05 1a c1 ad cf 47 42 8a cc f4 42
       15.434384 -9.626413 49.95281 122.39949
0000e0 0f 17 60 42 db b0 1d bf 6d 37 15 42 9a 6f 21 42
       56.02252 -0.61597985 37.304127 40.358986
0000f0 66 12 17 42 16 02 9a 41 00 0e 83 42 97 42 6d 42
       37.767967 19.251019 65.52734 59.31503

encoder.0.1.running_var f4 [64]
000000 c0 88 39 45 84 d5 a3 44 59 f3 c8 44 fa ec 20 45
       2968.5469 1310.6724 1607.6046 2574.811
000010 b6 9b 5e 45 b9 86 b2 45 f0 6d fe 44 90 58 3c 45
       3561.732 5712.8403 2035.4355 3013.5352
000020 3e bd b0 45 db 78 f4 44 77 1d b2 44 d1 3b 96 44
       5655.6553 1955.7767 1424.9208 1201.8693
000030 b0 b3 20 45 c7 76 91 44 36 83 0d 45 43 9e 9e 44
       2571.2305 1163.7118 2264.2007 1268.9457
000040 1d f7 99 44 3d 96 1a 45 cf 0a 40 45 8e 5e 82 45
       1231.7223 2473.39 3072.6755 4171.8193
000050 c0 60 ca 44 2e ad de 44 9d 3f 25 45 58 09 ff 44
       1619.0234 1781.4119 2643.9758 2040.292
000060 33 01 15 44 a1 66 90 44 77 10 f6 44 2e 07 03 45
       596.01874 1155.2072 1968.5145 2096.4487
000070 cc 04 9d 44 7d 8d ac 44 9b 03 1f 45 81 6d a0 44
       1256.1499 1380.4215 2544.2253 1283.422
000080 50 50 98 45 32 82 09 45 62 85 35 45 48 77 92 44
       4874.039 2200.1372 2904.3364 1171.7275
000090 f4 e1 0c 45 54 f9 1e 45 a6 89 10 45 43 63 3e 45
       2254.122 2543.583 2312.603 3046.2039
0000a0 0e 3a ca 44 60 0f f7 44 e3 ad 94 44 48 74 fd 44
       1617.8142 1976.4805 1189.434 2027.6338
0000b0 b1 7b a2 44 97 04 39 45 97 92 71 45 49 56 f5 44
       1299.8654 2960.2869 3865.1619 1962.6964
0000c0 b7 35 59 44 66 46 a3 44 bf 83 1f 45 8e 22 c0 44
       868.8393 1306.2 2552.2341 1537.0798
0000d0 81 a7 d9 44 ae e4 05 45 fd 1c fb 44 ac c4 3f 45
       1741.2345 2142.2925 2008.9059 3068.292
0000e0 00 43 da 44 a0 f1 94 44 40 23 06 45 64 25 1b 45
       1746.0938 1191.5508 2146.2031 2482.337
0000f0 13 4e a1 44 56 59 a4 44 19 4b db 44 8c 64 05 45
       1290.4398 1314.7917 1754.3468 2134.2842

encoder.1.0.weight f4 [64, 64]
000000 e1 ce dc 3d 8a 17 ac 3d dc 2e da 3d 39 4a 32 3d
       0.107816465 0.08402927 0.10653469 0.043527815
000010 65 77 35 3e d5 ed b3 3d 0c c8 3c 3e 41 b0 96 3c
       0.17721327 0.08785597 0.18435687 0.018394591
000020 b0 bf 19 3d ed cf 42 bd 33 ca f7 3c ad 26 dc 3d
       0.037536323 -0.047561575 0.030247783 0.10749564
000030 eb bb e7 bc 9c 72 ae bd 86 0d 02 bd 20 27 f8 bd
       -0.028287848 -0.08517954 -0.03175118 -0.121168375
000040 dc b1 6c 3b ee 41 05 3e 1b e7 0a 3d c5 7c 71 bd
       0.0036116755 0.13013431 0.033911806 -0.05895688
000050 9e 67 86 3d 40 dc 85 bd 3c f3 a5 3c 44 7b 19 be
       0.06562732 -0.0653615 0.020257585 -0.14988428
000060 78 d2 f2 bd 40 70 c4 ba d9 3c 44 bd d6 15 70 bd
       -0.1185655 -0.0014987066 -0.04790959 -0.058614574
000070 a5 9c 70 bd cc 6f 89 3d dd dc 59 bd ac 9e 04 be
       -0.058743138 0.06710777 -0.053189147 -0.12951154
000080 6f f7 63 bd 01 f6 17 3e b5 54 30 3e b4 4c 8f bc
       -0.055655893 0.14839937 0.17219813 -0.01749263
000090 d6 f3 8c bd 25 77 05 3e b3 28 8e 3d a4 51 60 3d
       -0.068824455 0.13033731 0.069413565 0.05476536
0000a0 9e 57 05 be 9e fa 53 3d 44 55 de bd 3d 16 0e 3d
       -0.13021705 0.05175268 -0.10856107 0.034689177
0000b0 61 6f 49 bd 41 74 27 3d 3a ee d1 bc 32 aa f1 3d
       -0.049178485 0.040882353 -0.02562629 0.1180004
0000c0 4b 09 9b bd 37 53 e6 3b 7a 23 89 bd ca 9b d7 3d
       -0.07570132 0.007028963 -0.0669622 0.10527761
0000d0 6e 34 c1 bc 92 38 bc bd 7c 92 cb 3d 50 e1 bd bc
       -0.02358457 -0.091904774 0.09940049 -0.023178726
0000e0 db 89 b2 3d a5 36 f7 3d 10 47 05 be 2c 10 02 be
       0.087177 0.120709695 -0.1301539 -0.12701482
0000f0 30 b3 00 be 82 7a 3c bb 89 7b bc bc 6f ab 5b bd
       -0.12568355 -0.0028759544 -0.023008125 -0.05363029
000100 61 1f 8b 3d 60 20 8d b9 15 2a 13 3e 47 7b 21 bd
       0.067930944 -0.00026917737 0.14371522 -0.039424207
000110 d5 8e c9 bb 80 61 0d bd 52 bb 91 bd af 08 0e bd
       -0.00615106 -0.03451681 -0.07115807 -0.03467625
000120 d8 1d 1d 3b 99 b2 9d bd 64 62 51 3d 79 c1 96 bd
       0.0023974087 -0.077000804 0.051119223 -0.07361121
000130 83 b5 26 be c4 74 03 3e ae 10 c0 ba b4 1b 85 3c
       -0.16280179 0.12837511 -0.0014653408 0.016248561
000140 55 6b c3 3c 02 63 b8 bd c6 1e 08 be 23 c0 a1 3c
       0.02385489 -0.09003259 -0.13292989 0.019744938
000150 40 df 5e 3d 50 0c 14 3c eb 60 ad bc 22 25 06 3e
       0.054412127 0.009036139 -0.021164378 0.13100103
000160 b2 19 a5 bd 18 2f b0 bd 8c ae cc bd 14 8b 20 bc
       -0.080615416 -0.086027324 -0.0999423 -0.009798784
000170 67 89 41 bd d7 07 e2 3b 21 f4 f7 bd ca 90 bd 3d
       -0.047250178 0.0068979072 -0.12107111 0.09256132
000180 58 6a 69 3e 81 a2 02 3e 03 4f f3 3d 03 ff cd 3d
       0.22794473 0.12757303 0.11880305 0.10058405
000190 ef 48 ca 3c 22 10 03 3e c7 2e e7 3d 4d 30 cb bd
       0.02469298 0.12799123 0.11288219 -0.09921322
0001a0 7b c6 31 bd ac 02 9f 3c 8a 99 22 3d 9b 30 97 3d
       -0.043402176 0.019410454 0.039697208 0.07382318
0001b0 b7 82 ef 3b de 96 d1 3c 05 15 66 3c 04 a5 1c 3e
       0.0073092836 0.025584634 0.014043097 0.15297323
0001c0 00 6d ab 3d 3c 2a 24 bd 56 93 b4 bd 06 50 8b 3c
       0.083703995 -0.04007934 -0.088171646 0.017005932
0001d0 8c 8a 13 3d 0b 5a f7 3c c7 fb 2b be 87 16 06 3e
       0.0360208 0.030194303 -0.16795264 0.13094531
0001e0 c5 03 2b 3e 65 d2 0e 3d 93 6f b3 bc 34 73 6c bd
       0.16700657 0.034868617 -0.021903789 -0.057727054
0001f0 24 f0 55 3e 78 ca f5 3c 5d 9e da bd 8a ea 55 3b
       0.20892388 0.030003771 -0.10674737 0.0032641017
000200 c4 05 09 bb 34 87 74 be 57 35 f8 bc 40 2d 26 bd
       -0.0020907978 -0.23879701 -0.030298872 -0.040570498
000210 67 a1 83 be e4 dc f2 bd c2 55 a8 bd 68 1f 52 3e
       -0.25709078 -0.11858538 -0.08219482 0.20519793
000220 ad 91 c7 3d 3f b2 77 bd b4 ee 90 3d 37 07 16 bd
       0.09744582 -0.060472723 0.07076779 -0.036627974
000230 49 a2 e8 3d 21 81 95 3d 02 21 66 3c 00 ef fd bd
       0.113590784 0.0730002 0.014045956 -0.12399101
000240 37 3a af bc 6b ad 11 bd 41 c3 4e 3c 24 b5 83 bd
       -0.021390064 -0.035565775 0.012619794 -0.06431034
000250 42 57 59 bd ae a8 aa 3c 6b c2 df bc 63 cc 69 bd
       -0.05306173 0.020832386 -0.027314385 -0.057079684
000260 22 c5 f9 3c bb 14 0f be 74 de f0 3c 0d e7 39 bd
       0.030489508 -0.13972752 0.029402949 -0.045386363
000270 e2 ee b4 bd 51 1a 4e bd 7e b1 dc 3d 62 23 ac 3d
       -0.08834626 -0.050318066 0.107760414 0.08405186
000280 5a 3f a1 3d 76 fd 49 bd ff f5 0d bd c0 67 ef bd
       0.078734115 -0.049313985 -0.03465843 -0.116897106
000290 41 e8 08 be 86 c5 11 bb df 68 92 3d 7f 2f f3 bd
       -0.13369848 -0.0022242977 0.07148909 -0.118742935
0002a0 de a2 68 bd af 2c be 3c 6d 81 c8 3d 53 ab 2f bd
       -0.056795947 0.023214666 0.09790311 -0.042887997
0002b0 1d 88 b8 bd 89 53 02 bd 34 0c 15 be 91 5f b6 bd
       -0.090103365 -0.031817947 -0.14555436 -0.089049466
0002c0 10 46 d0 bd 84 24 fe bc eb 0e 85 3c 2c 6c a5 bb
       -0.10169613 -0.031023271 0.016242465 -0.0050482955
0002d0 c6 4c 0d be 9a d4 01 3c e5 a3 7d be 6c 56 92 3c
       -0.13798818 0.007924223 -0.24769552 0.017863475
0002e0 68 8d 64 3c 9e d2 85 3b c3 07 c8 3d df 3b 07 bb
       0.0139497295 0.0040839454 0.097671054 -0.0020635051
0002f0 0c dc 20 be f6 9c 6f bd c7 40 a8 bc 1e 41 13 bc
       -0.15708941 -0.0584993 -0.0205387 -0.008987693
000300 b4 b9 48 3b b5 98 13 3c ed 09 1b be 25 6e c2 3a
       0.0030628266 0.009008576 -0.15140505 0.0014833851
000310 79 c0 f4 bd f8 3b 8c bd ae db af bc 5a cc bd bc
       -0.11950774 -0.06847376 -0.021467056 -0.023168731
000320 cf 57 57 ba 5b 13 0a 3d ad 3d 11 be dc a4 99 3d
       -0.00082146836 0.033709865 -0.14183684 0.075021476
000330 a0 dc 12 3d b1 ee 67 be 17 20 94 3d c7 a4 b4 bd
       0.035854936 -0.22649647 0.07232683 -0.08820491
000340 14 3c 00 bd 78 29 84 bd b6 c5 74 bd 0f ab e7 bd
       -0.031307295 -0.06453222 -0.059758864 -0.11311924
000350 af e1 22 be f6 2d 0d 3d f2 74 7c bd b6 8c d3 3c
       -0.15906404 0.03446766 -0.061634965 0.025823932
000360 7c 12 e1 bd 9a 1b 77 3c c2 26 fb 3d e7 a4 44 be
       -0.10989854 0.015082264 0.12263252 -0.1920353
000370 8c 36 e7 bd 89 d9 ae bd 1f b3 b5 3d af 61 15 be
       -0.11289701 -0.08537585 0.08872055 -0.14588045
000380 2a d5 96 bd 92 e5 89 bc 2c 81 ea bd 1e 0f 43 3c
       -0.073648766 -0.0168331 -0.11450419 0.01190546
000390 36 fc fa 3c a7 50 a1 bd 5b 4a 17 be 3d 9c 12 3e
       0.030637842 -0.07876711 -0.14774458 0.14317413
0003a0 5c e4 74 bc 3c ad 7d bd 47 27 f7 bc eb 7a c5 3d
       -0.014947023 -0.061932787 -0.030170096 0.09642585
0003b0 f0 f8 c6 39 65 48 d6 bd 0c 9b 90 3d e1 97 35 bd
       0.00037950976 -0.10463027 0.07060823 -0.044334296
0003c0 3e 89 55 bd 32 e6 da bc 4a 2f c9 bd 19 90 9c 3d
       -0.052132837 -0.026721094 -0.09823473 0.07644672
0003d0 db bd 9c bd 38 6f 60 bd 9b c2 8b 3d 91 72 41 3d
       -0.076533996 -0.054793566 0.068242274 0.0472284
0003e0 2f 83 aa ba 81 de 36 bd 6b 63 27 be c4 a5 84 bd
       -0.0013009066 -0.04464579 -0.16346519 -0.0647693
0003f0 54 51 6e bd 8f 7e bc bd 69 ff 05 3d 13 5b 1f bd
       -0.05818303 -0.09203827 0.03271428 -0.038905215

encoder.1.0.bias f4 [64]
000000 f5 ba f0 ba fa 5d 1c 3a ab d3 e7 b9 93 92 37 b7
       -0.0018366264 0.00059649313 -0.00044217458 -1.0941777e-05
000010 9e af 29 3b b6 11 f9 3a 45 4b 41 b9 dd 25 02 bb
       0.002589203 0.0019002471 -0.00018433954 -0.0019858994
000020 d3 c9 2a bb e7 9f 6b ba fe 67 12 3a 34 9e 60 ba
       -0.0026060238 -0.0008988366 0.0005584954 -0.0008568496
000030 05 5a 5f 3b 72 b3 df 3a 24 aa fb 39 fb 55 02 3a
       0.0034080755 0.0017067029 0.00048001215 0.00049719185
000040 3b eb 12 b8 b1 93 e1 38 d2 7e e3 38 f7 70 ab 36
       -3.5028188e-05 0.00010756346 0.000108478256 5.109348e-06
000050 74 cb 67 b9 80 c0 ba ba 37 6f 95 39 1b b5 bd 3a
       -0.00022105669 -0.0014248043 0.00028502356 0.0014473529
000060 99 55 45 39 67 de 7f 39 02 a7 42 3a 13 83 f4 b7
       0.00018819272 0.00024401546 0.0007425399 -2.9148103e-05
000070 a9 ee 30 ba 36 8c 01 b9 ba 51 6f 3a 41 ef 51 3a
       -0.00067494303 -0.00012354631 0.00091293047 0.0008008369
000080 a0 65 df 39 25 dc 1c 3b 0c e2 89 ba aa 07 2f b9
       0.0004260959 0.0023934927 -0.0010519638 -0.00016692156
000090 ee 65 01 3a 7d 68 d8 b9 ce a2 c7 39 97 73 92 3a
       0.0004936148 -0.0004127658 0.00038077537 0.0011173364
0000a0 dd e7 3d 3b f8 4c 8e 36 96 08 b5 39 40 0d c0 3a
       0.0028977313 4.24089e-06 0.00034529407 0.0014652386
0000b0 93 4e 18 3a 8a 3f 37 3a e3 0a 7f 39 10 cc c6 b9
       0.00058100483 0.0006990364 0.0002432275 -0.0003791754
0000c0 d2 b5 09 bb ef 59 e9 39 75 82 40 b9 fd 52 fd b9
       -0.0021012914 0.0004450823 -0.00018359146 -0.00048317751
0000d0 21 1e 2f 3a 5c 03 60 3a 17 76 35 3a ef 79 e5 38
       0.000668021 0.00085454225 0.0006922199 0.00010942283
0000e0 0b e8 1e 39 4a 2b a9 39 78 10 c4 3a ee 3a 0e 38
       0.00015154497 0.00032266445 0.0014958521 3.391032e-05
0000f0 3a ca 8f ba 98 3b 8b 3a 91 6f 45 bb 7e 45 11 b9
       -0.0010970302 0.0010622619 -0.0030126313 -0.00013854165

encoder.1.1.weight f4 [64]
000000 34 ee 7d 3f f5 3d 71 3f 14 52 77 3f a7 a3 80 3f
       0.99191594 0.94235164 0.96609616 1.0049943
000010 9a 50 86 3f 26 cb 88 3f 26 3e 70 3f 21 29 73 3f
       1.0493348 1.0686996 0.9384483 0.9498463
000020 9e 2f 7b 3f 85 a1 83 3f 43 fe 7f 3f 3f 41 7a 3f
       0.98119533 1.0283667 0.9999735 0.9775581
000030 3f 1c 86 3f 86 df 76 3f 3e 4e 8e 3f 88 78 81 3f
       1.047737 0.9643482 1.1117628 1.0114908
000040 23 ee 7d 3f 89 cf 74 3f f0 a7 80 3f 4b 1f 7b 3f
       0.9919149 0.95629174 1.005125 0.98094624
000050 a6 54 7b 3f 58 5c 85 3f 26 ab 70 3f a6 f4 78 3f
       0.9817604 1.0418806 0.9401115 0.97248304
000060 d6 d0 7c 3f 62 14 7c 3f b2 b5 85 3f 1a 2c 85 3f
       0.9875616 0.984686 1.0446074 1.0404084
000070 b1 24 7a 3f e9 7b 79 3f c6 bc 87 3f 06 9d 7c 3f
       0.97712237 0.97454697 1.0604484 0.986771
000080 0b a5 85 3f 4a f8 73 3f 7a f4 78 3f e2 9e 84 3f
       1.0440992 0.95300734 0.9724804 1.0360987
000090 a1 a1 76 3f e9 af 7c 3f b8 d8 76 3f 73 05 75 3f
       0.96340376 0.9870592 0.96424437 0.9571144
0000a0 5f db 8c 3f 57 4e 7c 3f d6 dc 7e 3f da b3 7c 3f
       1.1004447 0.9855704 0.9955572 0.9871193
0000b0 f0 6a 80 3f 98 08 7c 3f c8 3d 8b 3f 85 f4 77 3f
       1.0032635 0.98450613 1.0878229 0.9685748
0000c0 09 37 88 3f fc 73 80 3f 14 28 87 3f ff 92 75 3f
       1.0641795 1.0035396 1.0559106 0.95927423
0000d0 e1 0c 83 3f 50 ff 82 3f 32 3a 88 3f 2b a4 7d 3f
       1.0238305 1.0234165 1.064276 0.99078625
0000e0 84 6d 83 3f b4 d7 75 3f e4 54 7b 3f 08 56 89 3f
       1.0267797 0.9603226 0.9817641 1.072938
0000f0 0a 1d 6f 3f 24 ea 86 3f 50 01 81 3f 0d bf 7d 3f
       0.93403685 1.0540204 1.0078526 0.99119645

encoder.1.1.bias f4 [64]
000000 5f a3 b8 3d 88 fd 67 3d 00 f6 eb bd 45 c4 51 3e
       0.090155356 0.05663827 -0.1152153 0.20485027
000010 60 15 2c 3e 97 bd a4 3d 79 72 2e 3d 3f d7 91 bd
       0.16805029 0.08043974 0.04258964 -0.07121133
000020 76 b0 05 bd f5 1b 29 3e 00 8c 14 3d 99 b1 ba 3d
       -0.03263899 0.16514571 0.036266327 0.09115905
000030 81 4e 7c 3e 69 d4 1c 3d 00 01 cf 3c 5d de 29 bd
       0.24639322 0.038288508 0.025269032 -0.041471828
000040 16 a1 51 3d 06 26 13 3e 93 ff 2c 3c 35 90 1c 3c
       0.051179014 0.14369974 0.0105589805 0.009555866
000050 4e 0c ad bd b5 24 00 3e 56 12 40 be 5b ad 2b bd
       -0.084496126 0.12514003 -0.18756995 -0.04191337
000060 2b 7d 6d 3e 76 f8 82 bc 75 b4 b8 3d 91 04 cb 3b
       0.23192279 -0.015987616 0.090187944 0.0061956127
000070 6a f7 16 bd ec 69 69 3b 5c ef 03 3e cb 11 ea bd
       -0.036857046 0.0035616113 0.12884277 -0.11429175
000080 9e 1d b9 3c 98 a4 52 3d 06 a6 c3 3d 68 e4 93 3a
       0.02259713 0.0514265 0.09553151 0.001128328
000090 68 14 0c 3e 4b b7 b8 bc e0 da a1 bb 9a 96 b9 3d
       0.1367966 -0.022548338 -0.004939422 0.09061928
0000a0 24 2f 5d 3e d0 d2 3d 3d 0d 19 23 3d 4d 01 9c bd
       0.21600014 0.046343625 0.039818812 -0.076174356
0000b0 84 fd 8d 3c 9d cb 02 3e 90 8b ce bd 9e e0 d9 3c
       0.0173328 0.12772985 -0.10085213 0.026596364
0000c0 04 f6 b2 3e 23 4d 54 3d ff a5 b9 3d f7 0b d8 3d
       0.3495332 0.051831376 0.09064864 0.10549157
0000d0 a7 3f 64 3e d5 86 bf 3d eb 07 8a 3d 59 d2 13 3c
       0.22289906 0.09351889 0.067397915 0.009022319
0000e0 1a 9e de 3a 5c 10 91 3d 8c e0 4f 3d c4 e3 b3 3d
       0.0016984374 0.070831984 0.050751254 0.08783677
0000f0 bc ca 10 3e c6 df 2b 3e 25 cd 69 3d 7a 88 24 3e
       0.14139837 0.16784582 0.057080407 0.16067687

encoder.1.1.running_mean f4 [64]
000000 d5 5d f2 3e 43 b4 a1 3f d5 cb 36 c0 04 2b 5b c0
       0.47337213 1.2633137 -2.856191 -3.4245005
000010 fe 3e 38 c0 ed 33 80 3e 42 b3 29 c0 e3 19 db bf
       -2.8788447 0.25039616 -2.651566 -1.7117275
000020 58 9a ea bf 2e f7 9f be 5e e2 c3 bf 3f 3f 94 40
       -1.8328352 -0.3124327 -1.5303457 4.6327205
000030 0e 5c 3c c0 83 51 3e 40 88 d7 73 bf 26 c1 fc 3d
       -2.9431186 2.973725 -0.9525075 0.12341528
000040 b3 2b 4f c0 b3 b1 bf 3f 6c 4b 16 bf ab 87 60 bf
       -3.2370422 1.4976104 -0.58708835 -0.8770701
000050 57 b6 58 bf 7b 51 94 c0 ff ce 59 3e f4 ad 55 bf
       -0.8465323 -4.6349463 0.21270369 -0.83468556
000060 cc a1 b1 c0 ad 01 14 3e 67 75 6d c0 8b 8a e4 3f
       -5.5510006 0.14453764 -3.7102907 1.785478
000070 d8 96 c9 3f a1 7c 0b bf 1a cd f4 bf 22 75 8b be
       1.5749159 -0.54487044 -1.9125092 -0.27237803
000080 f1 b2 18 3f e5 f5 92 40 54 aa 4a c0 12 94 f7 bf
       0.5964804 4.5925164 -3.166646 -1.9342062
000090 1c 82 7a c0 8d 44 f4 be 3e 47 c9 be d1 4c c3 bf
       -3.9141912 -0.4770855 -0.39312166 -1.5257818
0000a0 0c 7a b7 bf d5 86 4d bf a7 ca 1d bf 19 bf 4a 3f
       -1.4334121 -0.8028386 -0.6163735 0.7919784
0000b0 dc 00 4f 3f f2 26 80 40 84 6c c0 3f 8d 9c 5f bf
       0.80860686 4.004754 1.5033116 -0.8734825
0000c0 ea 04 15 c0 9c fc 92 bf cd c8 ae bf 19 f6 f0 3f
       -2.328425 -1.148334 -1.365503 1.8825103
0000d0 c3 85 42 c0 a1 8b 90 3f bc ee 89 bf 6c 3a b2 3f
       -3.0394142 1.1292611 -1.0775981 1.3924079
0000e0 9d 7b a3 bf fc d6 11 c0 c4 be 99 be 6c db f8 bf
       -1.2772099 -2.2787466 -0.30028355 -1.9441962
0000f0 06 c2 d0 bf 36 d8 d8 bf 44 80 80 40 d4 66 59 40
       -1.6309211 -1.6940982 4.0156574 3.3969011

encoder.1.1.running_var f4 [64]
000000 a0 53 07 40 8a 1e 7a 3f 42 5c 38 40 3d b1 dc 3f
       2.114479 0.9770285 2.880631 1.7241589
000010 53 6f d1 3f bc b7 10 40 75 05 41 40 76 2c 49 3f
       1.6362098 2.2612143 3.015958 0.78583467
000020 c4 47 47 40 cc 23 0a 40 60 68 fb 3f 72 11 15 40
       3.1137552 2.1584349 1.9641228 2.3291898
000030 5b 02 54 3f ba 18 f3 3f c3 18 23 40 3c bf bc 3f
       0.82816094 1.8991921 2.5483863 1.474586
000040 bc 34 06 40 a1 0a c6 3f 29 4a 2f 40 64 b8 3d 40
       2.0969687 1.5471994 2.7389014 2.9643793
000050 47 47 e9 3f f8 42 21 40 e6 35 4b 40 17 69 2a 3f
       1.8224877 2.5197124 3.1751647 0.66566604
000060 45 d3 e0 3f 06 e7 06 40 4b f0 ec 3f 15 0e 3f 40
       1.7564474 2.1078506 1.8510832 2.9852345
000070 c1 ca 18 40 6e fa 05 40 e4 d1 95 40 08 7b c2 3f
       2.387375 2.09341 4.6818714 1.5193796
000080 59 7d 09 40 ee c5 f7 3f d3 92 07 40 d7 5d 21 40
       2.1482756 1.9357278 2.1183364 2.5213525
000090 c1 5b 04 40 04 f0 1a 40 6e 56 05 40 aa b4 80 3f
       2.0681002 2.4208994 2.0834002 1.0055134
0000a0 d2 0c e2 3f 45 85 49 3f e0 c4 3e 40 a0 75 bf 3f
       1.7660162 0.7871898 2.9807663 1.4957771
0000b0 3f 90 b3 3f dd 8f b3 3f 48 d4 fc 3f a2 8a 0a 40
       1.4028395 1.4028279 1.9752283 2.1647115
0000c0 07 82 c7 3f e5 01 0d 40 12 7f 27 40 3a 36 3c 40
       1.5586556 2.2032406 2.6171308 2.9408097
0000d0 17 d2 0b 40 ff 25 ad 3f cd b7 0e 40 2c 6e f6 3f
       2.1846979 1.352722 2.2299683 1.9252372
0000e0 e5 cf 24 40 1a fc 04 40 f9 4c aa 3f 71 a9 32 40
       2.5751889 2.077887 1.330474 2.791592
0000f0 d0 8e 91 3f f6 d0 86 3f d7 0b 1a 40 58 b5 d4 3f
       1.1371708 1.053252 2.4069726 1.6617842

encoder.2.0.weight f4 [64, 64]
000000 0b 7e 62 bd 76 18 bd 3c 39 58 ff bb e0 5b 24 be
       -0.055295985 0.023082953 -0.0077924994 -0.16050673
000010 bc 8a 95 bd 18 4b 28 3d 47 f6 63 3d 93 e2 fd bd
       -0.07301852 0.04108724 0.05565479 -0.12396731
000020 b0 41 60 bd e1 cc 3a 3e b7 54 a4 bc 52 4e 88 3d
       -0.054750144 0.18242218 -0.020059926 0.066555634
000030 3c 79 10 be f3 6a 83 3d 8d f6 05 bd 12 e4 53 bb
       -0.14108747 0.06416883 -0.032705832 -0.0032331985
000040 16 b9 39 3d 02 40 b3 3d 27 a9 d4 3d 2c 2b 1d 3e
       0.045342527 0.08752443 0.10383826 0.153485
000050 a2 cc 00 be 26 64 34 3d ca f9 83 bc 2d 00 20 3c
       -0.12578061 0.04404082 -0.01611032 0.009765667
000060 ba f2 99 3d a3 ea 5d 3d 18 08 bf 3d 48 8e 19 3d
       0.075169995 0.054178845 0.09327716 0.037489206
000070 9b bd 58 3c 31 a5 a3 3c bd 06 87 bd b9 6b 5b bc
       0.013228799 0.01997623 -0.06593082 -0.013392382
000080 f8 66 81 3c 65 d6 1b bd 5f d3 26 3d b8 3b c0 bc
       0.01579617 -0.03804626 0.040728923 -0.023465976
000090 0b 26 06 be de b4 2b 3d 55 c8 97 3d e1 5d 06 bd
       -0.1310045 0.041920535 0.07411257 -0.032804374
0000a0 b0 c9 93 bd cc 88 bf bd 39 87 c3 3b 52 90 08 3e
       -0.07216203 -0.09352264 0.0059670475 0.13336304
0000b0 03 3e 99 bd 30 9f 72 3d 36 50 a3 bc 40 96 3b 3d
       -0.07482531 0.059233844 -0.019935708 0.045797586
0000c0 c4 22 94 bb 98 d2 e3 bc e8 c8 2e 3b f0 da 0e bd
       -0.004520746 -0.02781038 0.0026670042 -0.034876764
0000d0 76 e4 fc bd b0 b1 a2 bd 1d 17 31 bd e7 61 11 3e
       -0.12348263 -0.079440475 -0.043234933 0.14197503
0000e0 eb 8d 23 3e 19 57 62 3c d6 36 a1 bd df d8 8d 3d
       0.15972106 0.013814711 -0.07871787 0.069261305
0000f0 6e 2d 69 bc 45 24 9b bd 1b cc b3 3c 55 51 52 3d
       -0.014232023 -0.07575277 0.021947911 0.051347096
000100 d8 0c 01 bd b3 96 82 3e d2 ab 10 3d a2 20 1d 3d
       -0.03150639 0.255056 0.03532011 0.0383612
000110 1e 3a 98 3e 2e 45 0c 3d 2b 7a ec bd 5a b7 8c 3d
       0.2973184 0.034245662 -0.11546739 0.06870909
000120 51 ca e0 bc ff d8 ac bd 53 e3 59 3c 6c b5 c3 3d
       -0.027440222 -0.08439826 0.013298827 0.09556088
000130 68 71 83 bb a8 9a e3 3c 76 fa 51 3d ad 32 6f bd
       -0.004011322 0.027783707 0.05126425 -0.058397938
000140 25 47 4a 3d cd 55 b2 bd fd 50 d3 3c 7e 74 86 bd
       0.049384255 -0.087077715 0.025795454 -0.06565188
000150 e2 72 01 be c2 62 4e bd 3a 4d 2d 3e eb 8c b2 3d
       -0.1264148 -0.05038715 0.16923991 0.08718284
000160 56 a7 b0 3d ba 58 a0 3d 0c a6 f4 bd 51 81 b5 3b
       0.08625667 0.07829423 -0.119457334 0.0055390974
000170 8e 8b 8a 3d 18 a2 24 3e 71 b2 d1 3d 5a e3 d3 3c
       0.06764899 0.16077459 0.10239113 0.025865246
000180 e3 64 f0 3c c6 fe 53 bc c3 a6 2a 3c 6b 9a 21 be
       0.029344982 -0.012939161 0.010415736 -0.15781562
000190 9d f7 1e bd 29 4b 89 bd 79 b9 6d 3a b7 42 08 3e
       -0.03881036 -0.06703789 0.000906847 0.133067
0001a0 11 32 65 3d 28 84 0d 3e 95 1d 9d 3d 58 63 4b bd
       0.05595595 0.13819945 0.07671658 -0.04965529
0001b0 35 c9 42 bd a2 78 89 bc 50 15 73 3d e4 3b 53 bd
       -0.047555167 -0.016781155 0.059346497 -0.051570788
0001c0 73 ab 51 3c 9a 55 d3 3d ca 1b 4b 3d 08 5b 33 bd
       0.012797224 0.103190616 0.04958705 -0.043787986
0001d0 81 de 00 3d da 0d 82 3c 30 a1 fc 3c 8b 7a fb bd
       0.031462196 0.015875746 0.030838579 -0.122792326
0001e0 99 86 85 3d 0a 54 10 be 32 d6 37 be 08 23 8a 3c
       0.06519813 -0.14094558 -0.17952803 0.016862407
0001f0 a7 4e 04 bd 2c cb ca 3d 0d 5d 74 3b 56 cf 1c 3e
       -0.03230157 0.09902033 0.0037286908 0.15313467
000200 61 22 4e 3a 22 8f 9c 3c 3d 2d 19 bd 07 b0 e6 3d
       0.0007863399 0.01911122 -0.03739666 0.11264043
000210 bd 05 8f bd 56 ee 00 3e 3f be f4 bd 7d 0a e1 3d
       -0.06983516 0.12590918 -0.11950349 0.109883286
000220 5b af 96 3d 6d 52 98 bd 7f e2 86 bd fa 0c 12 3d
       0.07357665 -0.074375965 -0.065861695 0.035656907
000230 e0 25 0c be 66 90 9b bd 4e a1 8e 3d 15 3c 94 bd
       -0.13686323 -0.07595901 0.0696436 -0.07238022
000240 d3 8e 15 3c 3a 69 1b 3e ca 0e 01 bc af 12 e5 bd
       0.00912829 0.1517686 -0.007877061 -0.11185204
000250 97 48 20 bd 14 ca 55 3d 88 39 8d 3d 84 24 d8 3c
       -0.039131727 0.05219467 0.06895739 0.0263846
000260 90 12 3e bd 1f d2 8f 3c 07 18 44 39 80 7f e3 bd
       -0.04640442 0.017556248 0.00018700967 -0.11108303
000270 32 a6 f5 3d 37 9c af 3d d8 e8 5d be 00 b8 04 be
       0.1199459 0.085747175 -0.21670854 -0.12960815
000280 71 86 f5 bd 7e 73 43 bd 06 c1 09 be 5f 12 33 bd
       -0.11988533 -0.047717564 -0.13452539 -0.043718692
000290 54 d7 f3 bd 69 6c 2a be 36 f8 b3 bd 9f 6d e6 3d
       -0.11906305 -0.16642918 -0.08787577 0.11251377
0002a0 f2 68 43 bd da 01 2f 3d 0c 5d 12 be 96 f1 0d bd
       -0.047707506 0.042726375 -0.14293307 -0.034654222
0002b0 07 ce de 3c 86 b0 82 be da 60 3f 3c bf 8a da bd
       0.02719785 -0.25525302 0.011680806 -0.10670995
0002c0 41 34 54 bc 64 1b 33 3d ad 18 4e bd 45 b1 9e 3d
       -0.012951911 0.043727294 -0.0503165 0.07748655
0002d0 2c 86 9b bd ad a6 a1 bd 34 f0 b2 3b a0 91 ef bd
       -0.07593951 -0.07893119 0.0054607634 -0.11697698
0002e0 b8 29 1c bd d7 09 d3 bd 59 21 7e bb 7b ad d3 bd
       -0.038125724 -0.10304611 -0.00387772 -0.10335823
0002f0 0e b9 5a 3d 3a ee e6 3c d2 94 b0 3d c9 10 c1 3c
       0.05339914 0.028189767 0.08622135 0.023567574
000300 09 df fb bd e7 44 0c be 12 70 c9 3d 13 6a 05 3d
       -0.122984 -0.13698159 0.09835829 0.032571863
000310 54 30 ab bd 03 b8 d3 3c 55 dc 1c bd 2c eb 75 3d
       -0.08358827 0.02584458 -0.038296062 0.06003873
000320 65 ce ba bc 59 e7 b8 3d 31 58 de 3a 35 69 ba 3d
       -0.022803495 0.09028501 0.0016963539 0.09102098
000330 72 b7 17 3e cc 8e 05 3d 22 76 ae 3d 39 c1 59 3d
       0.14816073 0.032606885 0.08518626 0.053162787
000340 4a b4 8a 3d bc 92 ce 3d 93 84 e7 bd d5 e6 fd bd
       0.06772669 0.10086581 -0.113045834 -0.12397543
000350 bd 39 02 bb 0d e9 30 3d b3 39 df bd 3c e5 37 3d
       -0.001987084 0.043191005 -0.10899677 0.04489635
000360 34 74 86 bd 81 09 50 bd 7e fc 9e bd f7 a8 60 3d
       -0.06565133 -0.050790314 -0.07763003 0.054848637
000370 75 c8 1a 3d 28 9a 04 bd 03 37 8d bd 7e 16 85 3c
       0.037788827 -0.032373577 -0.06895258 0.016246077
000380 8d 10 b8 bd 13 0c c0 3d 5b 44 ca 3d 02 d9 91 3c
       -0.08987532 0.09377303 0.09876319 0.017803673
000390 56 5f 0a bd 04 45 e6 3d 26 63 cc 3d d8 36 9f 3d
       -0.033782326 0.112436324 0.099798486 0.077741325
0003a0 76 2c aa 3d 72 68 6a 3d 3b bf b6 3d 3a c2 9d bd
       0.083092615 0.057228513 0.08923193 -0.077030614
0003b0 41 12 45 3e d0 9e 59 bd a6 77 aa bc 4b 6b 80 3d
       0.19245245 -0.05312997 -0.020809006 0.062704645
0003c0 1a 57 c7 bd 4e d7 83 3d cb 64 41 bd 80 ef c8 3d
       -0.0973341 0.064375505 -0.047215264 0.09811306
0003d0 d5 22 1c 3d ca e7 21 3d db d3 40 bc 3a d2 b7 bd
       0.038119156 0.039527692 -0.01176926 -0.089756444
0003e0 fc b1 8b bd 65 b7 e2 bc ef 6b 0f 3e 1e bd 4a 3d
       -0.06821057 -0.02767534 0.14006017 0.049496762
0003f0 3f e8 2f 3c 5c 85 35 3e a3 9a ae 3c 2a d8 0b be
       0.010736524 0.17726654 0.02131397 -0.13656679

encoder.2.0.bias f4 [64]
000000 21 e4 27 ba c6 54 a9 bb 28 57 71 39 cc 4b 76 38
       -0.0006404538 -0.0051675765 0.00023016019 5.872156e-05
000010 b2 95 ff ba 3b d4 22 ba 54 d3 6c 3a c2 4d b0 38
       -0.0019499569 -0.00062114344 0.0009034176 8.4068175e-05
000020 f3 90 c5 3a c6 eb 78 bb 48 3c 92 bb 89 63 aa 3a
       0.0015073105 -0.0037982329 -0.0044627525 0.0012999634
000030 10 dd dd b9 e0 05 a9 39 73 e7 11 bb 01 96 9f 39
       -0.0004231711 0.0003223857 -0.0022263199 0.00030438605
000040 b4 c6 fb 39 fe 6b 85 36 9b 0c b6 39 14 e0 e3 39
       0.00048022496 3.976281e-06 0.00034723137 0.00043463765
000050 c5 c3 fe b9 cb 85 38 b7 24 07 8c ba a6 66 22 ba
       -0.00048592515 -1.0998406e-05 -0.001068328 -0.00061951054
000060 9c 4f 1b 39 24 82 46 b9 26 08 98 3a 7d e9 8c 3a
       0.00014811609 -0.00018931233 0.0011599108 0.0010750737
000070 90 07 2e 3a 2d ef 49 b7 72 a5 11 bb b8 eb 1c ba
       0.00066387 -1.2036221e-05 -0.0022223857 -0.00059860526
000080 fc 8c a9 39 0f d0 db 3a 68 b2 17 3b f4 02 60 b9
       0.00032339233 0.001677038 0.002314711 -0.00021363405
000090 05 d5 96 3b 4f c8 9c ba 3c 89 ac b9 8c 85 70 3a
       0.0046030306 -0.0011961552 -0.00032908644 0.00091751735
0000a0 2d f0 a7 39 5a f5 d4 b9 03 e8 3f b9 07 e3 0b 3a
       0.00032031667 -0.00040618592 -0.0001830161 0.0005336259
0000b0 e6 13 a3 37 59 a8 1f ba 0e c0 80 3a e7 a8 fc 37
       1.944038e-05 -0.00060904544 0.0009822862 3.0119392e-05
0000c0 cb 08 21 3a 12 74 08 3b 7c 52 78 3b 74 c7 18 3a
       0.0006142973 0.0020821136 0.0037890961 0.00058280607
0000d0 f2 8e 8a 3a 43 2f a5 ba f9 4a 22 3b 47 82 37 ba
       0.0010571165 -0.0012602586 0.0024763925 -0.0007000309
0000e0 b1 39 cd 3a 17 de a6 3a d8 5d a9 ba 4c c6 3b b9
       0.0015657452 0.0012730983 -0.0012921644 -0.00017907581
0000f0 fd 98 49 3b d2 27 53 ba 88 b8 de ba d5 2e cf 3a
       0.0030761354 -0.0008054945 -0.001699225 0.0015806804

encoder.2.1.weight f4 [64]
000000 50 fc 72 3f 96 42 75 3f 0e 41 79 3f 0f 17 76 3f
       0.9491625 0.9580473 0.9736489 0.96128935
000010 b8 7a 75 3f da 7e 74 3f 4b f1 7d 3f 92 77 71 3f
       0.9589038 0.9550606 0.9919631 0.94323075
000020 d6 2a 83 3f b6 e9 86 3f 51 21 84 3f ed 74 83 3f
       1.0247447 1.0540073 1.0322667 1.0270058
000030 9e 86 7d 3f 44 5b 7f 3f 76 dd 75 3f e3 e9 7b 3f
       0.99033535 0.99748635 0.9604105 0.9840376
000040 70 55 72 3f 68 c0 82 3f 69 5a 6d 3f 5c d5 89 3f
       0.9466162 1.0214968 0.9271608 1.0768237
000050 eb 09 68 3f 4b 93 6e 3f 56 14 7b 3f eb 79 79 3f
       0.90640134 0.931935 0.98077905 0.9745166
000060 aa 54 86 3f 49 e9 73 3f 1f 03 7a 3f ee 97 65 3f
       1.0494587 0.9527784 0.9766101 0.8968495
000070 07 37 77 3f 0a 41 75 3f 3f 31 86 3f 83 4d 6f 3f
       0.9656834 0.95802367 1.0483779 0.9347765
000080 03 98 81 3f 21 bf 81 3f 77 35 85 3f a2 b4 72 3f
       1.0124515 1.0136453 1.0406941 0.94806874
000090 cf 4a 87 3f f2 b3 70 3f 69 d2 6a 3f a3 9a 88 3f
       1.0569705 0.94024575 0.9172731 1.0672191
0000a0 de d2 7c 3f ac a9 85 3f 20 48 82 3f 6e bf 7c 3f
       0.9875926 1.0442405 1.0178261 0.987296
0000b0 e8 0d 74 3f 8a e1 66 3f 38 6f 6f 3f ec 48 81 3f
       0.9533372 0.90187895 0.9352908 1.0100379
0000c0 69 cb 79 3f 27 d4 74 3f 59 31 77 3f 84 b9 6f 3f
       0.97576004 0.9563622 0.96559674 0.9364245
0000d0 9a 48 81 3f 11 ce 69 3f cd 56 83 3f ee e0 84 3f
       1.0100281 0.9133006 1.0260864 1.0381143
0000e0 c3 f3 80 3f b7 2d 60 3f 3f 72 78 3f 92 6a 82 3f
       1.007439 0.87569755 0.97049326 1.0188773
0000f0 01 04 80 3f fa dc 7c 3f 52 3a 6a 3f bc 09 79 3f
       1.0001222 0.98774683 0.9149524 0.9728048

encoder.2.1.bias f4 [64]
000000 18 87 29 bd b4 83 37 be b2 ce 17 b9 bb 41 65 3c
       -0.0413886 -0.17921335 -0.00014477482 0.013992722
000010 8e a0 98 3c 68 d0 bf bc 27 56 ed 3d 83 b0 2b bd
       0.018631246 -0.023414806 0.11588698 -0.04191638
000020 b4 a7 21 3e eb 5f a0 3d 30 ef e8 3d bd 9e 8d 3c
       0.1578663 0.07830795 0.113737464 0.017287606
000030 c4 1b 13 bd 25 bc 1e 3b 71 9f 8f 3d e0 2c 64 bd
       -0.03591515 0.002422103 0.07012833 -0.05570686
000040 fc 4a bf bd c7 b5 d0 bc ea 7f 34 3c 80 21 1d bd
       -0.09340474 -0.025477303 0.011016825 -0.038362026
000050 8f d1 4e bd 77 47 ad bd e5 3e a2 bd 3b 80 03 bd
       -0.05049282 -0.084608965 -0.079221524 -0.032104712
000060 ee d7 5e 3a 76 a2 da bd b3 04 a4 bd 60 37 3c bd
       0.0008500804 -0.10675518 -0.08008709 -0.045951247
000070 a0 00 1d bd 05 f5 6d bd b0 26 84 bd f6 2a bb 3d
       -0.038330674 -0.058094997 -0.064526916 0.091390535
000080 46 6f 64 bd 92 4c b2 bc 3f 05 eb 3d e3 fa b4 bc
       -0.05577018 -0.021765027 0.1147561 -0.022092288
000090 15 8d 86 3c 31 94 c2 bd 76 be 92 bd 67 2f b3 3d
       0.016424695 -0.095009215 -0.07165234 0.08749276
0000a0 7b e6 19 3e 99 8c 44 3e 8c 64 3b bc e9 95 92 bd
       0.15029328 0.19194259 -0.011437546 -0.07157499
0000b0 55 e7 2a 3d c7 80 96 bd 74 1d b4 bd 57 48 3d bd
       0.04172452 -0.07348781 -0.0879468 -0.046211567
0000c0 a2 3c 81 bc 91 07 82 bb 51 b8 b1 bd 10 00 ff bc
       -0.015775982 -0.003968187 -0.08677734 -0.03112796
0000d0 a7 c1 8a bd a1 b2 9f bd 3c 8e b3 bd 62 6f 31 3e
       -0.067752175 -0.07797743 -0.087673634 0.17327645
0000e0 5d 18 d4 bd 11 b2 08 be e3 c1 84 bd 33 96 21 be
       -0.103562094 -0.13349177 -0.064822935 -0.15779953
0000f0 51 96 97 3c a6 f3 99 3b e0 8a 11 bd f4 0d b0 3d
       0.018504294 0.0046982346 -0.035532832 0.08596411

encoder.2.1.running_mean f4 [64]
000000 db e1 16 3d 8d 2a 03 3f c4 5f 39 bf 35 ec c8 3e
       0.036836486 0.512368 -0.7241175 0.39242712
000010 aa 01 09 bf 22 b3 1c 3e 0f fb 72 bf bb 8f a1 be
       -0.53518164 0.15302709 -0.94914335 -0.3155497
000020 e1 e4 81 bf b7 16 d7 be f2 de 53 bf 4b be 93 be
       -1.0147973 -0.42009518 -0.8276206 -0.2885612
000030 97 10 fd 3d 0a 5e 97 be 8d 70 1e be 73 3e a6 3e
       0.1235668 -0.29563934 -0.15472622 0.3246952
000040 52 49 13 bf e6 3c 81 3e 9e d7 25 be 31 9b a9 3e
       -0.5753375 0.25241774 -0.16195533 0.33126214
000050 c9 5e ee 3c 9c cb b8 3e 20 01 69 3f bc 35 fc 3e
       0.029097931 0.36092842 0.9101734 0.49259746
000060 04 d7 8d 3e 2d a9 ca 3e fd b4 09 3f 45 36 5f bf
       0.27703106 0.39582196 0.5379179 -0.87192184
000070 d7 f1 8e be 52 78 f5 3e 44 dc bb 3e b7 aa 52 bf
       -0.27918884 0.4794336 0.36691487 -0.8229174
000080 52 ce 77 3f 95 bc 45 3d 5d bf 80 be e2 62 25 3e
       0.96799195 0.04827555 -0.25146 0.16151002
000090 be db 37 be 17 ef 41 be 20 84 70 3e 59 79 09 3f
       -0.17954919 -0.18938862 0.23487902 0.53700787
0000a0 4b b4 97 bf 88 89 6f bf 6c f4 73 be b6 76 0d 3f
       -1.1851896 -0.9356923 -0.23823708 0.55259264
0000b0 e7 00 04 be 1d 75 ba be f9 44 69 3e 89 04 72 3e
       -0.12890969 -0.36417475 0.22780217 0.23634543
0000c0 3d b6 31 bd f8 8d eb be 4b c5 62 be 79 9e 7b bc
       -0.043386687 -0.4600675 -0.22145574 -0.015357607
0000d0 d3 00 a6 3e 07 6d 4d 3e fc ae 25 3f 67 01 8e bf
       0.32422504 0.20061122 0.6472013 -1.1094178
0000e0 68 4c db 3e ff ee bf 3d 0d 89 26 bd ad eb ae 3e
       0.4283173 0.09371757 -0.040658046 0.3416418
0000f0 0c b9 84 bd c7 78 10 be b8 f1 a7 be 74 39 dc be
       -0.064806074 -0.14108573 -0.32801604 -0.43012583

encoder.2.1.running_var f4 [64]
000000 8f 40 18 3f 16 75 46 3e 3f 3a 54 3e 8f fb 58 3e
       0.5947351 0.19380602 0.20725344 0.21189712
000010 4b 5d 2a 3f 07 6e 25 3f 52 61 df 3e 40 ef 85 3e
       0.66548604 0.64621013 0.43628937 0.26159096
000020 49 c9 93 3e ae 6e c6 3e 95 0e 66 3e a3 d8 71 3e
       0.28864506 0.38756317 0.224665 0.23617797
000030 ff 87 27 3f 9d 9d 04 3f a8 15 7d 3e f6 5b de 3e
       0.6544189 0.51803 0.24715292 0.43429536
000040 a9 2b 92 3e c8 45 ee 3e 75 a9 8d 3e 5e cc f7 3e
       0.28548935 0.46537614 0.27668348 0.48398107
000050 49 6e c0 3e 5f 46 09 3f 43 3f c8 3e cd 8f 37 3f
       0.3758414 0.53623 0.39110765 0.717038
000060 31 88 ca 3e 68 8e e2 3e c0 ff c2 3e 00 ed 31 3f
       0.3955703 0.44249272 0.38085747 0.6950226
000070 c0 ca 03 3f 2b ce 4b 3f 5c cb a5 3e a6 c1 26 3f
       0.51481247 0.7961146 0.32381713 0.65139234
000080 98 0c 96 3e ed 00 86 3e 97 ff 83 3e 87 ea 4b 3f
       0.29306483 0.2617258 0.25780937 0.79654735
000090 67 57 27 3e a8 d9 a8 3e 9d 04 d6 3e 11 15 8b 3e
       0.16341935 0.3297856 0.41800395 0.2716451
0000a0 b3 5f d2 3e 33 ae 93 3e 88 bf 1b 3f 43 f2 54 3e
       0.41088638 0.2884384 0.6083913 0.2079554
0000b0 5d a7 95 3e 9d e6 ce 3e 05 f5 a0 3e 89 7e f9 3e
       0.2922925 0.4041032 0.31436935 0.4872935
0000c0 42 7d 74 3e d3 1f 00 3f 5a 06 4c 3e cd 22 17 3f
       0.23875907 0.5004856 0.19924298 0.59037477
0000d0 eb 7d 2f 3e 93 58 98 3e 2a 92 3c 3e a5 7c c3 3e
       0.17137878 0.29755077 0.18415132 0.38181034
0000e0 e7 a5 9c 3e d0 18 b6 3e 5c fb a2 3e d6 f7 d9 3d
       0.30595323 0.35565805 0.31832397 0.10642974
0000f0 d5 ea a6 3e 9f 28 5a 3f 4f 10 a0 3e 9b a4 92 3e
       0.32601038 0.8521823 0.31262442 0.2864121
