saved-model/gammatone/unet/gammatone-unet-fan-4.pkl (torch, 772948 bytes, 56 tensors)

encoder1.0.weight f4 [128, 320]
00000000: b9f5 2e3d 930d 463d d397 ed3b 683e 22bd
00000010: c969 333d 59c7 35bd f24c 8dbd c955 63bc
00000020: d9fe 52bd 9181 c7bd 1b7a 5fbd 2172 683c
00000030: f239 223c 9aa5 8cbd e5af f0bc bf2b 9fbd
00000040: 57f7 7fbd e432 a8bd cb2f a3bd 601c 98bc
00000050: efbd a2bd 86f1 a4bc ae40 45bd 37ea f03b
00000060: 0b0e 623c 4c12 343d 818c 523c 4488 f53c
00000070: 91e5 0a3d ade5 ee3c c885 f2bc 5412 6cbc
00000080: 1dcc 9ebd 70a6 813d aebe 15bd c814 523c
00000090: 713f 103d f5e9 e93c cb1d 953d 5061 85bb
000000a0: 8fbc 083d 5d71 1a3d a64f 3e3d 0e60 bfbc
000000b0: 751c 8a3c 5706 433d 23fc d2bb 1efa 193d
000000c0: 7b70 853d cf07 3d3d 9194 b93d 1478 743d
000000d0: ec12 843d fbf6 14bb 1abb 3d3d 13f8 b13c
000000e0: 5268 26bc 791a d33d 14d6 0d3e 27a2 bc3c
000000f0: 2caa ba3d 721a d03d e78d 033d 2f65 743d
00000100: 0f52 06bb 7963 a73d 3fbc b03d 667d 193d
00000110: 3aaf f3bc 3f17 24bd 921d 363c ad2c 093d
00000120: 8f1e a0ba b427 8ebd ea41 f7bd a64f 7bbd
00000130: dfab 84bc 706d ab3c a446 82bd 851a 3dbd
00000140: 5bf1 b9bd 069b 02be f7b3 99bd dc1d a0bc
00000150: 0317 2dbc 2806 55bc 1e5b 8fbd bf94 13bc
00000160: 44e4 cabc 26cc 543b b917 f13c 1129 81bc
00000170: 33bc b2bd 11b2 babc 2980 89bc fe81 33bd
00000180: abb2 babb 2df8 b1bd fa68 19bd 25aa 533d
00000190: 826e ea3b af28 a6bc 4735 853d 2aa0 82bd
000001a0: d560 3bbd d68d 61bc 73eb bd3a 54ec f33a
000001b0: 1ca3 a53d 101f 31bc 6338 ff3c 80ba b43d
000001c0: 50bb 263d be86 0b3d 7d94 aa3d 656d b33d
000001d0: c9fb f7bb 2d1e fe3b 3e7a ff3c ba0a 4a3d
000001e0: e541 233d 9186 cc3b ff2b 943d ba77 d03d
000001f0: daa3 923d 6826 a13d 6964 833d 6a33 a63d
00000200: 1308 f53d f12c af3d 4647 683d dafd 503d
00000210: deaa 9b3c c8a3 82bd f038 9e3c 7070 e2bc
00000220: 39ea 35bd b881 32bc cd54 30bd 3b43 8ebd
00000230: 8ef0 d73c e2d2 4abd 3c45 49bd 605f 93bd
00000240: 98fe 64bd 2e92 8abd 6969 5ebd ffc2 a9bc
00000250: a367 55bd 6f97 843c e486 243b c6ea 393d
00000260: b90b 2e3b 2c2e cebc bdca 06bd 829f 5dbd
00000270: 43a9 c3bb 9a97 a13c b18a 67bc a985 113d
00000280: e2f5 70bc c617 603d 7e58 2dbb ddac 273d
00000290: 56a1 fbbc 65e0 513a 4239 573c 12fe 203d
000002a0: aa7c 253c b4cb 5e3d c962 afbc 0163 d3bc
000002b0: e82c 4a3d e55a d33d 36af 993d c72b af3d
000002c0: 9424 bc3c cce6 343b a2d5 3f3d 4475 a4bc
000002d0: 9385 723c 7612 0d3d 781c 483c b33a 193d
000002e0: 8f79 243d f4c0 853d 2a45 da3d 6b02 6b3d
000002f0: c3a2 833d 2798 4b3c 33e9 003c 066f bc3c
00000300: 00c1 c93d 920d b23d 705d e73c 9f0e 243d
00000310: 6f73 04bc fac1 41bd 2782 fbbc 5b2b 3e3c
00000320: 5200 99bd 98a7 4bbd 55af 0abd 877a 0339
00000330: f206 033c b1a5 55bd d3de 02bd b329 9bbc
00000340: 34d3 a6bd bdcb 44bc 2228 88bd 2ebf 953c
00000350: 8f9b 683b c267 03bc 62d8 8ebc 3767 08bb
00000360: 62ba 323c ef57 dd3b e94f d63c cabd f0bb
00000370: 2b98 453d 7756 73bc e5b3 5d3d 505f ef3c
00000380: 1367 fdbc 4087 00bd b82d 39bd a70c c63c
00000390: 2cb2 8dbc 8370 d5bc edcd 4f3d 9716 d6bc
000003a0: ceaa d7bc cb7d 9d3d fef9 503d 4d59 253d
000003b0: 29d6 963d 074e dcbc fd44 7cbb d0e0 b53b
000003c0: 11af ea3c ee43 b53d 43d0 c63d f77c a53d
000003d0: 0cae 163c 4825 2f3d 6b91 983d 4a2c b23d
000003e0: 344c 9f3d 583a 0f3d d5b7 dfbc 90a2 fb3c
000003f0: 81ef d33d fd2d 0c3d d8b5 cd3c e740 e33d
0.042714808 0.04835279 0.007250765 -0.039610296 0.043802056 -0.044379566 -0.06899442 -0.013875433
-0.051512573 -0.0974151 -0.05455981 0.014187367 0.009901511 -0.068675235 -0.029380748 -0.07772016
-0.06249174 -0.082128316 -0.079681 -0.018568218 -0.07946383 -0.020134699 -0.048157386 0.0073521393
0.013797293 0.04396276 0.012850882 0.029972203 0.033910338 0.029162252 -0.029604807 -0.014408667
-0.07753775 0.063305736 -0.0365588 0.012822337 0.035216752 0.028553942 0.07281073 -0.0040704384
0.03338295 0.037705768 0.046462677 -0.023361232 0.016859272 0.047613468 -0.0064387484 0.037592046
0.065155946 0.046150025 0.0906154 0.059684828 0.064489216 -0.002273022 0.046321012 0.021724736
-0.010156708 0.10307784 0.13851196 0.023026539 0.09114489 0.10161294 0.03211775 0.05966681
-0.0020495688 0.0817327 0.08629655 0.037473105 -0.02974664 -0.04006123 0.011115449 0.03348987
-0.0012216138 -0.069411665 -0.12073119 -0.061355256 -0.016195236 0.020926207 -0.0636113 -0.04616787
-0.09079238 -0.12754449 -0.07505029 -0.019545488 -0.010564568 -0.013001956 -0.06999801 -0.009007632
-0.024767049 0.0032470315 0.029430257 -0.015766652 -0.087273024 -0.022789987 -0.016784744 -0.043825142
-0.0056975684 -0.08689914 -0.03745363 0.051675934 0.007154287 -0.020283071 0.065043025 -0.06378205
-0.045746643 -0.0137667265 0.0014489725 0.001860986 0.08087751 -0.0108106285 0.031154817 0.088246346
0.04070598 0.034064047 0.08329103 0.087611 -0.007567857 0.007755062 0.03118622 0.049326636
0.039857764 0.0062416275 0.07234954 0.10179086 0.071601585 0.078686535 0.06415636 0.08115275
0.11964431 0.08553494 0.056708597 0.05102334 0.019002374 -0.06378895 0.01931426 -0.027641505
-0.044412825 -0.010895185 -0.043049622 -0.06946417 0.026359823 -0.04951752 -0.049138293 -0.07195926
-0.055906862 -0.06766163 -0.054299746 -0.020722864 -0.05210079 0.01618549 0.0025104815 0.045389913
0.002655728 -0.0251685 -0.03290819 -0.054107197 -0.0059711053 0.01972561 -0.014132188 0.03552786
-0.0147070605 0.054710172 -0.002645045 0.04093634 -0.03071658 0.00080061547 0.01313621 0.0393048
0.010100523 0.054393485 -0.02140941 -0.025804045 0.049359232 0.10320071 0.07504122 0.08553272
0.02296666 0.0027603386 0.046834596 -0.020075448 0.014802354 0.034441434 0.012213819 0.037409496
0.04015499 0.065309435 0.10657723 0.057375353 0.06427529 0.012426413 0.007868099 0.023002159
0.09851265 0.086939946 0.028242797 0.040053006 -0.008084162 -0.04730413 -0.03070171 0.011607016
-0.07470764 -0.049720377 -0.033858616 0.00012538779 0.007997261 -0.05215997 -0.031950783 -0.018940782
-0.081457525 -0.012011466 -0.0664828 0.018279638 0.003549311 -0.008020343 -0.017437164 -0.0020813474
0.010908695 0.0067548673 0.026161151 -0.0073468434 0.04824082 -0.014852158 0.05412664 0.029220253
-0.030932939 -0.031378984 -0.045209616 0.024175955 -0.017296873 -0.026054626 0.050733496 -0.026133819
-0.026326563 0.07690009 0.05101966 0.040368367 0.073650666 -0.026892675 -0.0038493269 0.0055504814
0.028647931 0.08850847 0.097076915 0.08080476 0.009196769 0.042760164 0.07449611 0.08699854
0.077782065 0.03496775 -0.027309338 0.030717164 0.10348416 0.034223545 0.025111124 0.110963635

encoder1.0.bias f4 [128]
00000000: 3c9c 37b7 a3d2 8db7 4807 1939 ab09 9eb7
00000010: 0a57 a937 142c 0a37 7015 33b7 db4b 8738
00000020: 00cf 43b8 d180 1b36 2168 3bb6 beea ea38
00000030: e077 81b8 4010 10b7 4a9b 2fb7 a570 7238
00000040: 6c55 ab39 a428 eb38 e074 a038 9952 e238
00000050: e498 21b8 ce3f 8836 1988 97b7 7929 afb7
00000060: 5884 cfb8 32b9 2039 badb 94b8 1eac b738
00000070: cb57 2cb8 60e7 e437 d023 1938 95cf 5339
00000080: ac4c 2e39 370f 0739 2ef9 3fb7 3eed 6539
00000090: bf44 6437 cfb0 e837 49de 7ab6 2192 8ab8
000000a0: 13a8 8ab7 731e 9538 2d89 fcb7 a45a 4238
000000b0: f7bd 1e38 bd8c b838 c8d3 b737 e0b3 8037
000000c0: 9911 8838 5867 87b7 fb4c a5b8 aefd e536
000000d0: 6435 c837 c5f9 b2b6 b8da 2937 7c81 9238
000000e0: 4ad6 8c38 bffa 1339 316e 9238 93c8 5639
000000f0: 77f2 8736 0c90 0939 92cc 0fb6 cd85 9637
00000100: 72ee df35 4f2a 8738 1cf1 d737 5c19 4c37
00000110: 6960 8836 ae5c 2438 97a2 c337 5f0b a4b7
00000120: 9ff1 c4b6 f9d1 1fb8 3485 ba37 feb9 15b9
00000130: ccca 6eb8 a9b5 55b7 ba2f 1bb8 5195 3d39
00000140: d35f 3eb8 9503 2537 d41f 0838 6cb4 8838
00000150: 65a9 8539 95b7 26b7 8f15 8138 54df 74b8
00000160: 03b8 3039 764a 4839 6882 a137 9031 7738
00000170: 644b 0ab7 8f29 8438 0de6 c038 be1c 96b8
00000180: 15b4 8038 4aca 99b8 999d 05b8 198b 7938
00000190: a05d dbb7 cd62 a038 e24c e3b7 a342 bdb7
000001a0: 998a 6837 9ded db38 f55d d738 4acd 2838
000001b0: cd05 a1b7 1c34 0639 495c a538 9652 e338
000001c0: 5902 d237 706c 6938 8793 4439 c7e9 f9b7
000001d0: a15a 1438 f6cc 9f38 44ee 0c39 2a8e d036
000001e0: 74a8 98b7 07aa f9b8 3a2b 59b7 89bb 7838
000001f0: 2685 42b7 ffe7 8338 6329 a7b8 549f 0d38
-1.0944026e-05 -1.6906595e-05 0.0001459393 -1.883957e-05 2.01869e-05 8.235704e-06 -1.0674223e-05 6.451431e-05
-4.6684407e-05 2.317178e-06 -2.7925782e-06 0.00011201714 -6.173528e-05 -8.586852e-06 -1.0466969e-05 5.7802205e-05
0.00032679306 0.00011213243 7.651164e-05 0.00010791905 -3.852778e-05 4.0605437e-06 -1.8063978e-05 -2.0880938e-05
-9.89518e-05 0.0001532778 -7.098117e-05 8.758179e-05 -4.108976e-05 2.728746e-05 3.6511396e-05 0.00020199858
0.00016622496 0.00012880271 -1.1442504e-05 0.00021927521 1.3605865e-05 2.7738888e-05 -3.738229e-06 -6.6075714e-05
-1.6529148e-05 7.110545e-05 -3.0104618e-05 4.633762e-05 3.7847054e-05 8.800018e-05 2.1913918e-05 1.534255e-05
6.488263e-05 -1.6141377e-05 -7.882152e-05 6.854264e-06 2.386672e-05 -5.3338904e-06 1.0124109e-05 6.985941e-05
6.715635e-05 0.00014112423 6.982347e-05 0.0002048335 4.05154e-06 0.00013119 -2.1427736e-06 1.79437e-05
1.6684191e-06 6.445182e-05 2.5742273e-05 1.2165252e-05 4.0643395e-06 3.918696e-05 2.3321523e-05 -1.9555619e-05
-5.8693836e-06 -3.8104106e-05 2.2234955e-05 -0.00014279035 -5.693249e-05 -1.2738085e-05 -3.699933e-05 0.0001808007
-4.5388773e-05 9.8356e-06 3.245457e-05 6.5185915e-05 0.00025493946 -9.937115e-06 6.155215e-05 -5.8382124e-05
0.00016853218 0.00019101225 1.925342e-05 5.8935548e-05 -8.242994e-06 6.3019914e-05 9.198124e-05 -7.157911e-05
6.1370585e-05 -7.333288e-05 -3.1856445e-05 5.949577e-05 -2.6150432e-05 7.6477976e-05 -2.709631e-05 -2.2561586e-05
1.3860547e-05 0.00010486993 0.000102695 4.024551e-05 -1.9195397e-05 0.00012798648 7.8850026e-05 0.00010839586
2.5035044e-05 5.565252e-05 0.00018746975 -2.9791974e-05 3.5370354e-05 7.619888e-05 0.00013440201 6.215433e-06
-1.8198254e-05 -0.00011904915 -1.2944272e-05 5.9302463e-05 -1.1594302e-05 6.2897794e-05 -7.9708894e-05 3.3765406e-05

encoder1.1.weight f4 [128]
00000000: a04f 0a40 62c4 0740 3ca3 0840 aa29 0740
00000010: a8ac 0840 7803 0840 4f16 0940 f39a 0a40
00000020: 5356 0940 20ac 0640 5d78 0740 541a 0840
00000030: 7297 0840 f2f4 0640 397b 0740 f09a 0840
00000040: 6ebe 0940 d23c 0940 6486 0840 a2d9 0a40
00000050: 8520 0840 5ef9 0740 95bf 0840 773c 0540
00000060: 6054 0640 33f0 0740 5433 0840 5c13 0c40
00000070: d84e 0740 ad0e 0840 c41d 0b40 7e99 0940
00000080: f546 0640 dd46 0640 f3bd 0640 1be9 0a40
00000090: c723 0840 de26 0b40 71aa 0640 2de1 0840
000000a0: 89d1 0640 f764 0b40 10d1 0540 b071 0d40
000000b0: 4717 0840 eb03 0940 7cdb 0840 cf64 0640
000000c0: b08c 0940 c50c 0840 6ddd 0640 9281 0740
000000d0: 1c3b 0940 feb3 0940 4326 0840 a612 0740
000000e0: 9178 0c40 92b3 0a40 86da 0940 d374 0a40
000000f0: 812b 0b40 e87a 0940 956f 0740 6d47 0b40
00000100: 8656 0940 c999 0940 0a23 0840 115e 0840
00000110: e0c8 0a40 7869 0940 cf70 0840 a82c 0840
00000120: 1bc6 0840 ae37 0740 f48c 0640 b8f8 0640
00000130: 9467 0740 39fe 0640 aab2 0740 1a48 0940
00000140: 0330 0a40 2dd6 0b40 6a6a 0b40 9038 0840
00000150: 5264 0940 177d 0740 f1ec 0940 9934 0740
00000160: 25b5 0c40 d332 0940 6692 0740 d1d4 0a40
00000170: fd90 0840 9f7f 0940 db10 0940 bb57 0a40
00000180: 02db 0a40 7718 0740 abae 0740 122d 0c40
00000190: a251 0840 ed97 0b40 f0a8 0940 c661 0740
000001a0: 14d8 0840 ada0 0840 bbf3 0a40 9c1d 0a40
000001b0: 3d79 0a40 0788 0940 4fd2 0c40 23be 0840
000001c0: 3aae 0740 c532 0940 a3b4 0a40 7da6 0740
000001d0: 8f33 0b40 261f 0940 0586 0a40 7486 0940
000001e0: 3367 0840 226b 0840 ad44 0b40 ed97 0940
000001f0: e77b 0840 c512 0a40 0992 0640 ba3b 0b40
2.16111 2.1213613 2.134963 2.111918 2.135538 2.1252117 2.1419866 2.1657073
2.1458938 2.1042557 2.1167214 2.126607 2.1342435 2.1087003 2.116896 2.1344566
2.152248 2.1443372 2.1332026 2.1695333 2.1269848 2.1245952 2.1366932 2.0818155
2.0988998 2.1240356 2.1281328 2.1886816 2.1141872 2.1258957 2.1736917 2.1499934
2.0980809 2.0980752 2.1053436 2.1704776 2.1271837 2.1742473 2.104153 2.1387436
2.106539 2.1780374 2.0908852 2.210064 2.1264207 2.1408641 2.1383963 2.0999029
2.149212 2.1257794 2.1072648 2.1172833 2.1442327 2.1516109 2.1273353 2.1105132
2.1948588 2.16721 2.1539626 2.1633804 2.1745303 2.1481266 2.1161854 2.1762345
2.145906 2.1500113 2.1271386 2.1307414 2.1685104 2.1470623 2.1318853 2.1277256
2.1370914 2.1127734 2.102353 2.1089306 2.115697 2.1092665 2.1202798 2.1450257
2.1591804 2.1849473 2.17837 2.1284523 2.146748 2.1170099 2.1550868 2.1125853
2.1985562 2.143727 2.1183105 2.1692393 2.1338494 2.1484144 2.1416538 2.1616046
2.1696172 2.1108682 2.120036 2.1902509 2.1299825 2.1811478 2.1509361 2.1153426
2.1381884 2.1348069 2.1711261 2.1580572 2.1636498 2.1489275 2.2003362 2.136605
2.120009 2.1437237 2.1672752 2.1195366 2.175022 2.1425261 2.16443 2.1488314
2.1312988 2.1315389 2.1760666 2.1498978 2.1325624 2.1573956 2.1026633 2.1755204

encoder1.1.bias f4 [128]
00000000: 1cd6 983f 89d5 963f 1053 983f 0fd4 963f
00000010: 2f02 9a3f 3c9c 963f 8888 993f 3ef6 9b3f
00000020: 2d4a 993f 5aeb 953f 1cc0 963f 1d61 963f
00000030: 95ee 983f 92cd 963f b61c 943f 80ad 983f
00000040: 0aaa 9b3f ffe2 993f 9df9 973f c38f 9b3f
00000050: ca69 983f d810 973f 6a42 983f 21eb 943f
00000060: fceb 943f 7661 993f ff36 983f 72cb 9d3f
00000070: a628 973f 2146 983f 9cfa 9c3f a869 983f
00000080: 1405 973f 9f15 963f 6bc4 963f 1ad9 993f
00000090: 3b54 983f 25d3 9b3f 634a 973f 04c0 9a3f
000000a0: d9ee 943f 2efe 9b3f f24a 943f 87d5 9d3f
000000b0: b2f1 963f d288 993f d831 983f 11de 973f
000000c0: f7b2 973f a888 983f 0a10 973f 8f27 973f
000000d0: 8634 993f bf11 993f 4146 983f d35b 973f
000000e0: efe7 9b3f 15e1 9a3f aca6 9a3f 4dab 993f
000000f0: f2d8 9b3f 7613 993f e2d5 953f 0085 9d3f
00000100: 1309 9a3f 1baa 9a3f 68f4 973f 38ea 993f
00000110: 663a 9b3f c3c5 993f 28f5 973f 37d7 963f
00000120: be4b 993f 2669 983f 6f31 963f 33cb 963f
00000130: a69c 973f cd58 973f 5164 963f d9d6 993f
00000140: e931 9d3f b77e 9c3f 147d 9c3f 12d0 973f
00000150: 48ce 993f bdc1 973f 76f5 993f fe66 973f
00000160: d462 9d3f 1371 993f 7126 963f f305 9a3f
00000170: 27a2 9b3f 7c85 983f 7481 993f 0745 9a3f
00000180: d091 9b3f b2e4 963f 4f54 983f a561 9a3f
00000190: 1abe 993f a84d 9b3f 62e2 9a3f 3d23 953f
000001a0: 76d9 973f 8639 983f 5aac 9b3f b0c6 9a3f
000001b0: 59d1 9a3f 13f9 9a3f 6038 9d3f d700 983f
000001c0: 0b94 963f cd87 993f cc1f 9a3f 9760 963f
000001d0: 76bd 9b3f ae4b 993f c0a3 983f 1dc9 9b3f
000001e0: 97a6 983f 736b 9c3f 18e4 9b3f 2118 993f
000001f0: 2d0c 983f 3edc 983f d1c1 953f 872b 9d3f
1.1940341 1.1783916 1.1900349 1.1783465 1.2031916 1.1766429 1.1994791 1.2184522
1.1975762 1.1712449 1.1777377 1.1748387 1.194781 1.1781485 1.1571262 1.1927948
1.2161267 1.2022399 1.1873051 1.2153248 1.1907284 1.1802015 1.1895268 1.1634256
1.1634517 1.1982868 1.1891783 1.2327712 1.180928 1.1896402 1.226398 1.1907244
1.1798425 1.1725348 1.1778692 1.2019379 1.1900705 1.2173811 1.1819576 1.2089849
1.163539 1.2186944 1.1585371 1.2330788 1.179251 1.1994879 1.1890211 1.1864644
1.1851491 1.1916704 1.180177 1.1808947 1.1969154 1.1958541 1.189644 1.1824898
1.2180156 1.209994 1.2082114 1.2005402 1.2175581 1.1959064 1.1705897 1.2306213
1.2034019 1.2083162 1.1871462 1.2024603 1.2127197 1.2013477 1.1871691 1.1784428
1.197624 1.1907089 1.1733836 1.1780761 1.184468 1.1823975 1.1749364 1.2018691
1.2280856 1.222617 1.2225671 1.1860373 1.2016077 1.1855999 1.2028034 1.1828306
1.2295785 1.1987633 1.1730481 1.2033066 1.215886 1.1915736 1.1992631 1.2052315
1.2153873 1.1788542 1.1900729 1.2061049 1.2011139 1.2133074 1.2100337 1.1651379
1.1863239 1.1892555 1.2161973 1.2091885 1.2095138 1.2107261 1.2282829 1.1875256
1.1763929 1.1994568 1.2040954 1.1748227 1.2167194 1.1976221 1.1924973 1.217075
1.1925839 1.2220291 1.2178984 1.1960489 1.1878716 1.1942213 1.1699773 1.2278908

encoder1.1.running_mean f4 [128]
00000000: a769 b6c1 3418 76c2 b93e ee43 2957 adc3
00000010: 97cd 53c2 f48a c342 9163 50c2 4963 7e40
00000020: 6537 bfc2 0f02 61c3 c257 a8c2 296e 3143
00000030: 093b c4c2 ce7b b8c3 aff5 11c2 f9ea d142
00000040: 9880 5e43 ae3c 3a43 7828 8042 9dae fa41
00000050: 5bc7 3ac2 375d 4fc3 581a 07c3 4ddf c7c3
00000060: 6003 aac3 03b6 d343 5a76 bfc3 7767 7141
00000070: 7f47 70c3 c675 6343 980b 5b41 46a2 7143
00000080: 1153 4b43 d642 9943 5766 3bc3 d14c 1d43
00000090: 2d87 86c2 76b7 3742 cde3 c4c3 2798 1dc3
000000a0: a287 e6c2 985c ad42 4aee 60c3 ec6e 3042
000000b0: 97db 60c2 3e54 4a43 3503 66c2 dc15 1fc2
000000c0: 9d3b 9d42 1120 0fc3 924e 20c4 cfd5 ddc1
000000d0: cb02 8b41 7d04 51c2 3aed 0e43 cc42 94c3
000000e0: 0fba 7d41 2051 ec42 5653 3e42 09d1 3443
000000f0: 8328 aa40 5cab 1f43 52bd 83c3 a84c fc40
00000100: 4676 13c1 fadf 4742 8fc7 01c1 8592 8bc1
00000110: 9067 7cc1 6e87 f640 374a 0a42 cc29 f9c2
00000120: 3850 57c3 849b 10c3 3b45 abc3 adb6 fdc3
00000130: 16de a7c3 bb52 32c3 f297 dfc3 e91c 0e43
00000140: e120 97c2 39ab d241 1b8f e5c1 4040 7b43
00000150: 725f 8643 e906 7bc3 70a7 d442 c7d7 25c3
00000160: 534e cf42 b679 da43 37d2 aac1 2175 1242
00000170: 6bf3 7fc1 6d77 3442 8008 b243 320f cdc2
00000180: 14b9 1c42 490e 8cc3 d3fd 00c3 8832 4142
00000190: 41c5 01c3 fd46 5b42 1f95 80c2 e97f ffc3
000001a0: 3f85 ce41 346d 2743 fa11 0a42 f40f fb41
000001b0: 4b55 1242 067b 3043 162d 9c3f 866a 4e43
000001c0: c94e a041 fe6c 8bc1 f4bc 1b43 e5ce a6c3
000001d0: 3850 89c0 748d 8443 17d0 4d43 fa13 92c3
000001e0: 0111 8ec2 cf0b 78c3 306d a442 a84e 1c41
000001f0: 6743 7fc2 005f f941 317f 1ec4 8d9f 0240
-22.801588 -61.523636 476.49002 -346.68094 -52.95077 97.77139 -52.097233 3.97481
-95.60819 -225.00804 -84.1714 177.43031 -98.1153 -368.96722 -36.489925 104.95893
222.50232 186.23703 64.07904 31.33526 -46.694683 -207.36412 -135.1029 -399.74454
-340.02637 423.42197 -382.92462 15.08776 -240.27928 227.46005 13.6903305 241.63388
203.32448 306.52216 -187.39977 157.30006 -67.264015 45.92916 -393.7797 -157.59435
-115.26491 86.68085 -224.93082 44.108322 -56.214443 202.32907 -57.50313 -39.771347
78.61643 -143.12526 -641.22766 -27.729399 17.376364 -52.254383 142.92667 -296.52185
15.857924 118.15845 47.581383 180.81654 5.3174453 159.66937 -263.47906 7.8843575
-9.216375 49.968727 -8.11122 -17.446543 -15.775284 7.704032 34.572475 -124.581635
-215.31335 -144.60748 -342.54086 -507.42715 -335.73505 -178.32317 -447.18707 142.11293
-75.56422 26.333605 -28.694876 251.25098 268.74567 -251.027 106.32703 -165.84288
103.65298 436.95087 -21.352644 36.614384 -15.996928 45.116627 356.0664 -102.52968
39.18074 -280.1116 -128.9915 48.299347 -129.77052 54.819324 -64.29125 -510.9993
25.815062 167.42657 34.517555 31.38279 36.583294 176.48056 1.2201259 206.4161
20.03847 -17.428219 155.7381 -333.61636 -4.2910423 265.1051 205.81285 -292.15607
-71.03321 -248.04613 82.21326 9.769203 -63.815823 31.171387 -633.98737 2.0409882

encoder1.1.running_var f4 [128]
00000000: 7d4a 9445 f17e d445 f937 da45 4401 0946
00000010: 9f2f 7745 3b2f c045 38e2 ae45 71bc 8845
00000020: 66c8 9745 fce5 0c46 dcfd 2f46 825b b145
00000030: 4ef2 c345 289b 3a46 27d6 5b45 4ad4 bb45
00000040: 9137 7f45 2335 8645 297c 7345 f7c9 8d45
00000050: 6620 fe45 d164 0d46 61ae bf45 5df8 b345
00000060: 44bc 0446 f216 aa45 8b1f f045 f143 7b45
00000070: c8f4 0446 2793 a645 e651 8845 9fd2 9d45
00000080: 1be1 8145 9aa7 6345 b569 2b46 8c1b 9945
00000090: febb c745 2f5f 9a45 772d e645 41bc 7b45
000000a0: 3a9d 0c46 0585 5745 78fe 0d46 7c59 9245
000000b0: 403c da45 91e4 8245 052b d445 e4c0 6445
000000c0: 564e a045 e519 1046 4453 2046 4acc d945
000000d0: 5206 b045 182e c545 68b1 c045 3e32 eb45
000000e0: 51df 5845 ef0b 3845 af96 4545 f0ff 7845
000000f0: aabd b645 897f 9a45 5911 0d46 6038 7345
00000100: 3449 5a45 8a91 8b45 92ec 9b45 225b 8b45
00000110: 5579 6445 9ce8 5445 ef05 bb45 20a1 ad45
00000120: 421a 1546 3912 9445 ebf1 2b46 335c db45
00000130: f6ca 1546 79d2 dd45 9b38 da45 ba76 4b45
00000140: c4be 9b45 a907 3145 3cfb a945 6429 c345
00000150: 6f13 5045 9e5c 3a46 69ac 5e45 121b 0c46
00000160: 4795 8745 db43 b645 404a c045 dd0f 6145
00000170: cb6d 9445 8767 9d45 d8d1 f545 ac50 9245
00000180: 335a b945 cb3b 2046 8e80 9045 3e92 5645
00000190: 11b5 1946 2266 8045 c28d b045 63f6 1a46
000001a0: ffdf 9745 8533 8f45 ac89 7f45 fbdb df45
000001b0: 7e53 6845 bf53 7845 b0a9 8b45 794f b845
000001c0: d864 0646 fc61 6445 e46f 8045 d03e 3046
000001d0: f054 4145 4986 ae45 34eb 9545 9ba6 d945
000001e0: 74aa 8b45 b67a 9d45 d12d b945 01db c845
000001f0: 0614 df45 9fa3 6145 a861 fb45 30db 8745
4745.311 6799.8677 6982.9966 8768.316 3954.9763 6149.904 5596.2773 4375.555
4857.05 9017.496 11263.465 5675.4385 6270.288 11942.789 3517.3845 6010.536
4083.473 4294.642 3895.76 4537.2456 8132.05 9049.204 6133.7974 5759.0454
8495.066 5442.868 7683.943 4020.2463 8509.195 5330.394 4362.2373 5050.3276
4156.138 3642.475 10970.427 4899.4434 6391.499 4939.898 7365.683 4027.7659
8999.307 3448.3137 9087.617 4683.1855 6983.5312 4188.571 6789.3774 3660.0557
5129.792 9222.474 10260.816 6969.536 5632.79 6309.7617 6166.176 7526.2803
3469.9573 2944.7458 3161.4177 3983.996 5847.708 4943.942 9028.337 3891.5234
3492.5752 4466.1924 4989.5713 4459.3916 3655.5833 3406.538 5984.7417 5556.1406
9542.564 4738.278 11004.4795 7019.525 9586.74 7098.309 6983.0757 3255.4204
4983.8457 2832.4788 5439.4043 6245.174 3329.2146 11927.154 3562.7756 8966.768
4338.6597 5832.482 6153.2812 3600.9915 4749.724 5036.941 7866.2305 4682.084
5931.275 10254.948 4624.0693 3433.1401 9837.267 4108.7666 5649.7197 9917.597
4859.9995 4582.44 4088.6045 7163.4976 3717.2183 3973.2341 4469.211 5897.934
8601.211 3654.124 4109.9863 11279.703 3093.3086 5584.7856 4797.4004 6964.8257
4469.3066 5039.339 5925.727 6427.3755 7138.503 3610.2263 8044.207 4347.3984

encoder2.0.weight f4 [128, 128]
00000000: e97c e0bc 9141 34bb 6083 acbd 7fb2 c1bc
00000010: 6348 c2bd 6a43 c6bd 5654 dbbd b470 753b
00000020: 1781 d63b bf5e c5bd a11b 303d f123 f43d
00000030: 1e8d 293c 9f87 2dbd 2e92 6a3c b497 973d
00000040: eae0 893d 35fe 0d3d 46c4 463d 954d 0a3d
00000050: e3af 9d3d bf38 80bc 520d c1bc 69c0 88bc
00000060: 1766 28bd 88c2 a03d 7a4e c03c 3e07 223d
00000070: c2ec 65bd 5168 ef3d 4614 313d 6fce bbbc
00000080: 7f46 f1bb 2a5a babd 7c11 c13d 12b5 8bbd
00000090: cec8 dc3c 2f85 fc3c 981c 223d 1d00 81bd
000000a0: 7549 fcbc b45a a7bd 2ed7 c93c 674e f5bc
000000b0: da90 843d ce3a 1ebd cb13 7ebc c9cf 8ebc
000000c0: d4f3 a7bd 1127 273d be32 8f3d 020d d63d
000000d0: 12e3 b7bc 019a 083d b587 d23d cd3a 3bbd
000000e0: 79be 1abd bcca 48b8 fc09 9bbb a2aa b0bd
000000f0: 176a 29bd 7080 f53c 547f a13c 9b19 6f3c
00000100: 45e6 dbbd 584e b5bc 50d3 2e3d b995 85bd
00000110: 0e22 893c 0d6e 9d3d a231 2a3d 03a2 9dbd
00000120: a841 c73d 95a9 ebbc dca1 d7bd c3b6 4d3d
00000130: 1ec3 273d cf2d 583c 0368 703b 3644 0a3e
00000140: 8dc9 10bd 34b3 9d3d 350b 8b3d 1995 60bd
00000150: a522 073e 0997 c53d abb6 ccbc 8f87 83bd
00000160: 4686 d13c 4c9e c4bb a56a 763c 4ee3 1c3a
00000170: 1a2c 813d aeae cf3d 5afa c4bd 321a 8ebd
00000180: 3f9b 853c 5f4d 2e3d bc84 7dbd f794 78bd
00000190: eedd 02bd 73b0 30bc 687f 283d 2f9d e33d
000001a0: bf5b 84bb 1084 afbd a937 4b3c 23dd b03b
000001b0: 79a7 b0bd 5f28 413e 42f7 6ebd 6f2a c33c
000001c0: 20d9 88bd b836 9d3c df9d bcbd b541 ba3d
000001d0: 8ef2 92bd 1d07 dbbd e847 0d3c 7152 0c3d
000001e0: 3cc7 cabb 72d5 c8bd 4ea3 35bd 24a2 17be
000001f0: c6ca 563d fceb 30bd 3d69 a3bd ad2c d93d
00000200: 7616 f0bd a4d8 3fbd 5b6f 293d 25c2 2fbc
00000210: 20bf 97bd f7b6 ebbc 3d1e 6f3d b0a8 633b
00000220: 9fcb 31bd 952f 8ebd 84e9 6abd 577f b03d
00000230: 00a7 813d aa98 4c3c 8870 cf3c b722 9dbb
00000240: 5c01 9d3c 4752 c23c f768 2dbd 9400 0cbb
00000250: 1092 e53d 2040 3d3d 231a 113d 4f26 ca3d
00000260: 2928 993d 3f4e b0bd 271a b83d 9688 84bd
00000270: aa44 9d3d bbdb ebbb 23ee 813d 7d89 9ebd
00000280: e0b7 c3bd c066 1abd 95fd aa3d 06bc 05be
00000290: 125b 473c 5d08 b43c 339f d63d 141b e1bc
000002a0: f3b4 4d3d c831 8b3d 6871 3d3d f158 b1bd
000002b0: 01a9 783d cb4b 873d 23f0 26bd d000 04bd
000002c0: 946a a13c a840 ee3d 0042 f3bc 7d33 373d
000002d0: 3ae6 98bd bbf7 693d 2ea3 ce3d 0432 4f3b
000002e0: 94f7 233c b1fa 00bd 5644 b63d 7b69 cdbd
000002f0: 445e 193c bf6a 943c 847a f63c eda5 84bd
00000300: 8214 613d d22e 0bbd 4515 93bd f363 6c3d
00000310: 6267 fabd bfbf dd3c 2d58 853d 6e4c ddbc
00000320: e5a0 8ebc 0372 993d d36f 20bd 9a0b b33d
00000330: 0559 3a3d 7df0 5bbb 7feb a9bc 85cd 75bc
00000340: 47ec e0bd d618 b33c d2ea b1bd 1c3b 403c
00000350: e3f0 f5bd da95 e03d f2d9 37bd 2839 233d
00000360: 565b c4bd 5899 c5bd afaf 84bd 8099 ccbd
00000370: 0e2f b5bd 9b88 4f3c ae5a 8b3d c13f 2ebd
00000380: 2589 5b3a 1d7b 013e 8f7c 243d 4b02 08bd
00000390: 664d 753d 4392 abbc 6c90 6abd 1767 043e
000003a0: 4f80 c03d c367 d63c 1b79 45bc 112d 1ebc
000003b0: e494 b2bd f199 39bd 031b 54bc 2407 ffbc
000003c0: 22a9 e53c 0d64 e7bc 5c5e 31bd a8f0 e43c
000003d0: 9883 d5bd cc92 2dbc 897c 10be c5ca 213b
000003e0: aa5e c93a c49a c8bd ad6a 2b3d 0bd8 273c
000003f0: 9eb2 8d3d 3c61 1d3d 2922 093e a180 04be
-0.027403312 -0.00275049 -0.08423495 -0.023644684 -0.09486463 -0.09680827 -0.10709445 0.003745121
0.0065461504 -0.09637212 0.0429951 0.11920918 0.010348586 -0.042365666 0.0143170785 0.07401982
0.06732352 0.03466626 0.048527025 0.033765394 0.07699563 -0.015652059 -0.023565922 -0.01669331
-0.041112985 0.07849604 0.02347492 0.039557688 -0.056133993 0.11689819 0.043232225 -0.022925584
-0.00736314 -0.09099229 0.09427163 -0.06821646 0.02695122 0.030825226 0.03957805 -0.0629885
-0.030796746 -0.08171597 0.024638738 -0.029944612 0.06472941 -0.0386303 -0.015507649 -0.017433064
-0.082008034 0.04080874 0.069921 0.104517 -0.022447143 0.033349995 0.1027979 -0.045710374
-0.037779305 -4.7872527e-05 -0.004731415 -0.086262956 -0.04136094 0.02996847 0.019714035 0.014593507
-0.1073728 -0.022132084 0.042681992 -0.06522698 0.016739871 0.07687006 0.04155124 -0.07696917
0.0972932 -0.028767386 -0.10528919 0.050223123 0.040957563 0.013194515 0.003668309 0.13502583
-0.035348464 0.07700196 0.06789247 -0.05482969 0.1319681 0.09647948 -0.024989447 -0.0642234
0.025576722 -0.006000316 0.0150400745 0.0005984799 0.0630724 0.101407394 -0.09618063 -0.0693859
0.016309379 0.042554256 -0.061894163 -0.06068894 -0.03194993 -0.010784256 0.04113713 0.11113965
-0.0040392573 -0.08570111 0.012403407 0.0053974553 -0.08625693 0.18863057 -0.058341272 0.023823945
-0.06682038 0.019191131 -0.09209799 0.09094564 -0.0717517 -0.10694716 0.008623101 0.03425831
-0.0061883014 -0.098063365 -0.044345193 -0.14807945 0.052439474 -0.043193802 -0.07979057 0.10604224
-0.11723034 -0.046837464 0.041365962 -0.01072744 -0.07409501 -0.028773768 0.058378447 0.0034737997
-0.04340708 -0.06942669 -0.057351604 0.08618038 0.06330681 0.01248757 0.025322214 -0.004795398
0.019165687 0.023720874 -0.04233643 -0.002136265 0.112095 0.046203732 0.035425317 0.09870588
0.07478363 -0.08608674 0.08989363 -0.06471364 0.07679112 -0.007197825 0.06344249 -0.077410676
-0.09556556 -0.037695646 0.08349148 -0.13060006 0.012167709 0.021976644 0.104795836 -0.027478732
0.050221395 0.067966044 0.04625073 -0.08659542 0.06070805 0.06606253 -0.040756356 -0.032227337
0.01970414 0.11633426 -0.029694557 0.044726837 -0.07465787 0.05712102 0.10089718 0.0031615505
0.010007758 -0.031489078 0.08899753 -0.100298844 0.009360854 0.018117307 0.030087717 -0.0647696
0.0549512 -0.0339802 -0.07181791 0.057712507 -0.1222675 0.02706897 0.06510959 -0.027013984
-0.017410705 0.07492449 -0.039169144 0.08742447 0.045495052 -0.003356009 -0.020742176 -0.015002613
-0.10982566 0.021862429 -0.086873665 0.011732843 -0.12008836 0.10966082 -0.044885583 0.03984943
-0.095877334 -0.096483886 -0.064788215 -0.09990215 -0.088468656 0.012666847 0.06804405 -0.04254127
0.0008374623 0.1264462 0.04015785 -0.03320531 0.059888266 -0.020943766 -0.057266638 0.1292995
0.09399473 0.026172524 -0.0120528 -0.009654299 -0.08719805 -0.045312826 -0.012945893 -0.031131335
0.02803475 -0.02824595 -0.04330288 0.027946785 -0.1042549 -0.010594081 -0.14110006 0.002468751
0.0015363295 -0.09795144 0.04184978 0.01024438 0.06918834 0.038422808 0.13391937 -0.12939693

encoder2.0.bias f4 [128]
00000000: e9cb 22ba ef3c 2ab9 80ed 0d39 ab5e 5ab9
00000010: d123 a3ba 0a00 1ab8 7735 0f39 bb18 2338
00000020: 66cd 5339 8831 90b9 a1b5 3839 1c78 b5b9
00000030: c583 47ba 3a59 55b8 6c39 4438 3c5f b039
00000040: 5fa7 6f3a 6e4e fbb8 1a5b 81b9 05c0 7038
00000050: cefa 2cba eecf 1aba ab8b ca39 2eda 2739
00000060: 3dee 9d37 b97a 70b8 f42b 38b9 8414 c739
00000070: 7809 10ba 1e11 69b6 9e1d 683a 6ba7 5838
00000080: 0ea1 2039 9cd9 8338 36ee 2aba dd22 1639
00000090: 4ecf d3b7 1c2b 6cb8 30c8 013a 5b65 0138
000000a0: 0d80 9736 eb95 9d39 f098 3b3a e40d 6e38
000000b0: ddf6 a6b9 5e03 7039 a034 60ba 4d63 2f3a
000000c0: da09 b9b8 d53d 0db9 20e4 e3b8 a1a8 35b8
000000d0: 2995 0d39 dba6 09b8 e489 28b8 3e46 5a38
000000e0: 7fe7 82b8 e1ec ba39 89e8 bab8 bc38 32b9
000000f0: a3f2 8739 210c 6c39 7f69 99b8 bf5e 9b38
00000100: 7cf9 8437 197c 9b38 8f93 1539 9a1e 9438
00000110: f471 18ba d00a 4539 48f4 0435 7144 27b9
00000120: 5292 b6b8 c5bc 5039 7651 b7b7 cefd 0d38
00000130: ec0c 7eba e7f6 2539 2aa0 e43a a65d 9f39
00000140: 4cb2 70b8 341e 5737 8a8b 2a3b 26d5 92b8
00000150: 21e5 e439 da50 0cb9 8736 5fb9 090b 4f39
00000160: a042 cd38 c145 f9b8 f5c2 ef38 0c1d 9b38
00000170: f8ea c737 2aa1 cdb9 7e0d 7e38 1058 29ba
00000180: 910c b6b6 d749 abba 9f68 7239 efdc 85b9
00000190: 6e2d ad38 ca9d 33b9 32bd 883a 566a 94b8
000001a0: 7432 02b9 102c 23b9 6872 bab9 24fb d4ba
000001b0: 3eff 4839 ca1f d3b8 fff1 52b6 8e14 5e3a
000001c0: a779 0d3a 52cb 2aba 9790 8939 4bce 043a
000001d0: 54a8 b9b8 d3cd 313a 06ef 513a e454 1a39
000001e0: 6479 d739 456d d337 21d4 1bb9 630f e8b7
000001f0: 7ddf c8b9 909d 61b8 a52c 85b8 cc05 86b8
-0.00062101946 -0.00016235163 0.00013535284 -0.00020825367 -0.0012446587 -3.6716498e-05 0.0001365746 3.888526e-05
0.00020199045 -0.00027502724 0.0001761527 -0.000346125 -0.0007610883 -5.0866256e-05 4.678352e-05 0.0003364029
0.00091420667 -0.00011983221 -0.00024672673 5.739929e-05 -0.0006598652 -0.0005905618 0.00038632503 0.0001600764
1.8826797e-05 -5.7334753e-05 -0.00017563981 0.00037971523 -0.0005494575 -3.472967e-06 0.0008854511 5.1654333e-05
0.00015318787 6.2871e-05 -0.00065204815 0.00014318102 -2.5249694e-05 -5.6306933e-05 0.000495079 3.085039e-05
4.5150578e-06 0.0003005707 0.00071562734 5.675656e-05 -0.00031845915 0.00022889438 -0.00085527636 0.0006690517
-8.8233224e-05 -0.00013469842 -0.00010866695 -4.331081e-05 0.00013502374 -3.281874e-05 -4.0182742e-05 5.204067e-05
-6.2420026e-05 0.00035653173 -8.912484e-05 -0.00016996538 0.00025929985 0.00022511232 -7.315259e-05 7.408624e-05
1.5851801e-05 7.414091e-05 0.00014264717 7.06289e-05 -0.000581532 0.00018791412 4.952931e-07 -0.00015951857
-8.7056906e-05 0.00019906748 -2.1853233e-05 3.3853394e-05 -0.00096912566 0.00015827605 0.0017442752 0.00030396617
-5.738651e-05 1.2822031e-05 0.0026023113 -7.0015245e-05 0.00043658263 -0.0001338156 -0.0002128725 0.00019745169
9.7875716e-05 -0.00011886238 0.00011432722 7.396386e-05 2.3832064e-05 -0.00039220724 6.0570885e-05 -0.0006459961
-5.4254856e-06 -0.0013068271 0.00023117893 -0.00025532345 8.257745e-05 -0.00017129551 0.0010432361 -7.0769966e-05
-0.00012416561 -0.00015561306 -0.00035561924 -0.0016249162 0.00019168571 -0.00010067185 -3.1433299e-06 0.0008471691
0.0005396851 -0.00065152824 0.00026238404 0.00050661404 -8.852841e-05 0.00067826844 0.00080083346 0.00014718209
0.0004109844 2.5204043e-05 -0.00014860976 -2.766372e-05 -0.00038313484 -5.379092e-05 -6.35025e-05 -6.390698e-05

encoder2.1.weight f4 [128]
00000000: 99c8 6e3f 7c0d 7b3f 2c33 963f 92ab 6f3f
00000010: 8cbd 783f b79c 6d3f ab6d 753f 021d 7a3f
00000020: bbf9 803f c041 803f aea6 713f 0b55 773f
00000030: 9aa8 823f 3fa9 803f fc06 823f cb33 783f
00000040: c6d3 753f 9fed 8b3f 3f27 7f3f f791 743f
00000050: cfe3 843f 9f51 7d3f f2a6 753f 23f5 6b3f
00000060: 5d6c 773f 0386 733f d581 823f 2957 823f
00000070: dca8 773f df55 7e3f a2f2 7c3f af96 873f
00000080: 8318 753f 862f 813f c159 733f 59b5 783f
00000090: 3926 893f 25bd 653f 5e68 7f3f 52e6 743f
000000a0: bd68 6f3f 97d0 843f 25ff 7e3f e107 7e3f
000000b0: ee4c 6d3f 5858 6b3f 82f6 873f 4eeb 813f
000000c0: 22e4 713f abb9 703f b4f3 7b3f 3b91 7f3f
000000d0: 397a 7d3f 5c7e 763f 21bc 873f d14a 7e3f
000000e0: c71a 863f 6737 763f b27c 7d3f 7963 733f
000000f0: 4db4 7a3f ebf2 753f 70a8 7d3f 2e8d 803f
00000100: 086d 7a3f 4372 7a3f d905 7a3f f93e 863f
00000110: b77d 723f 5365 743f f78c 853f 17ca 733f
00000120: 27b0 733f e623 7b3f dccf 8d3f 2752 6e3f
00000130: 4383 753f b649 713f 9ced 813f ac95 8f3f
00000140: ddc3 7b3f 95e0 7f3f 5a5b 723f 7402 813f
00000150: 1fef 713f 11b4 793f 88e4 863f 16c7 813f
00000160: 9e80 743f c97a 793f 7d91 873f 9aef 803f
00000170: c9fe 7f3f 2f7c 7d3f f90f 813f 10e3 753f
00000180: e227 6c3f 9f23 6c3f 3f6b 6e3f f0cf 703f
00000190: 06e9 6e3f 5628 833f 8a7c 703f 4bb1 713f
000001a0: 08b6 7f3f 6987 6a3f 5c1b 8f3f 17e9 783f
000001b0: 5b7f 773f b4b7 763f 9c7d 6f3f 760d 7a3f
000001c0: f3c1 7e3f 911d 7f3f c462 883f 6c4f 713f
000001d0: 0316 763f 6aa8 873f aee1 613f f694 643f
000001e0: ff00 693f 98ae 813f ceef 843f f207 7f3f
000001f0: b227 6a3f 2b29 7c3f 57aa 643f a6fd 773f
0.9327484 0.9806745 1.1734366 0.9362117 0.97164226 0.9281725 0.95870465 0.9770051
1.0076212 1.0020065 0.9439496 0.9661414 1.0207703 1.005165 1.0158381 0.9695403
0.96026266 1.0931891 0.9966926 0.95535225 1.0382022 0.9895267 0.95957863 0.92170924
0.96649724 0.9512636 1.0195872 1.0182849 0.96742034 0.9934978 0.9880773 1.059286
0.95740527 1.0092628 0.9505883 0.97151715 1.071479 0.89741737 0.99768627 0.9566394
0.9351919 1.0376157 0.9960807 0.9923077 0.9269551 0.91931677 1.0622103 1.0149934
0.9448873 0.94033307 0.98418736 0.9983098 0.9901462 0.9628656 1.0604287 0.9933291
1.0476922 0.9617829 0.99018395 0.9507366 0.9793137 0.9607379 0.9908514 1.0043085
0.9782262 0.978306 0.9766517 1.0487968 0.94723076 0.9546711 1.0433644 0.9523024
0.9519066 0.9810165 1.1079059 0.93094105 0.95903414 0.942531 1.0150638 1.1217551
0.9834574 0.9995206 0.9467064 1.0078874 0.94505495 0.97540385 1.0538492 1.0138881
0.95508754 0.9745298 1.0591274 1.007312 0.99998146 0.99017614 1.0083 0.96049595
0.92248356 0.92241853 0.93132395 0.9406729 0.93324316 1.0246685 0.9394003 0.9441115
0.9988713 0.9161287 1.1180224 0.97230667 0.96678704 0.9637406 0.9355104 0.9767679
0.99514693 0.9965449 1.0655141 0.94261813 0.9612734 1.0598271 0.88234985 0.89289796
0.91017145 1.0131407 1.0385683 0.996215 0.9146682 0.9850032 0.8932242 0.9687141

encoder2.1.bias f4 [128]
00000000: f63a 4b3d 009c febd f00d 723e 2cad 953d
00000010: 2c98 9c3b 7c48 ebbd 783d 1a3e 3990 9dbd
00000020: 982e 33bd 17e7 e4bd 9290 fb39 7e01 d43c
00000030: b3d9 ff3d dff8 e4bc 5f0a 5d3d ffb5 b9bc
00000040: 6f52 ce3d b1af 193d ce38 843e aacc 3f3c
00000050: e23a 293e 6341 843e 790b 91bc 2326 8d39
00000060: 0328 1a3d 467b acbc 7e33 033e dab9 013e
00000070: 2199 e73b e70e 253c 7e2d 013d e442 243e
00000080: d701 833d 2b4c 663d 5a49 0d3e 7c5b b5bd
00000090: 7481 86bd 557d a9bd d3e6 023e 16e4 cfbd
000000a0: deaf aabc 8c15 da3d 8de0 47bc c750 2ebd
000000b0: 4d30 5e3d fa07 703b fed2 f13d 84e9 a83d
000000c0: 38f9 ffbc 7b4f 46bd c88d ae3d f968 293d
000000d0: 3ba5 f3bc 4cf7 64bd 0f06 4dbd 3d51 12bd
000000e0: 948f 813e 239c 38bd afbc 7c3c ad82 e03d
000000f0: 0fb2 3cbb ffb9 96bd 429c 38bd e149 a8bd
00000100: 7b44 c9bd d597 64bd c3b1 13bd 4f23 1dbd
00000110: 5bb8 ec3d 4538 7d3c b624 babd 2a98 613c
00000120: f809 313d 209c 9abc 6354 a43e 3bff 7d3c
00000130: 349b a13c b5bf 7bbc d57f 9c3d e9a6 7dbd
00000140: da36 a4bc 6a88 063e 5727 ea3c 6047 93bb
00000150: 4fde 73bc 9541 463e 1750 903d 2859 9abd
00000160: 7d6c 95bc fddd debc fe79 52bd 25e5 23bd
00000170: e202 aebd 0c39 86bd f1c6 3bbd 6f7a 49bd
00000180: 3e4d 1fbc cd80 44bd 168f d2bc f821 403d
00000190: c990 013e 860f 603e 38ef 733d 2513 463d
000001a0: 5592 ec3e 048b 89bc ec28 573e 7996 913d
000001b0: 23f4 0fbd 9757 a3bd 5075 fd3a f540 063d
000001c0: 511b 38bd 3936 e9bb 618c cfbc 885a 3f3c
000001d0: ba0c e8bd b6d9 74bd 3045 be3e 6895 b9bd
000001e0: fbac debc 0886 50bd c7bd 75bd 4ba9 9c3d
000001f0: a79d ccbc 153b 79bd 2f2c 05be 2786 aa3d
0.049616776 -0.124320984 0.23638129 0.073084205 0.0047788825 -0.11488435 0.15062511 -0.07693524
-0.043745607 -0.111768894 0.00047982164 0.025879618 0.12492695 -0.027950702 0.05396497 -0.02266979
0.10074317 0.037521068 0.2582459 0.011706511 0.16526368 0.25831136 -0.017705666 0.0002692203
0.037635814 -0.021054875 0.12812611 0.12668553 0.007067815 0.010074354 0.031537525 0.16041142
0.06396835 0.056224983 0.13797513 -0.0885534 -0.0656766 -0.08275858 0.12783365 -0.10150926
-0.020835813 0.10648641 -0.012199533 -0.042557504 0.054245282 0.0036625848 0.11807822 0.082476646
-0.031246766 -0.048415642 0.085231364 0.041359875 -0.029741874 -0.055899903 -0.050054606 -0.035722006
0.25304854 -0.04507078 0.015425845 0.109624244 -0.0028792655 -0.07359695 -0.045070894 -0.08217216
-0.09827515 -0.05580886 -0.0360582 -0.03836375 0.115586005 0.01545531 -0.09089033 0.013769189
0.043222398 -0.018873274 0.32095632 0.015502746 0.019727327 -0.015365531 0.076415695 -0.061926756
-0.020045687 0.13137975 0.028583212 -0.0044945925 -0.0148845455 0.19360955 0.07046526 -0.075365365
-0.018240208 -0.027205462 -0.051385872 -0.04001345 -0.084966436 -0.065538496 -0.045844022 -0.049189027
-0.009723006 -0.047974396 -0.025702994 0.046907395 0.12652887 0.21880922 0.05955431 0.0483581
0.46205392 -0.01678992 0.21011704 0.071087785 -0.035144936 -0.07975691 0.001933733 0.03277679
-0.044947926 -0.0071170595 -0.025335493 0.011679299 -0.113305524 -0.059777938 0.3716216 -0.090617
-0.027182093 -0.050909072 -0.05999544 0.076494776 -0.024977518 -0.06084736 -0.13005136 0.08326369

encoder2.1.running_mean f4 [128]
00000000: 7ada 2bbd 0752 efbd 92cb d23e 3bae bcbf
00000010: e1cf afc0 2bbb 493f cf02 b3c0 a769 8fbf
00000020: 213d f23f 0ef3 a33f 5293 9dc0 cd19 03c0
00000030: 96df d3bf 7745 aa3d 8589 1141 637f fd40
00000040: afc3 aac0 b12c d240 208e c23f 1b6b 97c0
00000050: fb53 ccc0 3ab3 b0c0 b2ad e1c0 aab7 b9be
00000060: 065a b8c0 bb9a 673f 0cbf 5cc0 832d 47c0
00000070: c334 5ec0 4948 9fc0 0ab8 0dbf d257 4e3f
00000080: bb0e e940 c801 0d41 3db0 66c0 5477 5640
00000090: b49c af3e 5f17 c73d e516 43c0 e044 5e3f
000000a0: 0232 1f40 4fe9 ad3f eec7 efc0 af82 4ebf
000000b0: 937f 4cc0 dde2 e8bf 1d4a 8bc0 2cca d0c0
000000c0: 99c1 b9c0 d4bd 6cc0 a2bb 9bc0 82e6 1240
000000d0: e85a 3e40 f3c0 1dbf cc4f 643f 1c96 a5bf
000000e0: d291 e93e fad6 88c0 8f3d e5c0 8b69 91c0
000000f0: 266b 2cbf b755 9f40 5b99 fdbe f2af e83f
00000100: c779 1740 4a3e 9abf 0901 3f3f 3849 ad3c
00000110: ba83 9bc0 31b5 2ac0 f947 ab3f 2674 5abf
00000120: 0153 8fc0 d849 75c0 777f 23c0 8bfc 79bf
00000130: f6be 0741 9101 0541 f682 fec0 238b 6b40
00000140: 0039 63c0 4c96 a2bf b05c 88c0 4581 e6c0
00000150: 85fc b4c0 edce 8bc0 c09b 54c0 b83e d83f
00000160: bc8f 88c0 3060 063f 4069 8c3f 8b87 81bf
00000170: a02a 773f d760 3cbf 8908 173f 971b 1ebf
00000180: dd5b 28c0 fad7 23c0 0cf7 41c0 b19c 28c0
00000190: fa33 abc0 48b3 ccbf e915 a0c0 dfb2 e1c0
000001a0: 9ba2 dfbf 3c20 3040 3b52 343f 215a 8040
000001b0: 7c7b fcbf 814c e33d b26d 0dc0 b478 e340
000001c0: 578b 1cc0 138d aac0 f88a d53f e2bd bcc0
000001d0: 0c7b 3540 d5c7 8b40 0b0f 28c0 e522 873e
000001e0: 4619 3b40 264e 273f 1d1d 4abf 01c9 33c0
000001f0: e42e 93c0 feae 06c0 008c 8440 4059 d340
-0.041956402 -0.11685567 0.41170937 -1.4740671 -5.494126 0.7880122 -5.594093 -1.1204118
1.8924905 1.280855 -4.9242334 -2.0484498 -1.6552608 0.083140306 9.096074 7.9218
-5.336387 6.5679555 1.5199623 -4.7318244 -6.3852515 -5.5218782 -7.052453 -0.36272937
-5.760989 0.90470475 -3.4491606 -3.1121528 -3.4719703 -4.977574 -0.55358946 0.80602753
7.283048 8.812935 -3.6045067 3.3510332 0.34299242 0.097212546 -3.0482724 0.86823845
2.4874272 1.3586825 -7.4931555 -0.8066816 -3.1952865 -1.8194233 -4.352797 -6.524679
-5.8048825 -3.6990862 -4.8666544 2.295319 2.9742985 -0.6162254 0.8918426 -1.2936435
0.45619065 -4.2762423 -7.1637645 -4.5441337 -0.67350996 4.979213 -0.49531063 1.8178694
2.3668077 -1.2050259 0.74610955 0.021153077 -4.85983 -2.667309 1.3381339 -0.8533348
-4.4788823 -3.832632 -2.5546548 -0.97650975 8.484121 8.312882 -7.9534864 3.6803672
-3.550354 -1.2702117 -4.2613144 -7.20328 -5.655825 -4.3690095 -3.3220062 1.689414
-4.2675457 0.5249052 1.096962 -1.011949 0.96549416 -0.73585266 0.589974 -0.6176085
-2.630607 -2.5600572 -3.0307035 -2.6345637 -5.350095 -1.5992212 -5.0026746 -7.053085
-1.7471498 2.7519674 0.70437974 4.011002 -1.9725184 0.11098576 -2.2098203 7.1084843
-2.4460046 -5.329721 1.6683035 -5.898179 2.8356352 4.3681436 -2.6259181 0.2639381
2.9234176 0.6535362 -0.78950673 -2.8091433 -4.599474 -2.1044307 4.14209 6.604645

encoder2.1.running_var f4 [128]
00000000: b4c2 b53f 79b4 1441 7d30 5b40 f26e 4c40
00000010: 8a27 9540 91e4 5541 37fb 9140 40e3 2741
00000020: 5e33 5b40 465b 7d41 62d4 6640 8786 5940
00000030: f964 963f caee 5a41 ff4b 5540 079a a540
00000040: 1f9b 6640 6e15 c640 a4a3 4640 d45f e640
00000050: 786f f440 82f4 3b40 a549 3c40 3768 943f
00000060: 58c7 4d40 8ef0 3340 f78e ff40 a0d5 6640
00000070: 0ee1 fd3f 8901 3d40 4f64 893f 84aa ba40
00000080: b9da 4240 e4a0 7e40 6a7a 1c40 e83e 6b40
00000090: 940a 7f41 4a61 1141 7531 ea3f 0fc3 1c41
000000a0: 78b9 dd40 4d33 2540 c7a4 0d40 9aa7 1c41
000000b0: d25a 8540 24ca fa3f 365f 3041 e87c 6740
000000c0: c87e 2740 95d0 9c40 7c69 7640 040b b740
000000d0: eda6 5f40 7283 2a41 840c 2541 10fa d440
000000e0: 5886 fc3f ebd0 5440 103c 5340 fbce 1340
000000f0: e045 9040 8090 2341 197a 3841 da06 8b41
00000100: 8d24 1f41 4e42 3541 cdf1 2741 ffa4 3841
00000110: dd2c 973f 846d fb40 85ab 2641 d2d3 3840
00000120: 759e 7740 7d74 9040 0123 7640 fe9d 9340
00000130: 1e09 ae40 f3f0 4140 1e72 5b40 fd67 9941
00000140: b1bf 9740 e98f dd3f e40c ff3f 5648 3b40
00000150: a12a 7740 5cfa 0540 0f9e fb3f 11f6 3941
00000160: c23e f440 d4dc 5e41 b871 7141 6fe5 5a41
00000170: 0528 8041 6ced 6941 7659 4241 4ef3 d440
00000180: 58f8 2a40 29a8 0541 31d3 6c40 441e 2640
00000190: b98d 5740 bf64 6140 88eb 1340 f839 8940
000001a0: 4e18 fe3f 5fb4 b940 41f4 d540 e80d 9b40
000001b0: 7722 1141 5afe 0441 9c2e f840 d7f3 0040
000001c0: 5f63 2841 3c02 0140 1229 6141 8081 8540
000001d0: 1fd7 2c41 740f a441 3738 7d40 5c8f 2241
000001e0: fa21 fe3f 9243 2e41 6bc0 5441 e65d ae40
000001f0: 2a3f 8640 1e46 0541 9637 b240 ecf8 2940
1.4200044 9.294061 3.4248345 3.1942716 4.6610765 13.368302 4.561916 10.492981
3.4250102 15.834784 3.6067128 3.398836 1.1749564 13.683298 3.3327634 5.175052
3.6032178 6.190116 3.1037378 7.199198 7.638607 2.9367986 2.941995 1.1594304
3.215292 2.8115573 7.986202 3.6067886 1.9834306 2.9532187 1.0733737 5.833315
3.0445998 3.97857 2.4449716 3.6757145 15.940083 9.086252 1.8296343 9.797622
6.92889 2.5812562 2.2131822 9.790918 4.1673365 1.9592938 11.023245 3.6169987
2.617113 4.9004617 3.8501883 5.7200947 3.4945633 10.657091 10.315556 6.655525
1.9728498 3.3252513 3.300541 2.309508 4.5085297 10.222778 11.529809 17.378345
9.946424 11.328688 10.496533 11.540282 1.1810566 7.8571186 10.416875 2.8879285
3.8690464 4.5142198 3.8458865 4.613036 5.438613 3.0303314 3.4288402 19.175776
4.74215 1.7309543 1.9925809 2.92629 3.8619769 2.0934057 1.9657611 11.622575
7.632661 13.928913 15.090263 13.681014 16.01954 14.620464 12.146841 6.6547003
2.6714077 8.353555 3.70039 2.5955973 3.368025 3.521774 2.3112507 4.2883263
1.9851167 5.803268 6.686066 4.8454475 9.070914 8.312098 7.7556896 2.0148828
10.5242605 2.0157614 14.072527 4.172058 10.80252 20.507545 3.956556 10.16
1.9854119 10.891497 13.296977 5.448962 4.1952105 8.329618 5.5692854 2.655818

encoder3.0.weight f4 [128, 128]
00000000: f4e3 04bc 47e3 ddbc 5faa 08bd f5d6 4fbc
00000010: ae55 333d 7759 d6bd 359f 23bd 03d5 6b3d
00000020: 3950 743b d7f8 81ba c31d d5bd 8343 d33c
00000030: 2073 05be 4f64 923d 1f97 0d3d f186 9d3d
00000040: 23be acbd a34d 6abd 9d7f 293c 6176 28bd
00000050: afa6 96bd 419f 3d3d 40e0 783d c2c5 013c
00000060: 620e f53c 2344 073e 33c9 9e3d ce85 67bd
00000070: 3765 65bd 0f31 c63c 235d 853d 6514 023e
00000080: 493a 3d3d 951b e83c b37f 213d 2af1 5e3d
00000090: f62d 183d 33a1 19bd a6bc 133c 9a3c 6c3d
000000a0: fe91 953d 3f54 3bbd 2b36 4d3d 4654 3ebd
000000b0: b63b dbbc 7d90 073d 7f88 8b3a 2802 21be
000000c0: abed b23d 1a8a aa3b ef8d 883c 9c2f 5bbc
000000d0: 3a4d d8bc 6fa9 b1bc 7722 68bd d79a c4bd
000000e0: fb00 26be 410b 17bc 2444 38bd fe71 19bd
000000f0: 1d6b 7a3d a8ee 1f3d 86a2 c7bb 8610 b0bd
00000100: 19a8 8bbd 9295 17bd ee06 d93d 474d 1bbd
00000110: 1cef bdbd fd92 ea3d 8362 08bc bfb9 7c3b
00000120: 622a ef3d 7a8b 0bbe 6151 5d3c 803c 98bd
00000130: 840a 953b 8544 2c3c 4b30 17be c16c d23c
00000140: aae7 30bd c5b3 29bd 7a0c c9bc 4725 c3bc
00000150: 62a8 5fbd 910a 71bd 4e00 aa3d d8cd 40bd
00000160: 77ad a03d 00a8 823d 560e 98bc ccb9 5c3c
00000170: bcb6 8dbc 42c9 223d f605 87bb 391a 813d
00000180: 869c 75bd a347 b2bd 935b 99bc d7ed e73c
00000190: 7eab 8d3c 604c 2d3c fcdd 91ba 8d35 8c3d
000001a0: c071 d4bc da58 6e3d 43ec 313e c8ea be3d
000001b0: ed65 323d 495d e8bd 0fe2 263d a66d 8b3d
000001c0: eb61 a8bd ffc2 7ebd 05a0 87bd e88d 2f3d
000001d0: 133f 42bc 1ee7 dc3d 29aa a1bb 261e cbbc
000001e0: 651a 0abc 31f5 953d 9951 c7bd eeda 473e
000001f0: aaf3 98bd 0451 68bc 7d51 aebb ba0c 9fbc
00000200: 9a90 bbbb 738f 163d 0d20 a73d b375 d1bc
00000210: 252b c8bd 5e80 bb3d c6ef 8b3d 8242 1a3c
00000220: 44ad 083e 3096 e33d d482 813b 9682 523c
00000230: f159 2a3d 0bfb 9c3c 93bd ed3d 4b8c 403d
00000240: cf14 583d b997 f43d c134 af3b b3fc 85bd
00000250: 17d2 5e3d 3b27 ca3b ff34 74bd 9293 093d
00000260: cc08 69bd 9489 83bc 067c db3c 1ec4 953d
00000270: e5b3 73bc 95d6 e6bd 1cf1 10bd d9d5 513d
00000280: f089 c8bc 24ad ab3d 246e 433d fe6b 413d
00000290: 1337 cd3d 11b4 bd3c b21f a83d a620 e9bc
000002a0: 02b9 3338 aff6 e93d f533 903c c143 fa3c
000002b0: 8d27 75bd 784c a5bd 8482 fc3d ac29 59bd
000002c0: 4289 89bd 08f0 bebd 74aa 423d 7993 6e3d
000002d0: 1db5 0cbc 521d cf3d d405 9b3d 9f5d c03d
000002e0: 90ba f03c 8931 8abd 006e 50bd 7848 3ebc
000002f0: 289a 94bc 9456 653d c149 f43d 2977 513c
00000300: df88 85bd dfa2 533d d3a3 143d d635 313d
00000310: 9a21 ba3c aa65 e33d d843 073e 323c 823d
00000320: 6e28 d63c e9d6 bf3b 708d 003e 93a1 2ebd
00000330: dacf a43d 7b93 f63d 05ad 483d 5b9a 0e3e
00000340: 78f7 9ebd 0f56 803d 1369 9ebd e275 94bd
00000350: a56b 673d f279 c5bd f0c1 ecbc 0266 0c3e
00000360: 7131 1d3d 8d04 c43d 67b0 0f3c 7ada 993d
00000370: d94a 303d b760 5ebd 119a d63d 3d74 3bbd
00000380: 93dd 143d df18 803b 78d6 c8bd 0353 bd3c
00000390: 2005 a4bd 7aad bc3d 4149 773d fb97 87bd
000003a0: 5117 97bd 7593 74bd 0ce7 1d3d 539b 013e
000003b0: f7a0 4c3d 18a4 b3bd c4f8 273d c1bf 083d
000003c0: 66de c8bd 8f9a e5bc a760 fb3d 7677 f5bc
000003d0: 5edb 363d 73e1 f43d f14e c03d f4e4 193d
000003e0: 2939 f63d 9e96 c33b ba1d c8b9 c1aa 4bbb
000003f0: 7a8d 563d b161 9d3d b3f1 9e3d 2fad 713d
-0.008110989 -0.027085913 -0.033365604 -0.012685527 0.043782882 -0.10466283 -0.039946754 0.05757619
0.0037279262 -0.0009916079 -0.10406067 0.025789028 -0.13032198 0.071480386 0.03456795 0.07691754
-0.08434703 -0.057202946 0.010345367 -0.04112852 -0.07356011 0.046294454 0.060760736 0.007920684
0.029914085 0.13209586 0.077532195 -0.05652409 -0.05600473 0.024193315 0.06511905 0.12703092
0.046198163 0.028333465 0.039428424 0.05442921 0.037153207 -0.037507247 0.009017145 0.05767498
0.073032364 -0.04573464 0.050100487 -0.04646709 -0.02676187 0.03309678 0.0010645537 -0.15723479
0.08736738 0.0052044513 0.016669242 -0.01337805 -0.026404012 -0.021687238 -0.056673493 -0.09599846
-0.16211312 -0.009218992 -0.04498686 -0.037462227 0.061137307 0.03904596 -0.0060923724 -0.085969016
-0.068191715 -0.037007876 0.10597025 -0.037915494 -0.09274122 0.11453817 -0.008324268 0.0038562862
0.11678006 -0.13627425 0.013508172 -0.074334145 0.0045483727 0.010514383 -0.14764516 0.025686624
-0.043189682 -0.041431207 -0.024542082 -0.023821486 -0.05460394 -0.058847968 0.08300839 -0.047071308
0.07845586 0.063797 -0.018561523 0.013472032 -0.017299049 0.039742716 -0.0041205836 0.0630383
-0.059963726 -0.0870507 -0.018720424 0.028311653 0.017293688 0.010577291 -0.0011128779 0.068461515
-0.025933146 0.058190204 0.17375283 0.09322125 0.043554235 -0.11345918 0.04074293 0.06808023
-0.08221801 -0.06219768 -0.06622318 0.04285994 -0.011855858 0.107862696 -0.0049336147 -0.02479465
-0.0084291445 0.07322157 -0.097323604 0.19517109 -0.0746835 -0.014179472 -0.0053197728 -0.019415248
-0.005724025 0.036757898 0.0816041 -0.025568819 -0.09773854 0.091553435 0.068328425 0.009415271
0.13347346 0.1111263 0.0039523635 0.012848517 0.04158968 0.019162675 0.11608424 0.047008794
0.05275422 0.11943001 0.005346865 -0.06542339 0.054399576 0.0061692274 -0.059620854 0.033588
-0.056893155 -0.016056813 0.026792537 0.07312797 -0.014874433 -0.11271397 -0.03538619 0.05122933
-0.024479836 0.08382633 0.04771246 0.04722213 0.1002027 0.023157151 0.082091704 -0.02845795
4.2849228e-05 0.11424004 0.0176029 0.030549886 -0.05985217 -0.08071226 0.123295814 -0.053018257
-0.06715633 -0.09323126 0.047525838 0.05824611 -0.008588103 0.10113014 0.07569471 0.09392857
0.029385835 -0.06747729 -0.050886154 -0.011613958 -0.018139914 0.05599077 0.1192813 0.012784758
-0.06520247 0.051668998 0.036289047 0.043264233 0.0227211 0.11103375 0.13209474 0.063591376
0.026142325 0.0058544767 0.12553954 -0.042634558 0.08047457 0.120398484 0.04899313 0.1392607
-0.07762045 0.062664144 -0.07734885 -0.07249047 0.056499142 -0.096424 -0.02890107 0.13710788
0.03837723 0.095711805 0.008770085 0.07512374 0.04304013 -0.054291453 0.104786046 -0.04576515
0.036344122 0.003909215 -0.09806532 0.023110872 -0.0800879 0.092127755 0.060372595 -0.06620785
-0.07377494 -0.05971094 0.03855042 0.12656908 0.049958196 -0.08771533 0.041008726 0.033385996
-0.09808044 -0.0280278 0.12274294 -0.02996419 0.0446428 0.119570635 0.09390057 0.037571862
0.12022621 0.0059688827 -0.0003816912 -0.003107712 0.052381016 0.07684649 0.07760944 0.05900305
