saved-model/gammatone/unet/gammatone-unet-valve-6.pkl (torch, 773150 bytes, 56 tensors)

encoder1.0.weight f4 [128, 320]
00000000: fd6b 013d 6797 bd3a 6d03 26bc 8dfc 8a3b
00000010: 7230 473c 4c5f db3c 67ad 203d ee2b 133b
00000020: 954e 5dbd 55a9 31bc b2f9 e7bc f08a 4c3c
00000030: 2404 29bd d53c 14bd af9a 613c 400c 35bc
00000040: 5deb 70bd 0031 123b 85ed 4bbd 3c4c 3abd
00000050: 61cc b6bb b485 96bd 6dc0 77bd 52a0 15bd
00000060: 167f 43bd ceef fbbc 1329 bdbc dfa8 f9bc
00000070: 2307 46ba 0dbb 243d c26c 6ebd fe6e 503c
00000080: 026b 1dbd 2559 133d 59d7 2bbb 0b83 65bd
00000090: 2bb3 a5bc 2ee5 86bd 58a9 fdbb a292 83bd
000000a0: c715 46bc bb51 25bd 2d5b 8bbc fe46 993d
000000b0: 7951 da3d e7b4 d03d 7c24 093e 235f 203e
000000c0: 3dc1 323e 2b72 153e 87f4 693e 3895 253e
000000d0: 7c9a e13d 0c07 0b3d 129b d9bc 64c6 873c
000000e0: cacc 90bc 6475 c6bd 54c5 63bd c350 a5bd
000000f0: ad12 d6bd 9910 bebd f036 9fbd 8e86 1cbc
00000100: b753 0a3d 8540 343c 5415 943c 2a00 9f3c
00000110: ea5c d6bc 71c3 01bd 73d4 42bd eb8a d1bd
00000120: b9fe 9bbd b97b adbd 936c acbd a812 16bd
00000130: 8a5e 10bd cecd a1bd 6e94 3c39 eb7b 37bd
00000140: bad6 3cbd 1125 88bd 040c da3b 55e1 1abc
00000150: 5dd9 c93b 3868 833d 5e02 fd3d 02dc 813d
00000160: 94c5 c93b 0ee0 37bc fee0 febc e7c2 873d
00000170: a101 363d 3eb5 a23d 02e3 2e3d 8718 bfbc
00000180: 8dc3 d73b 7468 6b3c ca19 fa3c a79f babc
00000190: 434d cd3c 4eca ee3c 5cf5 bdbc 744f 8a3d
000001a0: 7f2d e63d f6ac b03d 4ce9 813d 69ef cb3b
000001b0: 5755 983b 6e39 c4b9 400e c13d 8792 393d
000001c0: 6b46 24bd 5ec5 123d c59f bd3c 94a7 f73c
000001d0: 95b0 a23d bbc6 b43d 544f 013e e0ae 843d
000001e0: c753 fa3d 86a9 903d e44f bf3d 9582 973d
000001f0: 127d b03d 0f51 c53d bfff 023e f1e2 b43d
00000200: 7e5f 0abc 2276 a4bc 21b4 853c 0da0 dbbc
00000210: 7b16 453d 9183 9b3d dbdf bd3d a96d e63d
00000220: 3451 913d 6150 9a3d 69f8 cfbc b842 1bbd
00000230: d347 56bc ca4f 19bd ed68 7d3c 159a fbbc
00000240: fd23 12bd 3b4b 8dbc 94a9 b7bc 689e 37bd
00000250: 690d c8bc e27f 85bd 6e13 c6bd 82cf cfbd
00000260: d8dd 23bd 37dc e5bb 2e7d 87bd 7003 d2bc
00000270: 5ef9 5ebd c97a 093d 405b 88bd bffc 85bc
00000280: 3606 0e3c 23b1 23bc be98 80bd 3fdd c13c
00000290: a20d 44bd aeef a0bd d967 70bd f69f d1bc
000002a0: 6ecb a5bd 1b13 3dbc 0e72 06bd 6587 f2bc
000002b0: 1d52 0abd 4329 b73d 44f0 be3d d2c3 333d
000002c0: 6a68 1b3d ed47 483d a09c e83d 0b3c c33d
000002d0: a1a9 a43d a80a 403b 1f23 1d3a 63d7 66bd
000002e0: c7fa d5bc d03d 2d3d c992 14bd 965e b3bc
000002f0: 5593 5fbd 0c88 043d 9d4a e0bb 9ee7 77b8
00000300: 4ad8 d13c ce67 e53c 90dc 75bc e967 94bb
00000310: 496d 43bd 5c99 d33c 773a 8d3d cf74 7b3d
00000320: fd78 c73c d629 f2bc 790e 08bd 0d0a c9bb
00000330: fc5b 4fbd bd17 39bd 4112 9dbd af9d a1bd
00000340: 0404 1dbd b878 0b3d b78e 05bd 17f1 cf3b
00000350: 7624 27bd 35f1 21bd fb04 313b 953c 97ba
00000360: 0c3e 953b a453 66bd a1eb abbc 09a1 51bd
00000370: 46cf 59bd d9bf 583c beb4 78bd 38f5 afbc
00000380: 92ed 21bc a471 d7bc 66b5 c33c 9db8 a53c
00000390: 8dce b4bc 4726 20bd 0345 f4bc f617 5bbd
000003a0: 8da9 d03c ee3d 25bd 4ad8 ff3c 50b1 1abd
000003b0: 9cce d63c 65bc f63c d8bf be3d ffa8 613d
000003c0: 1c1f da3c 656a b13c 4e94 573d a38e 003d
000003d0: c7f4 ba3c c38c 313c aa2d a03c d403 723d
000003e0: bea3 603d 6c09 ee3c 1dab 423d c584 92bc
000003f0: 92ff 8cbb 55d5 a3bd 078b 3ebc a0fc 0c3a
0.031597126 0.0014464677 -0.010132653 0.004241532 0.012157546 0.02677884 0.03922787 0.0022456604
-0.05403002 -0.010843595 -0.028317306 0.012484297 -0.041263714 -0.036190826 0.01376979 -0.011050284
-0.05881821 0.0022307038 -0.049787063 -0.04548286 -0.005578563 -0.073497206 -0.060486246 -0.036529846
-0.04772862 -0.030753996 -0.023090875 -0.030476032 -0.0007554164 0.040217448 -0.05820919 0.012721775
-0.03843213 0.035973687 -0.0026220887 -0.056033175 -0.020227036 -0.06586681 -0.0077411346 -0.06424452
-0.012090153 -0.040361147 -0.01701125 0.07484244 0.10660071 0.101907544 0.13392824 0.15661292
0.17456527 0.14594333 0.22847186 0.16170204 0.11015794 0.033942267 -0.026563201 0.016574092
-0.017675776 -0.09690359 -0.05560811 -0.08072045 -0.10452781 -0.092805095 -0.0777415 -0.009553565
0.033771243 0.011001711 0.018076576 0.019409258 -0.026167352 -0.031680528 -0.04756589 -0.102315746
-0.07616944 -0.08470864 -0.084191464 -0.036638886 -0.03524641 -0.07900582 0.00017984372 -0.04479591
-0.046103217 -0.06647695 0.0066542644 -0.009453137 0.006159945 0.064163625 0.12353967 0.06340791
0.0061575864 -0.011222852 -0.031113144 0.066289715 0.044435147 0.079447255 0.04269696 -0.023327125
0.0065845908 0.014368165 0.030529875 -0.022781206 0.025061255 0.0291492 -0.023188286 0.06753436
0.112391464 0.0862674 0.06343326 0.0062236083 0.004648845 -0.00037426822 0.09426546 0.045305755
-0.04010622 0.035832755 0.023147473 0.030231275 0.079438366 0.08826967 0.12627918 0.06478667
0.122230105 0.07063584 0.0934141 0.073979534 0.08617605 0.09634601 0.12792872 0.08832348
-0.008445619 -0.020075861 0.016321244 -0.026809717 0.048117142 0.07593454 0.09271213 0.11251385
0.070955664 0.07534862 -0.025387006 -0.037905425 -0.013078648 -0.03742961 0.015466911 -0.03071312
-0.035678852 -0.017247787 -0.022419728 -0.044828802 -0.024420457 -0.06518532 -0.09671675 -0.10147001
-0.04000649 -0.007014777 -0.06615673 -0.025636405 -0.054437034 0.033564363 -0.066580296 -0.01635587
0.008668473 -0.009990963 -0.06279133 0.023665069 -0.047864564 -0.07858215 -0.058692787 -0.02558897
-0.08095442 -0.0115402 -0.032823615 -0.029605577 -0.033769716 0.08943417 0.09323171 0.04388792
0.037941374 0.04889672 0.11357999 0.09532937 0.08040167 0.0029303227 0.0005994308 -0.056357753
-0.026120557 0.042295277 -0.036272798 -0.021895688 -0.054583866 0.032356307 -0.006844832 -5.91051e-05
0.02561583 0.0280036 -0.0150061995 -0.0045289886 -0.047711644 0.025829963 0.06895917 0.061390694
0.024349684 -0.029560965 -0.033216927 -0.0061352313 -0.050624833 -0.045188654 -0.07669497 -0.07891404
-0.038333908 0.034050673 -0.032606807 0.006345879 -0.040806256 -0.039536674 0.0027011025 -0.0011538441
0.0045545157 -0.05623211 -0.02098638 -0.051178966 -0.053176187 0.013229334 -0.060719244 -0.021479234
-0.009883301 -0.026299305 0.023890208 0.020229632 -0.022071147 -0.039099004 -0.029818064 -0.053489648
0.025471473 -0.040342264 0.031231064 -0.037766755 0.026221566 0.03011913 0.09313935 0.055092808
0.026626162 0.021657178 0.05263167 0.03138603 0.022821797 0.010836783 0.019553024 0.059085682
0.054843657 0.029057227 0.047526468 -0.017885575 -0.0043029273 -0.07999674 -0.011629826 0.000537822

encoder1.0.bias f4 [128]
00000000: 8ad5 54b7 d9db 3337 91af bd38 1c04 a437
00000010: c323 8db6 7ea9 2a37 1c64 9337 fc3d 0e37
00000020: 6cb3 9cb7 cdeb b9b7 aac1 0237 bbdb df38
00000030: 7b68 c236 9010 9ab6 fbca 10b8 9440 d437
00000040: 5944 a4b7 3e40 df38 45c1 6137 e23c c336
00000050: f6aa ec38 b6b4 6b38 8792 6738 4167 7c37
00000060: fdad 9637 7d77 1e38 8e67 9338 a3be e0b6
00000070: c0c8 8d38 9d37 16b7 d8ac 3538 c59d 3338
00000080: 1480 f937 3335 1e38 3177 3838 7518 fd37
00000090: 9e83 0538 3314 9a37 62a9 1e37 af0c a0b7
000000a0: e8a5 0738 ed2e 2238 56e3 e737 e183 1f38
000000b0: 7cd7 5eb7 c40b 1b37 66a0 8c37 242e e137
000000c0: 0a8a 0838 82dd e037 161b 1738 4bcb b038
000000d0: b042 a138 d4c7 9438 e007 7238 c537 33b8
000000e0: 4854 f637 0a15 6f37 cb58 9e37 eccf 9937
000000f0: 032f 02b8 00c4 c037 1995 4d38 216d 6bb6
00000100: 76f5 0ab7 f18f 6337 ad2b 6a38 fcfd e437
00000110: dc7a 1538 a938 a4b8 7413 e6b6 911e 43b7
00000120: f600 0e38 2fdd 5b38 99fe 8837 abff 40b7
00000130: 1328 ba37 4082 f738 dc8e 4a38 e8c4 c037
00000140: 213c f8b6 176f 7838 2411 8338 9b82 5f38
00000150: 9548 e137 3c3a 1a38 2975 c638 ff97 a338
00000160: a0c7 1338 aa78 dc37 ec8a f2b6 9580 5f36
00000170: b964 9c38 0ac9 9137 ad2e 8cb7 49b9 e437
00000180: a9f4 d4b7 6279 8538 8be0 9939 1274 3938
00000190: 9d09 54b7 fc21 dab6 1781 b1b8 9c86 1d39
000001a0: 8619 8a36 b21e b5b7 886c 9837 8aa8 ceb7
000001b0: 59fd 12b8 3cdf 4bb8 4b58 8e38 2af9 e437
000001c0: fb6e 6a37 f063 9838 888a 6636 8fc6 6a38
000001d0: 9060 d737 b923 0f39 8b91 c837 9b70 8c38
000001e0: e0f0 62b6 4119 1f38 fddf a337 8086 1738
000001f0: 2fd8 7438 783a e837 1216 8038 2945 81b7
-1.2685903e-05 1.0720419e-05 9.044924e-05 1.9552237e-05 -4.2062907e-06 1.0172253e-05 1.7570383e-05 8.478291e-06
-1.8680199e-05 -2.2163522e-05 7.793695e-06 0.000106743966 5.7938137e-06 -4.591486e-06 -3.4521316e-05 2.5302441e-05
-1.958215e-05 0.00010645435 1.3456044e-05 5.8185406e-06 0.00011285201 5.6196666e-05 5.5211156e-05 1.5044411e-05
1.7962413e-05 3.7781418e-05 7.028795e-05 -6.6979132e-06 6.7607965e-05 -8.953645e-06 4.3314736e-05 4.282386e-05
2.9742754e-05 3.771968e-05 4.3980024e-05 3.0171339e-05 3.183225e-05 1.8367637e-05 9.456971e-06 -1.9079393e-05
3.234102e-05 3.8667513e-05 2.7643207e-05 3.8031376e-05 -1.32824025e-05 9.241459e-06 1.6763992e-05 2.6843576e-05
3.2553486e-05 2.6806028e-05 3.602643e-05 8.4302e-05 7.6895e-05 7.094411e-05 5.770463e-05 -4.2728865e-05
2.9364732e-05 1.4250409e-05 1.8876415e-05 1.8335842e-05 -3.10382e-05 2.2979453e-05 4.9014667e-05 -3.508125e-06
-8.282592e-06 1.3563768e-05 5.5830624e-05 2.7297989e-05 3.563879e-05 -7.830683e-05 -6.856799e-06 -1.16300225e-05
3.3856333e-05 5.2419662e-05 1.633102e-05 -1.1503619e-05 2.2191589e-05 0.00011802139 4.82936e-05 2.2979875e-05
-7.397976e-06 5.9231268e-05 6.2497595e-05 5.328898e-05 2.6855889e-05 3.6770696e-05 9.4631985e-05 7.800757e-05
3.5233446e-05 2.6282232e-05 -7.2283347e-06 3.3304434e-06 7.457421e-05 1.7378963e-05 -1.6711036e-05 2.7265998e-05
-2.5386298e-05 6.3645435e-05 0.00029349732 4.4215536e-05 -1.2638423e-05 -6.5008626e-06 -8.4640626e-05 0.00015022833
4.115692e-06 -2.1591175e-05 1.817035e-05 -2.4635596e-05 -3.504506e-05 -4.8606875e-05 6.7875335e-05 2.7295744e-05
1.39733265e-05 7.2665396e-05 3.4353307e-06 5.597487e-05 2.5674963e-05 0.0001365085 2.3909632e-05 6.6966946e-05
-3.3816832e-06 3.7932074e-05 1.9535417e-05 3.612647e-05 5.837547e-05 2.7683782e-05 6.1076265e-05 -1.5410204e-05

encoder1.1.weight f4 [128]
00000000: 9fe7 2840 9670 2040 35f6 2b40 df3e 2e40
00000010: 7aa4 2740 ed4e 3040 a2df 2440 26a4 3140
00000020: ee07 3d40 f412 2240 8a67 2740 78a9 2a40
00000030: d48a 2e40 7fa3 2840 7ead 2f40 53bb 2740
00000040: 954e 2840 0ba5 1d40 1b86 2d40 7c74 1b40
00000050: b847 2340 54fa 2940 7f2a 3140 1a33 2640
00000060: 5f52 1b40 7b06 2a40 5751 1f40 5a5b 2940
00000070: b2d0 3a40 126e 1540 656e 2a40 aefc 2d40
00000080: 8359 3140 0027 2c40 f855 2d40 c666 1e40
00000090: a385 2440 0676 2340 c5aa 2b40 3edd 2840
000000a0: 5f33 2a40 8a38 2540 f054 2c40 2ab5 2940
000000b0: 532a 2240 e143 2b40 d8ae 2340 ebd2 2940
000000c0: a21a 2d40 77cc 3940 a68b 3040 be9e 3740
000000d0: e6a7 3c40 bcf7 2b40 2673 2a40 fa95 2c40
000000e0: 4ca5 3240 ba27 3c40 2c50 3040 64d8 2a40
000000f0: 469a 2440 7eef 2c40 1b09 1e40 1f7c 2b40
00000100: 5175 2e40 2ff7 3240 4c2f 2440 93cd 2640
00000110: 7872 2440 6409 2040 01d3 2b40 a61c 2640
00000120: 910c 1e40 4729 2a40 3ab2 3040 a76f 1640
00000130: 7fcf 2540 354a 2340 e8d5 2d40 4cae 2640
00000140: 6761 3040 0d23 2a40 a61b 2f40 56fb 2b40
00000150: 7bf2 2740 0345 2e40 d6a2 1d40 93af 2940
00000160: 13f0 2b40 b9f1 2040 5086 2a40 5889 2a40
00000170: 9c0c 2440 7757 3240 6422 2940 3341 2b40
00000180: f772 3840 1fd0 2d40 e3c2 3340 ba34 2040
00000190: 51ab 2c40 6004 3140 2afd 2140 4635 3040
000001a0: f15e 2640 986e 2f40 b518 3040 0edc 2740
000001b0: 2028 2c40 2c52 2c40 724b 3240 1895 2f40
000001c0: e4cd 3840 2313 3040 10ae 2840 c380 2e40
000001d0: 839d 3140 0929 2940 ee5d 3240 1d9c 3340
000001e0: 3906 2640 317a 2d40 d84b 2240 c8df 3040
000001f0: 9032 2940 6f7f 2d40 e999 1f40 2242 2940
2.639137 2.5068717 2.6869023 2.7225873 2.6194139 2.7548172 2.5761495 2.7756438
2.953609 2.5324068 2.6156945 2.6665936 2.7272234 2.634979 2.7449641 2.6208084
2.6297963 2.4631984 2.7113101 2.4289846 2.5512524 2.6559038 2.7682188 2.596869
2.4269025 2.6566455 2.4893396 2.6462007 2.9189878 2.3348432 2.662988 2.7185473
2.7710884 2.6898804 2.708372 2.4750228 2.5706565 2.5540786 2.682298 2.6385036
2.6593854 2.5815759 2.6926842 2.6516824 2.5338333 2.676018 2.5575466 2.6534984
2.7047505 2.9031045 2.7585235 2.8690639 2.9477477 2.6869955 2.663278 2.6966538
2.791339 2.9399247 2.7548933 2.6694574 2.571916 2.7021174 2.4693058 2.6794508
2.7259104 2.796337 2.5653868 2.6062973 2.5694866 2.5005732 2.6847537 2.5954986
2.469517 2.6587694 2.760878 2.3505647 2.5907896 2.5514042 2.7161808 2.6043882
2.755945 2.6583893 2.7360625 2.6872153 2.6241748 2.7229621 2.4630637 2.6513412
2.686528 2.5147536 2.6644478 2.6646328 2.5632696 2.7865884 2.642724 2.6758544
2.882017 2.7158277 2.80877 2.5032182 2.6979563 2.765892 2.531077 2.7532516
2.5995448 2.741125 2.751508 2.622806 2.689949 2.6925154 2.7858548 2.743475
2.8875666 2.751168 2.635624 2.726609 2.7752388 2.6431296 2.786983 2.8064034
2.5941298 2.710583 2.5358791 2.7636585 2.643711 2.710903 2.493769 2.6446614

encoder1.1.bias f4 [128]
00000000: 2c04 8d3f 7459 b93f 9449 bc3f 17bf 9a3f
00000010: 764f aa3f 38c0 933f ba10 a83f 1f5e bb3f
00000020: a2fb a03f ab33 d53f b899 a23f a81b 983f
00000030: ed6c 973f 6478 6d3f aecf ab3f 7bc0 723f
00000040: 33a3 783f 4011 943f 5db7 b53f 3507 d83f
00000050: 453c bb3f 64c3 b73f cc35 a43f ded0 a43f
00000060: e59e 383f 0836 bb3f 2d39 d93f 12ab 753f
00000070: 4f0d c03f 8084 cc3f a4dd 9f3f 976e bc3f
00000080: dcdc b93f 2fe0 943f 5592 913f 797b 1b3f
00000090: 2b2e c73f f6c0 9b3f b0ae 803f 465c a83f
000000a0: adee 883f a6f4 9c3f 1eac 8e3f b2ba ae3f
000000b0: 7dfb d53f 2983 7d3f a0fc 903f 6807 bc3f
000000c0: e17a 9a3f 7791 c23f c4b3 9c3f dc68 c23f
000000d0: 1e05 c73f 688d a53f 0eb2 993f deff 803f
000000e0: aba5 bd3f 0f41 903f 07a4 b33f a02f b63f
000000f0: 3ca1 c63f 3876 9b3f 704e dc3f 854e a63f
00000100: 7cc4 a63f 2bb1 a93f d89b 4d3f fc5b b13f
00000110: bb9f c53f c957 cc3f 6e15 b53f 4d56 c33f
00000120: 0312 c23f ddb1 c43f ad03 ad3f 07db d93f
00000130: 64d3 af3f 3ec8 c83f 2949 b93f 414e b73f
00000140: 8952 8a3f 9d6e b13f 3fe0 ad3f d15e 973f
00000150: bb16 823f e46b 933f fe6b da3f 1e25 a43f
00000160: 8a72 993f 5f0c 9e3f 91d1 b53f 7b8a b13f
00000170: 4349 dd3f d179 c43f 2069 753f 5a19 bf3f
00000180: 1548 b73f 3d82 893f c5f9 dc3f a40c e23f
00000190: a8e0 bc3f cfcd ad3f 36ed d33f 89cf ce3f
000001a0: 2d65 a83f f1eb 903f 5a7d aa3f 7fd6 853f
000001b0: 22e0 9d3f ab6a 6f3f 03d8 973f 6fcf a13f
000001c0: 15e9 9e3f a69b 953f bb18 a13f 41a8 9b3f
000001d0: 2707 6c3f 7c4c c53f dbd5 b63f 2185 b43f
000001e0: 48ae 8b3f 0371 b93f b7bc bd3f 6f17 993f
000001f0: b329 aa3f 9f83 873f 5027 cd3f 243b a13f
1.1016898 1.4480424 1.4709954 1.2089566 1.33055 1.1543036 1.3130105 1.4638098
1.2576792 1.6656393 1.2703161 1.188344 1.1830117 0.92761827 1.3422754 0.9482495
0.9712402 1.1567764 1.4196583 1.68772 1.4627768 1.4356503 1.2828918 1.2876241
0.72117454 1.4625864 1.6970574 0.9596416 1.5004061 1.5977936 1.2489514 1.4721249
1.4520526 1.1630915 1.1372782 0.6073528 1.5560964 1.2168262 1.005331 1.315316
1.0697838 1.2262161 1.1146276 1.3650725 1.6717373 0.9902826 1.1327095 1.468976
1.206875 1.5200642 1.224236 1.518825 1.5548437 1.2933779 1.2007463 1.0078084
1.4816183 1.1269854 1.4034432 1.4233284 1.5517955 1.2145452 1.7211437 1.2992712
1.3028712 1.3257192 0.80315924 1.3856196 1.5439371 1.596429 1.4147165 1.5260712
1.5161747 1.536678 1.3516747 1.7019967 1.3736386 1.5686109 1.4475452 1.4320756
1.0806438 1.3861881 1.358406 1.1825811 1.0163187 1.1517301 1.7064207 1.2823827
1.198808 1.2347525 1.420458 1.3870386 1.7287983 1.5349675 0.95863533 1.4929612
1.4318873 1.074287 1.7263724 1.7660108 1.475606 1.3578433 1.6556766 1.6157085
1.3155876 1.1322004 1.3319504 1.0456084 1.2334025 0.9352214 1.1862797 1.2641429
1.2414881 1.1688125 1.2585672 1.2160722 0.92198414 1.5413966 1.4284014 1.4103128
1.0912561 1.4487613 1.4823216 1.1960276 1.3293976 1.0587043 1.6027622 1.2596173

encoder1.1.running_mean f4 [128]
00000000: 63c1 6cc2 ea8b 6042 dc61 5342 67ea b841
00000010: a66a ca41 592a 92c0 4956 c342 be9d fd42
00000020: eb50 20c2 1cdb c442 2531 6540 3946 2942
00000030: c656 5bc1 0014 6d42 eff0 5742 b474 8e42
00000040: cc93 ae42 961c e542 e77b 3143 d62c 9642
00000050: a81d c342 5a40 2542 1b40 0b42 1584 c142
00000060: eb7e 3543 a27f 6642 4d57 c242 9449 5942
00000070: 8c9e b742 9a40 b6c3 9d7f 6142 1451 ab41
00000080: f9c6 8742 ee3a 3941 3ae1 1a42 b0d4 1843
00000090: cde1 5542 e704 4642 a494 b941 bee6 4442
000000a0: dca5 3942 28ee b342 9d4b 2242 cca7 1b42
000000b0: 6059 9542 7d5b a942 2547 7042 0a86 c342
000000c0: 9fde 0a42 fb1f 9642 8032 0e42 555e 3842
000000d0: 5c8c b242 d67f 9041 eba5 f641 3367 59c2
000000e0: 79f7 0242 0973 453e 498c 8542 8bcf 4a41
000000f0: 224c c241 809a c042 daad 7a42 4390 a842
00000100: a2d2 b741 5af9 8542 1500 d542 f252 76c1
00000110: 9104 8c42 f5e9 9b42 30d5 37c1 45f8 0842
00000120: 9898 e242 9d92 8a42 38bd 7f42 5f6c 1bc2
00000130: 3ac2 a342 d095 d642 0c6c 8d42 3493 2f42
00000140: ccfe 4942 04e9 0b42 2693 ed41 4d0f 3e42
00000150: 8699 1d43 9850 2c42 93cd bf42 19fe aa42
00000160: 65d8 fe41 d211 2a43 37f2 0542 88c4 9142
00000170: 1028 a642 b710 4642 e0ba f742 e1c1 c942
00000180: 7bf3 2ec1 2cd8 8b42 c81b c342 b21e 2743
00000190: 2d9f bb42 baf9 bf41 6a84 8e42 5e43 d642
000001a0: 2001 5e40 beaf 5e42 1562 3e41 24f9 6942
000001b0: 9fd6 2842 656a 9443 324c fb42 9eb6 f841
000001c0: 57ef 0dc0 6f0e 5a42 3803 c941 1c18 1d42
000001d0: a2ad 4443 439d 9642 5617 c842 fafd 8142
000001e0: 6e09 d1c0 aae5 c941 c34a b742 aaa0 6e41
000001f0: f7ba c242 52dd 4541 4b7e 9e42 88cc ba41
-59.188854 56.136635 52.845566 23.114454 25.302074 -4.5676694 97.668526 126.80809
-40.07902 98.42795 3.5811245 42.318577 -13.708685 59.26953 53.985287 71.227936
87.288666 114.55583 177.484 75.08757 97.55792 41.312843 34.812603 96.75797
181.49577 57.62464 97.17051 54.321854 91.80966 -364.5047 56.374622 21.414589
67.88862 11.576887 38.719948 152.83081 53.47051 49.504787 23.197578 49.225334
46.411972 89.96515 40.57384 38.913864 74.67456 84.67869 60.069477 97.761795
34.717403 75.06246 35.549316 46.09212 89.27414 18.06242 30.831015 -54.35078
32.741673 0.19282164 66.773994 12.67567 24.287174 96.30176 62.669777 84.28176
22.977848 66.987015 106.50016 -15.39525 70.00892 77.95695 -11.489548 34.24245
113.298035 69.286354 63.934784 -38.85583 81.87935 107.2926 70.71103 43.893753
50.498825 34.977554 29.69685 47.514942 157.5997 43.078705 95.90151 85.496284
31.855661 170.06961 33.486538 72.88385 83.07825 49.516323 123.86499 100.87867
-10.934443 69.92221 97.55426 167.1199 93.81089 23.996937 71.25862 107.13158
3.4688187 55.671623 11.898946 58.4933 42.20959 296.8312 125.64882 31.089169
-2.2177331 54.514095 25.126572 39.273544 196.67825 75.30715 100.04558 64.99605
-6.532401 25.23714 91.64602 14.914225 97.365166 12.366533 79.246666 23.349869

encoder1.1.running_var f4 [128]
00000000: 2471 a646 39ae 4246 d160 d145 684e 1546
00000010: 45b9 3d46 8b4c 4b46 ef3f 3846 c900 6146
00000020: 6658 8846 6149 9c45 a2e2 a845 2c3d ce45
00000030: 62a3 d545 1443 a246 5df1 3546 041c ca46
00000040: 9001 9b46 621f ac45 66ab a946 6925 b645
00000050: aa09 bd45 c1b9 e745 8a56 f345 3724 5946
00000060: 4a95 5946 138d 0946 0d56 8745 8f34 3a46
00000070: 0f1b 4546 3494 a946 9a1e 0246 73b1 b245
00000080: 62c9 1146 bfe0 cb45 fde9 d245 8558 0046
00000090: 4352 c245 5e76 5646 d970 e545 7da4 0846
000000a0: 82bd 1e46 3856 6746 a394 cf45 f0e7 df45
000000b0: 8cfb cb45 2faa c046 e252 4b46 0f59 ba45
000000c0: e80d 2d46 d897 1546 1294 fa45 f1bc 2546
000000d0: 99c8 3a46 566e 0246 9481 0c46 822d 4346
000000e0: 0e7a 1446 977f 1c46 2e97 1946 d197 f845
000000f0: 2804 cf45 c2f1 5e46 bdc1 c345 49af 0e46
00000100: 5b04 1746 903a af46 72ae c245 efe1 ed45
00000110: 5d62 9d45 e05f d445 1a1e 0846 84b8 4e45
00000120: 4973 4346 98a7 d245 c048 5846 1a02 e745
00000130: b11c 6e46 7123 f945 6da4 3346 28a5 3946
00000140: d9c9 7846 a8d4 2c46 66ff be45 c4f4 2146
00000150: 9cbc 8c46 fe98 c645 bf95 cd45 e646 8245
00000160: 153f 5146 ab4a e046 6fe5 b645 019e 4146
00000170: 1ea7 aa45 ed5c bf45 402d 6846 35ed 1246
00000180: 33c6 1046 1c89 2a46 6eaf 8545 64bc b945
00000190: 4f8e 4b46 1262 2c46 b501 a845 8e52 1446
000001a0: df6b 6746 9f5e 4346 7a08 0a46 a879 0c46
000001b0: 7631 1c46 6132 2447 06bb 9d46 82b3 4846
000001c0: 1dc4 1446 df03 1646 87e0 1b46 73a5 f945
000001d0: 58bf b446 cb63 e745 9b8f a146 e158 9846
000001e0: 4746 2046 9189 b545 2fe4 2246 e573 fc45
000001f0: eae4 2d46 585c 3146 7370 cf45 a059 ce45
21304.57 12459.556 6700.102 9555.602 12142.317 13011.136 11791.983 14400.196
17452.2 5001.1724 5404.329 6599.6465 6836.423 20769.54 11644.341 25870.008
19840.781 5507.923 21717.7 5828.6763 6049.208 7415.219 7786.8174 13897.054
13925.322 8803.269 4330.7563 11917.14 12614.765 21706.102 8327.65 5718.181
9330.346 6524.0933 6749.2485 8214.13 6218.2827 13725.592 7342.106 8745.122
10159.377 14805.555 6642.5796 7164.992 6527.4434 24661.092 13012.721 5963.1323
11075.477 9573.961 8018.509 10607.235 11954.149 8347.584 8992.395 12491.377
9502.514 10015.897 9829.795 7954.977 6624.5195 14268.439 6264.2173 9131.821
9665.089 22429.281 6229.8057 7612.2417 5036.2954 6795.9844 8711.525 3307.5322
12508.821 6740.949 13842.1875 7392.2627 15239.173 7972.43 11497.106 11881.289
15922.462 11061.164 6111.925 10365.191 18014.305 6355.124 6578.7183 4168.8623
13391.7705 28709.334 5852.679 12391.501 5460.8896 6123.6157 14859.3125 9403.302
9265.55 10914.277 4277.9287 5943.549 13027.577 11032.518 5376.2134 9492.639
14810.968 12503.655 8834.119 8990.414 9996.365 42034.38 20189.512 12844.877
9521.028 9600.968 9976.132 7988.681 23135.672 7404.474 20679.803 19500.44
10257.569 5809.196 10425.046 8078.487 11129.229 11351.086 6638.056 6603.203

encoder2.0.weight f4 [128, 128]
00000000: 0d46 71ba 28a7 adbc e2d9 2abc bf03 e73d
00000010: 2bd4 dfbc 0cf0 7d3d b628 f6bc 4c42 edbb
00000020: 8eca fb3d 702f 3c3d 44ae 8a3d d2f5 46bd
00000030: ec7d 7d3d 4bc8 04be 88fb 9dbd 58d6 093d
00000040: 85bb bdbd 5c27 da3b 44bb 5e3b 1d09 8e3d
00000050: bf56 40bc 0ac8 693d ed83 0e3d 98ea 633d
00000060: 0046 87bd f671 c5bd ea03 203c 5fea 8c3c
00000070: c683 db3d 058b 763d 5812 1c3c d673 b13c
00000080: 0318 b1bd 0ee8 903d 68fe 55bd 7c1e 28bd
00000090: d500 3e3c 1c51 e73c 6f01 a0bd 8581 8ebd
000000a0: e957 3cbd 3bd6 3ebd 797b 923d 8879 0e3d
000000b0: dde5 06bc e11d cbbd 20b7 ab3d 9409 8cbd
000000c0: 0ed2 02be 68c3 b23b 0cb5 84ba 6ed5 443d
000000d0: eb65 8e3d e870 06bd d80b bf3d 77a0 c2bc
000000e0: 3452 9fbd 7997 03bd f0df 673c e6b8 043b
000000f0: 9aca 0bbd 984f 803a 85c0 a83b 468c 8c3d
00000100: 7b1f 06bd 24a9 2e3d ac22 3b3d fe65 37bb
00000110: 2040 713d 998f ee3d 6d24 9a3d 1bf7 a53d
00000120: 8006 e03c ad60 98bd 829d 93bd 6325 ea3d
00000130: faec 923d f414 0fbd 00b8 0ebb 606c e13d
00000140: 0508 b0bd abd5 93bc 4b66 33b8 c158 0b3d
00000150: bc0e 7fbd 89f2 2bbc 4bca 8ebc b2e9 f43d
00000160: f8c8 ccbc 2244 673d d65e c43b dfa8 103d
00000170: 91a4 30bd 23fe 233e b236 a2bd 2856 553c
00000180: 43ee c13d 4fd5 0fbe 1ba3 85bd 5edf f03c
00000190: 6ee6 b3bd 184a a3bc 0869 35bd 42b0 913c
000001a0: 3122 4f3c ad90 bcbd 12f5 80bc 2d40 ba3c
000001b0: 546d 593d f885 06bd de9f b9bd 3512 96bd
000001c0: 2687 aabd d242 08be fb6e 1f3d 614c e6bd
000001d0: 0097 963d 6197 973d b21a 7dbc d6a4 a43d
000001e0: a780 4a3d ee90 95bb 1d1a 06bd abff 54bd
000001f0: fe75 8b3d 097b 693c 6347 d4bd 36f7 ef3c
00000200: 3b36 bb3b 2872 173d 8bba 22bc e737 7a3d
00000210: 239e 153d dd41 88bc 8bac 423d 2932 2f3c
00000220: 9291 29bd 4dd7 263d 5104 793c a5e8 f73c
00000230: 8028 7ebc e228 0abe aa50 853c 1816 b43d
00000240: 75b7 c7bd 7598 4c3d b13f 92bd 9b1c 97bd
00000250: 3d18 3a3d 94eb 093b 8dfa 2c3c 5cbc 7ebd
00000260: ceea 00be 9ebd a83c dbb5 d43d dcc0 a1bc
00000270: 26ef 99bd f23d 873d d149 393c f75c 703b
00000280: 2236 193c b81b 5e3d 1b86 173c 5be4 13bd
00000290: 66fc c83c de63 27bd 6fcf bcbd ec3a 0ebd
000002a0: e820 efbc 0c55 50bd 06f7 263d 8d93 7b3d
000002b0: a1c0 843d 3182 7a3c 6a48 153b 6b40 77bd
000002c0: 2d5b ed3c 3588 af3d a819 16bd 4878 c6bb
000002d0: be90 b43d 290c 41bd 650d 153d 0768 603a
000002e0: 5e07 61bd be94 a1bd b127 2f3d bc38 6f3d
000002f0: 60d3 a23d 439d 483d d365 4abc 5c1e 4bbd
00000300: 1df1 6ebd 99ff 6fbd 5212 eabc 63d2 033d
00000310: 98bc 033d a43d b33d 23a0 a63c 092c 34bd
00000320: 8cf3 0c3d 4404 b73c 545b 20bd d72c 0a3e
00000330: e79d 953a ecfe 893d 5b7f aa3d 98e7 93bd
00000340: 1efa 0bbe 6ebf c93d eace 073e ca13 84bd
00000350: af55 713c 486b d8bb 693b 063d 475c 233d
00000360: 874d 7bbc 41e9 563d 2396 3bbb 2d94 adbc
00000370: 16fc 10bd b7b4 843d 0c03 a6bc 2e03 5b3d
00000380: 7b29 83bc b7f9 d0bd 562f 8cbd 323c 58bd
00000390: 1d40 93bd b830 2b3d 4858 5a3d 7600 8fbd
000003a0: 521d 653d 6b7b 843d 8e02 16bb 1285 68bc
000003b0: 40ee 8a3b f1f7 acbd 5872 a1bd de3d 7e3d
000003c0: 6d69 34bd 9a12 853b 32c2 ee3a 184c 8abd
000003d0: 76af acbd 6310 ba3d 691d 8f3c 534f 82bd
000003e0: ea08 d4bb 724e 5abd 37d9 933d 3366 b2bd
000003f0: 9a2a b7bd 44c8 cfbc e101 d5bd 1105 3ebd
-0.0009203859 -0.02119787 -0.010427924 0.112800114 -0.02732285 0.061996505 -0.03004871 -0.007240569
0.122944936 0.045943677 0.0677152 -0.048574276 0.061887667 -0.1296703 -0.077139914 0.03365168
-0.09264282 0.006657524 0.003398613 0.06935332 -0.011739432 0.057075538 0.034793783 0.055643648
-0.06605148 -0.09640877 0.009766558 0.0172016 0.10718493 0.060191173 0.009525858 0.02166168
-0.08647158 0.07075511 -0.052244574 -0.041044697 0.011596878 0.028236918 -0.078127734 -0.06958298
-0.045982275 -0.046591025 0.07152457 0.03478387 -0.008233515 -0.09917808 0.08384538 -0.068377644
-0.12775442 0.005455423 -0.0010124757 0.048055105 0.06953033 -0.03282252 0.09328431 -0.023758156
-0.07779351 -0.032126877 0.014152512 0.002025181 -0.034128763 0.0009789346 0.0051499032 0.068626925
-0.032744866 0.042641774 0.045687363 -0.0027984376 0.058899045 0.11648483 0.07526479 0.08103772
0.02734685 -0.074403144 -0.072077766 0.11432912 0.07174106 -0.03493209 -0.0021777153 0.11006999
-0.085952796 -0.01804622 -4.2772193e-05 0.03402019 -0.06226991 -0.010494837 -0.017430445 0.11958636
-0.024998173 0.05646146 0.0059927506 0.035317298 -0.043125693 0.16014914 -0.079205886 0.0130210295
0.09469273 -0.14046215 -0.065252505 0.029403385 -0.08784185 -0.019932792 -0.04428962 0.017784242
0.012642429 -0.09207282 -0.015741859 0.02273568 0.05308278 -0.032842606 -0.09063695 -0.073276915
-0.08326559 -0.1330674 0.0389242 -0.11245037 0.0735302 0.0740192 -0.015448259 0.080392525
0.0494391 -0.004564396 -0.032739747 -0.052001636 0.068096146 0.014250525 -0.103651784 0.029292684
0.005713252 0.036974102 -0.009932171 0.06108847 0.036527764 -0.016632969 0.04752783 0.010693111
-0.041398592 0.04073267 0.015198783 0.0302623 -0.015512586 -0.13492158 0.016273815 0.087932765
-0.097517885 0.04995008 -0.071410544 -0.07378503 0.04543327 0.0021044957 0.010557783 -0.062191352
-0.12589571 0.020598229 0.10386249 -0.019745283 -0.07516317 0.06603612 0.011309103 0.0036676505
0.009351285 0.054225653 0.009248282 -0.03610645 0.024534415 -0.040866725 -0.09219252 -0.03472416
-0.029190496 -0.050862357 0.040762924 0.061420012 0.064820535 0.015289829 0.0022778758 -0.060364168
0.02897414 0.08570901 -0.03664556 -0.006056819 0.0881667 -0.047130737 0.036389727 0.0008560423
-0.054938667 -0.078896984 0.042762462 0.058403715 0.07950473 0.0489781 -0.012353378 -0.0495895
-0.058335412 -0.058593366 -0.028573189 0.032183062 0.03216228 0.087519914 0.020340031 -0.043987308
0.034411952 0.022340901 -0.039149597 0.13493668 0.0011414856 0.067380756 0.083250724 -0.072219074
-0.13669631 0.098509654 0.13262525 -0.06449087 0.014729901 -0.006604586 0.0327715 0.039882924
-0.015338308 0.052468542 -0.0028623424 -0.02118882 -0.035396658 0.06479781 -0.020265125 0.05346983
-0.01601099 -0.10203879 -0.06844966 -0.05279178 -0.07189963 0.04179451 0.053306848 -0.0698251
0.055936165 0.064688526 -0.0022889706 -0.014191883 0.0042398274 -0.084457286 -0.078831375 0.06207072
-0.044045854 0.0040610554 0.0018215834 -0.06752795 -0.08431904 0.09085157 0.017470079 -0.06362786
-0.006470789 -0.053297468 0.07219165 -0.08710899 -0.089436725 -0.025364049 -0.10400749 -0.04639155

encoder2.0.bias f4 [128]
00000000: b600 c838 5091 dfb8 5f7a c139 9e6f 70b9
00000010: 87b1 2fb7 dd61 afb9 df4e 7938 d47b 2f39
00000020: 3224 5937 680b 00b9 7bd2 a638 dedf b1b5
00000030: e34c 4139 92f7 c137 4535 fcb7 f9c0 4b36
00000040: c183 7939 7cf1 f937 041e fd38 072e aab8
00000050: f0d5 c139 08ba 92b8 0787 91b8 58e4 aa39
00000060: 1303 d238 acd7 23b8 8eee b038 bd71 9238
00000070: ddb4 0d38 35c6 afb8 3de4 b339 373b 4636
00000080: 7e2c 0eb9 1ca1 8eb7 4b89 35b8 4f0c a1b8
00000090: e659 c238 eb50 35b7 2a97 7b39 8114 04b7
000000a0: 12df f138 d40c efb8 b274 2939 69d7 2238
000000b0: fd15 9cb8 c515 d037 111c 6538 c018 fa37
000000c0: d101 8b39 7c82 84b7 ce99 1b39 1af6 47b9
000000d0: 3237 5039 97b3 8e38 9c3f 1939 3aa6 86b8
000000e0: 1332 3f3a ed40 7038 db86 3139 d52e a739
000000f0: ac36 1338 575d 8938 3704 91b9 907a 5539
00000100: 0084 4738 8467 5a39 937a 273a ec38 a639
00000110: 6825 9338 6917 18b9 0e85 7039 545f 0138
00000120: 64bb 1ab9 7e46 a639 29f7 fb38 a42e 8539
00000130: 32a8 b938 bedf 1339 97c6 87b8 0708 7939
00000140: ad90 1eba 802e 7a39 d7ec cc35 8d89 1138
00000150: 83bf 4a39 2c36 90b8 21a1 15b8 ce64 d137
00000160: b28c e339 e0e5 80b9 4a36 f6b8 a4f5 8f38
00000170: fe1f 8139 a721 28ba 9a0c c5b8 db30 573a
00000180: 909e 6938 1d49 5038 3cba 5aba 36a9 cb38
00000190: a5c3 9eb8 ad68 cf38 ec42 1e38 eb41 cb39
000001a0: bc4e 7fb7 6257 2439 b16a ec38 a351 b239
000001b0: 1fb6 a5b9 eb67 bdb8 bc86 e2b9 b4a3 5a39
000001c0: 1452 9739 f14f bf39 81b9 4439 2b2b 5538
000001d0: 021b ce38 e645 44b9 6ad2 49b8 5223 2e39
000001e0: f0db 89b6 214b 98b9 18cf cbb9 3f76 1c39
000001f0: cdbe 52b9 67e2 5237 6b5a 84b8 71b9 ed39
9.5368756e-05 -0.00010660535 0.00036903002 -0.00022929764 -1.0472147e-05 -0.00033451515 5.943968e-05 0.0001673543
1.2942635e-05 -0.0001221128 7.954702e-05 -1.3252682e-06 0.00018434557 2.3122677e-05 -3.0065547e-05 3.0361682e-06
0.00023795573 2.9795563e-05 0.00012069571 -8.114805e-05 0.00036971224 -6.9964735e-05 -6.9392896e-05 0.00032595056
0.00010014153 -3.906309e-05 8.436768e-05 6.983008e-05 3.378546e-05 -8.381569e-05 0.0003431159 2.9538767e-06
-0.0001355875 -1.7002742e-05 -4.3281627e-05 -7.679371e-05 9.267386e-05 -1.0807281e-05 0.00023993538 -7.872587e-06
0.000115333256 -0.000113987975 0.00016160568 3.8824426e-05 -7.442755e-05 2.480567e-05 5.4623993e-05 2.9813848e-05
0.000265135 -1.5796388e-05 0.00014839249 -0.00019069799 0.00019856988 6.804539e-05 0.00014614913 -6.42058e-05
0.00072935334 5.7280926e-05 0.00016930273 0.00031887615 3.509845e-05 6.550055e-05 -0.00027659695 0.00020358921
4.7568232e-05 0.00020828663 0.00063888094 0.00031704397 7.016474e-05 -0.0001450457 0.0002293775 3.0844778e-05
-0.00014756393 0.00031714508 0.0001201465 0.00025402487 8.852816e-05 0.00014102363 -6.474292e-05 0.00023749481
-0.000604878 0.0002385918 1.5268114e-06 3.4698798e-05 0.00019335565 -6.8765454e-05 -3.567443e-05 2.4961682e-05
0.0004340164 -0.00024585333 -0.00011740306 6.8645255e-05 0.00024628633 -0.0006413706 -9.396039e-05 0.0008208879
5.56992e-05 4.9659157e-05 -0.0008343791 9.711312e-05 -7.570469e-05 9.8900266e-05 3.773246e-05 0.0003876829
-1.5217516e-05 0.00015672811 0.0001127323 0.0003401163 -0.00031606943 -9.0315785e-05 -0.00043206464 0.00020851084
0.00028862117 0.0003648992 0.00018761122 5.082336e-05 9.827876e-05 -0.00018718056 -4.8118098e-05 0.00016607091
-4.1085223e-06 -0.00029047675 -0.00038873474 0.0001492137 -0.0002009824 1.2569689e-05 -6.311092e-05 0.00045342327

encoder2.1.weight f4 [128]
00000000: 362f 7f3f 8304 823f 0dc5 7b3f 3343 823f
00000010: 97a5 793f 9210 833f 80fb 803f 371c 863f
00000020: eddb 833f 484c 893f 8585 823f 4b85 873f
00000030: 4c2f 773f 6f54 7b3f b484 823f 81c8 883f
00000040: fd5a 883f bac7 893f 989a 703f 1f84 803f
00000050: 8c39 833f 6a5f 783f 1bb7 833f c36b 7b3f
00000060: b462 843f a16b 833f 3787 813f e477 7b3f
00000070: d883 863f fd4c 7e3f 7be1 7d3f 0dcf 803f
00000080: 0b88 793f 3cd3 833f f915 843f 3f06 853f
00000090: cf42 813f 57f2 803f cc2d 833f ed81 803f
000000a0: 83dd 893f 7fcf 713f 7eb7 813f da10 873f
000000b0: 3e77 723f b0ab 7e3f 0973 803f 460d 813f
000000c0: 682f 753f 4407 813f 0c37 773f 2f6e 8b3f
000000d0: ee39 8a3f 0efe 823f c303 883f a5e8 7c3f
000000e0: 35ef 713f 8012 863f c1fb 8f3f 1b49 8b3f
000000f0: 7a6d 863f d1b1 803f 6244 853f c336 7c3f
00000100: 9bc0 7c3f ae91 783f dd6b 843f 10d2 743f
00000110: b7d5 803f 4b92 763f 9374 8b3f 9f46 7e3f
00000120: 675b 8a3f e655 863f 0c0f 813f 7bf7 753f
00000130: 8784 863f a948 853f edb1 803f 24a2 7a3f
00000140: 0994 743f 4fa1 843f ea30 753f 90bf 863f
00000150: 75fa 773f 9bd2 843f 650b 843f 8a67 863f
00000160: 3565 7f3f 0468 823f dbf0 883f 5861 853f
00000170: d4fd 783f f799 873f e47b 833f a26a 803f
00000180: 1524 863f e98d 733f 1c9a 873f 3e30 7d3f
00000190: 80df 7e3f cb7e 7b3f 06a7 813f 8e67 7b3f
000001a0: f295 793f 1db6 813f ffe9 803f 5e43 833f
000001b0: 4899 813f d02d 823f e1e9 823f 8f0b 853f
000001c0: 2ee2 813f d248 843f a492 813f bdae 7e3f
000001d0: f1a3 7f3f 7fe5 823f 62af 893f 5613 893f
000001e0: 0e90 823f 385d 863f 89d9 783f c4c4 843f
000001f0: cd61 803f 00de 723f 2615 723f d77a 813f
0.99681413 1.0157627 0.9834755 1.0176758 0.97518295 1.0239432 1.0076752 1.047736
1.0301491 1.0726404 1.0196997 1.0587553 0.96556544 0.9817571 1.0196748 1.0686189
1.0652767 1.0764077 0.9398589 1.004032 1.0251937 0.9702059 1.0290254 0.98211306
1.0342622 1.0267221 1.0119389 0.98229814 1.0508986 0.99336225 0.9917218 1.0063187
0.9747321 1.0298839 1.0319206 1.0392531 1.0098513 1.0073956 1.0248351 1.003965
1.0770725 0.9445724 1.0134122 1.0552018 0.947132 0.99480724 1.0035106 1.0082176
0.9577546 1.0080342 0.9656837 1.0893 1.0798929 1.0233781 1.0626148 0.9879249
0.94505626 1.0474396 1.1248704 1.0881685 1.050216 1.0054265 1.0411494 0.9852106
0.9873139 0.9709729 1.0345417 0.9563303 1.006522 0.96316975 1.0894951 0.9932651
1.0809144 1.0494964 1.0082717 0.9608075 1.0509194 1.0412799 1.0054299 0.97903657
0.95538384 1.0361727 0.9577776 1.052721 0.9686654 1.0376772 1.0315977 1.0500348
0.99763805 1.0187993 1.0698503 1.0420332 0.9726231 1.0593861 1.0272183 1.0032542
1.0479761 0.9513841 1.0593905 0.98901737 0.99559784 0.98240346 1.0129097 0.98204887
0.97494423 1.0133702 1.007141 1.0254934 1.0124903 1.0170231 1.0227624 1.0394152
1.014715 1.0334723 1.0122876 0.9948538 0.9985953 1.0226287 1.0756648 1.0709026
1.0200212 1.0497198 0.9720693 1.0372548 1.0029846 0.94869995 0.9456352 1.0115613

encoder2.1.bias f4 [128]
00000000: 2ca1 fa3d 19d7 d93c 1d3c 183d 1747 fb3d
00000010: 4b0a b63d cfa3 e13c d9c6 3d3d 1c68 883e
00000020: aef5 6c3e e8d8 b93d 4ed1 383e 488d e73c
00000030: a3af dd3d bf81 923d 4369 673d cf56 ba3d
00000040: 9807 4ebc 05bd 5f3e 75ec 4a3e 694c e93d
00000050: 6253 e23d 680a 333d 4a44 333d db55 b03e
00000060: 37d8 503e 40d0 033e 08d2 c43c 2f23 0c3d
00000070: a628 413d e40b 0b3e 85ff 203d da23 173e
00000080: 7759 e53d b914 103d b9dd bd3d 75f0 1e3e
00000090: aab9 a8bb d37d 143e dac5 c83d 96d1 d43d
000000a0: 2377 bd3d 8282 763d 20e9 6a3e 32ae ee3c
000000b0: 6c1a d53e fdfc 943d 4247 12bc 9f58 553d
000000c0: ae79 8e3b ed55 ab3c 3101 323e 5575 5e3e
000000d0: 8f1b ec3e a069 073e 734c 2c3d 87a3 803e
000000e0: fbb0 a0bd 3dfb 263e 259a a83e ffba 9eba
000000f0: fe70 e13d 128c df3a 90d7 7f3e 197f ea3d
00000100: 3e81 6e3d 3ec7 903d 4d87 483e 66fb a33d
00000110: ccf9 623e da64 a63d 3c21 c63d 0710 483e
00000120: 347e 5d3e 4e54 a2bb 312d 4d3e fd98 363e
00000130: 38b5 d53d b72a e33d 97b5 343e 91be dcbc
00000140: bf18 dc3c e90d 833e 6cbc 043e f204 853e
00000150: 270c 9e3d a359 933e 1179 9fbd d48d 583e
00000160: 10e5 c83d d3a3 b03d de1a e63d aa56 163e
00000170: 01e0 083e 1af1 7a3d 331a 473d bd57 ca3d
00000180: a154 dc3e de2e 2e3f fe67 233e e81f c73d
00000190: ac72 c83d 9ba4 ba3d b2dd 8f3d 3f8c 663e
000001a0: 6864 943e f8bd 6a3d 35ec 573d 51b2 353d
000001b0: 7cf0 1f3d c391 633e 4f4d 923d eb81 b93d
000001c0: 4a1c 083e f1f9 083e 380b d23c edf7 533e
000001d0: 73ec ed3d 75a8 d23d d113 653e 2dc5 cb3d
000001e0: 3e53 74bc 8b50 183c 6914 413e 191a d63d
000001f0: a365 b43d a8fc 633d b8cf 4b3c ce7f 053e
0.12237772 0.026591824 0.037166703 0.12269419 0.08888682 0.02754393 0.046332214 0.2664193
0.23140594 0.09074575 0.18048593 0.02826561 0.10824516 0.07153653 0.05649687 0.09098589
-0.012575053 0.21849449 0.19816764 0.11391527 0.1105106 0.043711096 0.043766297 0.34440503
0.2039498 0.1287241 0.024025932 0.03421324 0.047157906 0.13578755 0.039306182 0.1475977
0.11198705 0.035176013 0.09270806 0.15521415 -0.005149086 0.14501123 0.09803362 0.10391538
0.09251239 0.060183056 0.22940493 0.029135797 0.4162172 0.07274816 -0.008928122 0.05208647
0.0043480014 0.020914996 0.17383267 0.21724446 0.46114776 0.13223886 0.042065095 0.2512476
-0.07846256 0.16306777 0.32930103 -0.0012110173 0.1100788 0.0017055294 0.24984574 0.11450023
0.058228724 0.070692524 0.19582863 0.08006935 0.22165602 0.08124705 0.09674308 0.19537364
0.21630174 -0.0049538976 0.2003677 0.17831798 0.10434955 0.110921316 0.17647396 -0.026946338
0.026867269 0.2559655 0.12962502 0.25980335 0.077171616 0.28779325 -0.077867635 0.21147853
0.09809315 0.08624997 0.11235593 0.14681497 0.133667 0.06126509 0.04860897 0.09880016
0.43033317 0.68040264 0.15957639 0.097228825 0.09787497 0.09113427 0.07024707 0.22514437
0.28982854 0.057310075 0.0527155 0.04435951 0.039047703 0.22223572 0.07143652 0.09057983
0.13292041 0.13376595 0.025640115 0.20700045 0.11617365 0.10286037 0.2237084 0.09949718
-0.014912425 0.009296547 0.18855442 0.104541965 0.08808448 0.055660874 0.012439661 0.13037035

encoder2.1.running_mean f4 [128]
00000000: 6937 183f d2b4 733e d27e ae3e dc31 d73b
00000010: dba7 85bf 1dd4 243f bf43 95be 67f1 d6bf
00000020: 14a4 c23f c140 503e 83bd ea3f 39a8 8bbf
00000030: 9d14 b13e 7ac1 8b3f 88ba 98c0 82de d23e
00000040: 4e2b 3d40 bf43 a0bf 8ecd 84bf a80e c03b
00000050: 6c58 f7bd a722 3640 f218 7cbf b1c5 9ebf
00000060: e39d d7bd 8977 893f 279b 95bf 9cde dd3f
00000070: 6de5 b1ba ad07 49c0 41c3 ae3f e956 12bf
00000080: 4e40 6640 2d2a 08c0 504b 183f ff0b b63e
00000090: f367 5d3d 5b97 aabe 8592 523f 6fd7 03c0
000000a0: 40c0 ccbe b0b7 98be 06f7 8cbe baf2 afbf
000000b0: 31c5 92bf 5389 aebe fe6c 6140 db1e 773f
000000c0: 9004 8440 80ea 29bf 9da2 3ebf 3209 0440
000000d0: 7c33 d93e b569 dd3f 74ce 55bf 5ae8 08c0
000000e0: 1656 0d40 629e 48be 7be3 14be ea96 0c40
000000f0: 7067 b03e a054 debf 4895 b8bf 37bb 213f
00000100: eb14 b63f 227a 98c0 f69c 22c0 cdab 25c0
00000110: 68e3 efbf d92e 4bc0 e4e3 e03f d636 5a3f
00000120: 8e53 c03f cb7a 7a40 c0ee 21bf 5db2 62c0
00000130: d095 a5bf 84e0 81bf b325 79c0 616a 2340
00000140: 3637 1140 5b8a 6b3f 01ce babd 15d9 f9bf
00000150: f6de 6bbe 6bac 3ac0 455b 953f 8d7b 7cbf
00000160: c88d 2340 9085 0abf 0c0c 0b40 ced1 9dbf
00000170: 7d32 e13f 59f9 f63f 190b e33f 5018 1a40
00000180: b8c5 213f c76c 633f c9c1 59bf 84e7 49c0
00000190: 8f62 023f ca40 e0be 6e42 af3e d2d4 f03e
000001a0: 2eb9 8e3e 083f 4f3f c60a c93e 5a9d b03f
000001b0: 674b 5940 0aae 01c0 5a04 0a40 d2b7 0abf
000001c0: 139a d23e c5a2 5ac0 67e8 4abf d29e e7be
000001d0: 31c8 803f b46e 94bd 6b8a d7bd e9ca fd3f
000001e0: 2e5d c2bf 320b 4640 0f49 c33f 77c4 123f
000001f0: 5f91 223f dd61 c93f f14c aa3f 9d49 b43f
0.5945955 0.23799446 0.3408113 0.006567223 -1.044185 0.6438616 -0.2915325 -1.679242
1.5206323 0.20337202 1.8339084 -1.0910712 0.3458604 1.0918419 -4.77277 0.41185385
2.955768 -1.2520674 -1.037523 0.005861122 -0.12077412 2.845865 -0.98475564 -1.2404081
-0.105281614 1.0739604 -1.1687974 1.733356 -0.0013572403 -3.1410935 1.3653337 -0.57163864
3.5976748 -2.1275742 0.5948992 0.35556027 0.05405421 -0.333186 0.8225482 -2.060024
-0.39990425 -0.29827642 -0.27532214 -1.3745949 -1.1466428 -0.34089145 3.5222774 0.96531457
4.125557 -0.66373444 -0.7446688 2.0630612 0.42422092 1.7297884 -0.8351815 -2.1391816
2.2083793 -0.19591668 -0.14539902 2.196711 0.34453917 -1.7369576 -1.4420557 0.6317629
1.4225134 -4.764909 -2.5408301 -2.588611 -1.8741274 -3.1747344 1.7569547 0.85239923
1.5025499 3.9137447 -0.6325493 -3.5421364 -1.2936344 -1.0146642 -3.892926 2.5533679
2.2689948 0.9200799 -0.091213234 -1.9519373 -0.23034272 -2.9167736 1.1668478 -0.98626024
2.5555286 -0.5411005 2.1726103 -1.2329652 1.7593533 1.9294845 1.7737762 2.407734
0.6319232 0.88837856 -0.8506132 -3.1547556 0.5093164 -0.4379943 0.3423037 0.4703737
0.27875656 0.80955553 0.39266032 1.379802 3.3952272 -2.0262475 2.1565156 -0.5418674
0.41133174 -3.4161847 -0.7926087 -0.45238358 1.0061094 -0.072476774 -0.10524448 1.9827548
-1.5184686 3.0944333 1.5256671 0.5733103 0.6350307 1.573299 1.3304731 1.4084965

encoder2.1.running_var f4 [128]
00000000: 1358 0b41 b41e d840 939c a441 9f1b ef40
00000010: f3cb 3f41 9d2d b240 8b51 3941 a15d 7140
00000020: e4f3 7e41 2031 8d40 3f8c 8e40 b962 3841
00000030: d4ad 9140 0e61 4f41 716e 9641 df46 7140
00000040: db19 8440 b4dc c740 8eb2 0d40 9f9f 9a40
00000050: 0fec c640 d3fd 4641 9e2f c740 66cb b840
00000060: ee74 8d40 f0ae 0a41 1c12 b740 891d 1541
00000070: 2973 b140 5f11 b440 f6ca 7e41 f029 3741
00000080: b138 e040 8b88 f040 6347 8d40 352c 3d41
00000090: 2fe0 8940 ff03 ac40 af10 3a40 f121 2a40
000000a0: 5c94 a540 e10f 2041 dab9 ae41 8164 e340
000000b0: 64f0 4940 96f2 da40 f4d7 ac40 c4f0 f840
000000c0: 4fab 0641 5504 9c40 e1d2 4c40 df13 1141
000000d0: ca3c 8a40 5784 f940 aaa9 a040 7cf3 1140
000000e0: ec41 0241 e512 4241 85e2 f940 392e be40
000000f0: 5d7a 0441 7aa1 a240 b4e4 e640 af66 0441
00000100: fb59 4641 aa11 5541 16c1 8440 386e 7540
00000110: c710 f540 c78d 2641 b831 5740 4e94 ab40
00000120: 83f2 5f41 bdac 7e40 7c5f 4440 3c41 5d41
00000130: b17d a340 4dc3 c240 ecfb 5b40 fa04 f03f
00000140: 72ba 3940 979e ce40 2dcf 1d41 3934 df40
00000150: 67a5 3340 4655 8441 2164 bc40 efb2 2f41
00000160: ea9b c140 b9ab e440 5548 ca40 d208 0241
00000170: 85b3 6d40 47bf c53f fa50 8040 0de7 7c41
00000180: b001 db40 fbe1 7c41 557c a041 ddfc db40
00000190: 83b5 d040 3096 1441 dcf1 ce41 757b 2041
000001a0: 3b49 ab40 213e 0f41 ebf5 7040 3613 4441
000001b0: 7c9e 9140 d792 1441 4fb4 7140 5879 0641
000001c0: 2515 5141 d630 8f40 a397 1b41 b107 f740
000001d0: a3c9 9940 29b2 dc40 bd7a 1340 5ffb 8e40
000001e0: 29e0 7e40 baaf 5340 f65a 4f40 07a7 cc40
000001f0: 2b05 3441 2880 8041 c49f ac40 766f a740
8.7090025 6.753748 20.576452 7.4721217 11.987292 5.568068 11.582408 3.7713397
15.934544 4.4122467 4.45462 11.524102 4.5524693 12.961195 18.803926 3.7699506
4.128156 6.2456913 2.214023 4.831985 6.2163157 12.436969 6.2245626 5.774829
4.4205236 8.667709 5.7209606 9.319711 5.5453076 5.6271205 15.924551 11.447739
7.0069203 7.516668 4.414964 11.823293 4.308616 5.375488 2.9072683 2.6583216
5.1743603 10.003877 21.840748 7.1060185 3.1552973 6.8421125 5.4013615 7.7793903
8.416823 4.875529 3.200371 9.067351 4.3199205 7.797405 5.020711 2.280486
8.141094 12.129613 7.8089013 5.9431424 8.279874 5.0822115 7.215418 8.275069
12.396968 13.3168125 4.14857 3.8348522 7.658298 10.409614 3.3624096 5.3618536
13.996707 3.979293 3.068328 13.828426 5.109093 6.0863404 3.437251 1.8751519
2.9020047 6.456859 9.86308 6.975125 2.8069704 16.541637 5.887223 10.981185
6.0502825 7.145962 6.3213296 8.127153 3.714082 1.5448998 4.009885 15.806409
6.843956 15.805171 20.060709 6.874617 6.522157 9.286667 25.868095 10.030141
5.3526893 8.952668 3.7650096 12.25469 4.550596 9.28585 3.7766302 8.404625
13.067662 4.4747114 9.724521 7.719689 4.805864 6.896748 2.3043664 4.468185
3.9824317 3.3076005 3.2399268 6.395389 11.251262 16.062576 5.3945026 5.232356

encoder3.0.weight f4 [128, 128]
00000000: ca9e bdbc 67c6 943d f75d 06bd b94b a9bc
00000010: 3544 723d 141e d23d 6f77 8fbd 0aa5 5dbd
00000020: 5040 c13c 9f27 abbd 26ea a7bd f64c 60bc
00000030: 5845 0dbe b39b 91bd e1c7 503d 90f4 94bd
00000040: 7ba9 14bd 8d18 20bd 7bdf ea3d 5d7d 2abd
00000050: b0f7 973d c79b 14bd adc9 6bbb 88e5 cbbc
00000060: 3c55 173d 1620 ba3d e59f a13d c82e 1cbd
00000070: 91e9 2bbc bf22 763d e453 183d a2ef 5b3d
00000080: ed8f 873d ff68 34bd 1206 bdbd beea 163d
00000090: 9947 52bd bfa2 6fbd 44ec f73c ecbb 443c
000000a0: 1e85 f53c 2fc3 bebd 72aa 0bbb e6a1 02bc
000000b0: 1d03 403d 779d f6bc c357 a33c 3adb 3dbd
000000c0: 2888 d43c 7f03 b2ba 5d0d 71bb ccdd 3c3c
000000d0: 959a 96bd 4c21 5d3d 85c4 c13c 4c3b 09bd
000000e0: f597 05bc 413b cdbd bec7 5f3c 5171 0bbe
000000f0: 918d e0ba fedc 9a3d afe9 b83c cf91 5e3d
00000100: 74ad 1b3d f1e6 e6bd 9ca2 783d f010 0e3d
00000110: f7b3 8fbc b8f6 9d3c 7937 ebbc ac37 85ba
00000120: bb87 4c3d e59c 82bd e51f 9e3d 3416 16b8
00000130: 7a3f 623d 6954 a9bc 7ff6 17bd 0d47 cd3b
00000140: e91b c2bd 62a4 ba3d a06b c8bc e5d8 39bc
00000150: 4c45 d23c ae62 0ebe cec9 283c 3620 44be
00000160: 88a7 813d 9917 fabc 5562 be3d ddff c13d
00000170: 526b 7abd ca42 e1bd c31a b2bc 90da fcbd
00000180: 8edb 93bc a7e8 8fbc 4540 9ebd 8b71 93bc
00000190: 8e23 c3bb ec46 af3d beda 19b8 7856 d93b
000001a0: 1b0b ddbd 3772 8ebd 25e8 dc3b 48b1 a2ba
000001b0: ba50 16be 8484 063d 427e 9ebd 35ed 41bd
000001c0: f2ca 8ebd 4d38 dfbc 4859 3a3d 4667 9f3b
000001d0: 8d28 e0bc 41ee ae3c 1d8a 2d3d ee6d 153d
000001e0: 4533 4d3d 75b1 7abd a808 383c dac8 8fbd
000001f0: 268c 8fbd f9c7 59bd 1fd6 fdbd 8614 90bd
00000200: 61e0 cc3c 63e1 ef3d 6a68 fbbb cd5f d2bd
00000210: d63a b13d bdde 1fbd 03dd 2abd bd5e 55bd
00000220: 3d79 d8bb e44c 013d c129 2fbd b456 5f3d
00000230: a8fe 443d 1270 a0bd d2d2 1b3d 38c3 dd3c
00000240: 0b48 3b3e 7ae3 b5bc 6448 95bd c47e 1d3d
00000250: 43c3 cfbc 0dfb 9abd 168c a63d 0809 513d
00000260: c55a 2d3d db8a 08bd 8bac d43c bb25 6e3c
00000270: 537e 24bd 7ea6 91bd 0348 40bd cdd3 173d
00000280: 0ef9 2abd 3c60 7abd c965 bc3b a222 243d
00000290: 284c 463d 561d 943d f843 6d3d 026d b83c
000002a0: 879d da3d 95a6 a5bd 4444 1b3d 8adc 3ebd
000002b0: 9033 d43c 7100 67bd a276 0a3d 0a9a 293d
000002c0: 09ed 17bd 0b2a a0bc 918e 1cbb 134d 51bd
000002d0: db48 733b b569 c93a ad45 893c 6854 fdbc
000002e0: 61d3 103e bb83 e3bb a546 603d 2410 093e
000002f0: 7575 c33d 0c46 643d 8476 903d bc56 473d
00000300: 6aaa 88bd 1e60 523d f4e1 893c 0ff7 b8bc
00000310: 0734 63bd de63 90bd d61f a1ba ca11 edbd
00000320: e2c6 d8bc d8ab 0c3e cc3c 62bc 76ed 153d
00000330: 8ed3 1e3d 1c9c bf3c dccd 083d 340d bebd
00000340: 5f8c 4f3d 14fc d83c 6f0f 4abd 7f26 77bd
00000350: 5039 7ebd 3fab 8c3d a134 033e 8e54 8cbc
00000360: fb31 053d 5826 213d 24e2 02ba 6b04 433d
00000370: 7082 58bd f39f cbbc 199f 843d 5c52 acbc
00000380: 799f 85bd 54c7 5c3d 22de 5f3c 1507 993d
00000390: 1df7 03be 6c79 b2bc c8b7 26bc fe77 c43c
000003a0: 375a 2abd bd43 8abd c9cf f93c 8a51 4abc
000003b0: cf51 e13d 845f 213b 97dd 7d3d ab41 873d
000003c0: 8667 acbb 709f a4bd 6844 523d b614 633c
000003d0: 5286 cabb 657f a3bd b94a 9e3c 3870 7fbb
000003e0: be51 773d 4e7e ca3d fb7d a43c 7eda ab3c
000003f0: 061b cbbb f874 103d 021f c53c c338 19bd
-0.023147006 0.07264405 -0.032804456 -0.02066599 0.05914708 0.10259643 -0.07005202 -0.05411247
0.023590237 -0.083571665 -0.08198957 -0.013690224 -0.13795984 -0.071097754 0.05097187 -0.07273209
-0.03629444 -0.039085913 0.11468407 -0.041623462 0.074202895 -0.036281373 -0.0035978362 -0.024889722
0.03694652 0.09088151 0.078918256 -0.03813055 -0.010492698 0.06009173 0.03718938 0.05369533
0.066192485 -0.044045445 -0.092296734 0.03684496 -0.051337812 -0.058504816 0.030264027 0.012007695
0.029970702 -0.09314572 -0.002131131 -0.00797317 0.04687797 -0.030104382 0.019939309 -0.04635165
0.02594383 -0.0013581364 -0.0036781647 0.01152749 -0.07353703 0.053986832 0.023653278 -0.033503816
-0.008153905 -0.100210674 0.013658462 -0.13617446 -0.0017132034 0.07561682 0.022572367 0.054338273
0.038007215 -0.11274517 0.06070195 0.03468412 -0.017541869 0.019282684 -0.028712975 -0.0010163686
0.04993413 -0.063775815 0.07720927 -3.5783465e-05 0.055236317 -0.020670133 -0.03710031 0.0062645734
-0.0947798 0.09113385 -0.024465382 -0.011343216 0.025667809 -0.13904831 0.01030202 -0.19152912
0.06330782 -0.03052883 0.09296099 0.0947263 -0.061137505 -0.10999067 -0.021741277 -0.12346375
-0.018049028 -0.017566992 -0.07727102 -0.017998477 -0.005955166 0.08558449 -3.6681762e-05 0.0066326223
-0.10793134 -0.069553785 0.006741541 -0.0012412453 -0.14679232 0.03284122 -0.077389255 -0.04734536
-0.069723025 -0.027248526 0.0454953 0.004864606 -0.027363086 0.021353843 0.042368043 0.03648179
0.050097723 -0.061204392 0.011232533 -0.07020731 -0.07009153 -0.053169224 -0.12394356 -0.070351645
0.025009336 0.11712911 -0.0076723592 -0.10272179 0.086538 -0.03903078 -0.04171468 -0.052092303
-0.0066062496 0.03156747 -0.04276443 0.054526046 0.04809442 -0.07833876 0.03804285 0.027070627
0.18289201 -0.022203196 -0.07289198 0.03845097 -0.025361663 -0.075674154 0.08132188 0.051034003
0.042322893 -0.033335548 0.025961181 0.014535363 -0.040159535 -0.07111834 -0.046943676 0.037067223
-0.041741423 -0.061126933 0.0057494384 0.04007209 0.048412472 0.07232158 0.05792615 0.022512916
0.10674577 -0.080884136 0.0379069 -0.04659704 0.025903493 -0.056396905 0.033804543 0.04140667
-0.03709129 -0.019551298 -0.0023888687 -0.051098894 0.0037122283 0.0015366586 0.016756857 -0.030924037
0.14143135 -0.0069431937 0.054754872 0.13385063 0.095438875 0.055730864 0.07053855 0.0486667
-0.06673129 0.051361196 0.016831376 -0.022578744 -0.05546954 -0.07050298 -0.0012292813 -0.115756586
-0.026462022 0.13737428 -0.01380844 0.036603414 0.038775973 0.023389868 0.033399448 -0.09279862
0.050670978 0.026487388 -0.049331125 -0.060339447 -0.062066376 0.068686 0.12813045 -0.017130163
0.03251837 0.039343208 -0.0004992804 0.047611635 -0.05285877 -0.024856543 0.06475658 -0.021035366
-0.065245576 0.05390103 0.0136638 0.07472054 -0.12887235 -0.021786414 -0.010175653 0.023982998
-0.04158994 -0.06751201 0.030494587 -0.012348542 0.11001932 0.0024623582 0.061978903 0.06604322
-0.0052613644 -0.08038223 0.05133477 0.013859918 -0.006180563 -0.07983283 0.01932274 -0.00389768
0.06038069 0.09887372 0.020079603 0.020978209 -0.00619829 0.0352678 0.024062637 -0.037407648
