saved-model/logmel/unet/logmel-unet-pump-6.pkl (torch, 772810 bytes, 56 tensors)

encoder1.0.weight f4 [128, 320]
0.015146824 -0.004945019 0.028592275 0.054492198 -0.102490485 -0.10137077 -0.056177247 0.12588783
0.059591733 -0.065124884 -0.035436343 -0.0042410335 0.015105665 -0.07630751 -0.045153785 0.06867969
0.06313809 0.02705377 -0.037667062 -0.0043934416 -0.07927031 -0.005622498 0.0029289126 0.034447495
0.031201111 0.04973902 0.0015167781 0.024333546 -0.026775716 -0.055996947 -0.025268322 -0.012752155
-0.013912343 -0.017601628 -0.020478478 0.0143089825 0.0026256093 0.011009227 0.035642795 -0.028169502
-0.008747493 -0.0006171081 -0.022484612 -0.03674331 -0.013054515 -0.014305113 -0.0032902332 -0.027935272
-0.03760055 -0.014954179 0.040579718 0.048155405 -0.004763026 0.015871504 0.012102542 -0.013405303
0.032432903 0.024096824 0.03857938 0.027165081 -0.032881904 0.045514848 -0.037563723 0.017117923
0.03906723 -0.015545486 0.016662672 0.118310995 -0.034880567 -0.1456389 -0.09019104 0.072366215
0.04779715 -0.04272087 -0.027512789 0.0044128806 0.02334292 -0.08497786 0.025315193 0.007107479
0.026416298 0.028558198 -0.004052023 -0.008346727 -0.046017967 -0.043046635 0.042224146 0.02482851
0.067574695 0.027875971 -0.010838764 0.023528757 -0.021976318 -0.012679331 -0.046032336 -0.0070828707
0.0058294716 -0.070950925 0.037457697 0.052726045 0.010859486 0.04532345 -0.003416428 0.004242283
-0.03677177 0.012539455 -0.011967508 -0.039096016 0.04491333 -0.015313101 0.00633351 -0.019338792
0.03485501 0.015279512 0.0085373055 0.022528162 0.044642463 0.00497731 0.013935455 0.023892542
0.056970492 -0.021339865 -0.0008293822 0.01106814 0.03441823 -0.0058883354 0.054044764 0.04677939
0.0014169218 -0.017746141 0.02204545 0.1016708 -0.00447287 -0.12906592 -0.08221111 0.12829219
0.053202998 -0.098251544 -0.06128197 0.06389019 -0.00498356 -0.09657847 0.022064205 0.011222181
-0.008317163 0.014642821 -0.023766518 -0.00060146395 -0.07982186 -0.044444583 -0.0011193034 0.014021314
0.055614952 9.6177544e-05 0.052288488 0.009896503 0.011593407 -0.046237588 -0.045380514 -0.024547504
-0.05582968 -0.05054706 0.021575028 -0.0007776847 0.0072414936 -0.028825428 0.0445235 0.031396315
0.0007621736 -0.028910546 0.024736447 0.037904717 -0.04342277 -0.0050180405 -0.063216664 0.02313651
-0.025702175 0.059310038 0.003992653 0.00096454535 0.03202456 0.00073098845 -0.032201894 -0.023742735
-0.0225897 0.060673594 -0.015623753 -0.021483233 -0.03123536 -0.023671467 0.033126336 -0.031064332
0.030557605 -0.038549863 0.047535073 0.09224028 -0.06789926 -0.13519993 -0.06820941 0.08746715
0.08974842 -0.0040724846 -0.04540715 0.04233018 -0.01380287 -0.038158737 -0.019964408 0.06126855
0.024646038 -0.02042407 -0.010170625 -0.023732053 -0.07430698 -0.0029450478 -0.023011453 0.015512633
0.030398382 0.044422865 0.009141294 0.027148882 -0.016430514 -0.035342112 -0.046079278 -0.0011261972
-0.04268906 -0.029125579 -0.024971228 -0.004823746 0.012264021 -0.017686728 0.048090532 -0.010452441
0.010784765 0.011198794 -0.047460426 0.021121912 -0.020618573 -0.054165374 -0.017216053 -0.0318971
-0.017412907 -0.004597414 -0.038372356 -0.01947469 -0.012307566 -0.019933911 0.034837794 -0.0061855735
-0.04885798 -0.0337511 -0.026478842 0.02600056 0.0456476 0.0038595 -0.01871409 -0.0052182744
00000000: 622a 783c d309 a2bb 593a ea3c 3633 5f3d
00000010: 88e6 d1bd 7a9b cfbd 1d1a 66bd bde8 003e
00000020: 7616 743d 3260 85bd b325 11bd 5ef8 8abb
00000030: c07d 773c 1d47 9cbd 2df3 38bd f0a7 8c3d
00000040: 8b4e 813d de9f dd3c c748 1abd dcf6 8fbb
00000050: 7958 a2bd ef3c b8bb 00f3 3f3b d118 0d3d
00000060: 7999 ff3c 25bb 4b3d a1ce c63a 2557 c73c
00000070: bf58 dbbc 0e5d 65bd 83ff cebc 6aee 50bc
00000080: 99f0 63bc 4a31 90bc 7bc2 a7bc 3970 6a3c
00000090: 6a12 2c3b 0b60 343c 2efe 113d bac3 e6bc
000000a0: a551 0fbc 6cc5 21ba a631 b8bc 2780 16bd
000000b0: 9be2 55bc fe5f 6abc f4a0 57bb 83d8 e4bc
000000c0: 0903 1abd 5f02 75bc eb36 263d 9a3e 453d
000000d0: 2813 9cbb f504 823c be49 463c eaa1 5bbc
000000e0: 5dd8 043d b466 c53c 6905 1e3d 4e89 de3c
000000f0: 2daf 06bd c76d 3a3d 6bdc 19bd e33a 8c3c
00000100: f604 203d 7eb2 7ebc 2880 883c 094d f23d
00000110: edde 0ebd 5d22 15be 14b6 b8bd bd34 943d
00000120: f2c6 433d 14fc 2ebd 8062 e1bc ed99 903b
00000130: a739 bf3c df08 aebd cf61 cf3c dbe5 e83b
00000140: fe66 d83c e2f2 e93c d5c6 84bb b6c0 08bc
00000150: 567d 3cbd ab51 30bd 3af3 2c3d 2965 cb3c
00000160: 9a64 8a3d 265c e43c 1295 31bc 61bf c03c
00000170: ae07 b4bc f8bc 4fbc 678c 3cbd 6d17 e8bb
00000180: 2705 bf3b b84e 91bd 3e6d 193d 44f7 573d
00000190: fceb 313c 15a5 393d 27e6 5fbb d902 8b3b
000001a0: ff9d 16bd 4972 4d3c 5e13 44bc 2523 20bd
000001b0: 0af7 373d cde3 7abc 5589 cf3b 636c 9ebc
000001c0: 21c4 0e3d eb56 7a3c 0ee0 0b3c fb8c b83c
000001d0: 04db 363d b418 a33b 8951 643c 4bba c33c
000001e0: e459 693d f1d0 aebc e66a 59ba 2557 353c
000001f0: 21fa 0c3d f0f2 c0bb 0b5e 5d3d bf9b 3f3d
00000200: 02b8 b93a 5b60 91bc a998 b43c c838 d03d
00000210: 2791 92bb db29 04be 4c5e a8bd 075f 033e
00000220: 63eb 593d 1b38 c9bd ce02 7bbd dcd8 823d
00000230: 224d a3bb efca c5bd febf b43c 3ddd 373c
00000240: b644 08bc 71e8 6f3c 00b2 c2bc 90ab 1dba
00000250: a579 a3bd 860b 36bd 97b5 92ba a7b9 653c
00000260: 81cc 633d edb2 c938 742c 563d f124 223c
00000270: 46f2 3d3c a063 3dbd ebe0 39bd d917 c9bc
00000280: aaad 64bd 6f0a 4fbd 1dbe b03c 89dd 4bba
00000290: 0d4a ed3b 4e23 ecbc 465e 363d 6c99 003d
000002a0: 9bcc 473a cfd5 ecbc 17a4 ca3c fa41 1b3d
000002b0: 13dc 31bd 606e a4bb bd77 81bd c788 bd3c
000002c0: 5e8d d2bc 15ef 723d cdd4 823b 8bd9 7c3a
000002d0: 2f2c 033d ce9f 3f3a 22e6 03bd 2080 c2bc
000002e0: 090e b9bc e084 783d c5fa 7fbc 9bfd afbc
000002f0: 4ce1 ffbc aaea c1bc 7baf 073d a07a febc
00000300: f153 fa3c 76e6 1dbd 23b4 423d 79e8 bc3d
00000310: c40e 8bbd da71 0abe 60b1 8bbd fa21 b33d
00000320: 05ce b73d 7a72 85bb d9fc 39bd 6962 2d3d
00000330: 6f25 62bc 564c 1cbd 668c a3bc bbf4 7a3d
00000340: 7de6 c93c 6150 a7bc b1a2 26bc b969 c2bc
00000350: 422e 98bd b401 41bb 8482 bcbc b328 7e3c
00000360: 0706 f93c c0f4 353d 5ec5 153c 5567 de3c
00000370: 4999 86bc e4c2 10bd a0bd 3cbd e89c 93ba
00000380: b9da 2ebd c498 eebc 7690 ccbc 8410 9ebb
00000390: 08ef 483c c2e3 90bc 94fa 443d b740 2bbc
000003a0: 95b2 303c 257b 373c dd65 42bd dc07 ad3c
000003b0: 48e8 a8bc 83dc 5dbd ae08 8dbc 89a6 02bd
000003c0: 83a5 8ebc e7a5 96bb 552c 1dbd 6389 9fbc
000003d0: aca5 49bc 714c a3bc 13b2 0e3d 5ab0 cabb
000003e0: 4e1f 48bd 983e 0abd 28ea d8bc 20ff d43c
000003f0: faf8 3a3d aaef 7c3b 4b4e 99bc 0ffe aabb

encoder1.0.bias f4 [128]
0.00010515333 0.00013269337 4.9778366e-05 0.00014981108 -7.386376e-05 -4.4001794e-05 -6.933857e-06 -3.579588e-06
-2.9253133e-05 6.0642127e-05 0.00016870607 8.273727e-05 -1.8230237e-05 3.8462487e-05 2.3792896e-05 -4.9395944e-06
-6.881513e-05 -4.8067242e-05 -6.663089e-05 2.1642466e-06 3.4770023e-06 0.00014127142 -2.3972652e-05 0.00020510318
6.7205074e-05 0.00013770696 -7.4962234e-05 -2.3808529e-05 -3.8414524e-05 5.124287e-05 -0.0003470212 5.0361377e-05
-7.2798044e-05 -1.2754164e-05 0.00013359384 -3.2950462e-05 -7.717777e-06 -1.3073826e-05 -1.0442173e-05 -0.00044378106
-4.208855e-06 -5.5764227e-05 0.0002167427 0.00021180802 -0.0003478907 1.1570616e-05 0.00013336125 0.000116545685
-1.4896395e-05 -4.7775006e-07 -1.5883159e-05 5.025902e-05 0.00016948531 7.1417984e-05 2.8791075e-05 6.97523e-05
2.0119334e-05 -2.5086758e-05 9.784054e-05 5.5254535e-05 0.00017453935 5.878212e-06 -0.00016672026 5.8637834e-05
-0.000190306 -7.9271285e-06 8.311103e-05 0.00028613518 3.866096e-05 -9.35879e-05 -6.9446082e-06 2.2802169e-05
-7.254395e-05 3.1881784e-05 4.396305e-05 -8.677364e-05 -5.4083284e-05 -3.7192192e-05 0.00017293669 8.337582e-05
0.00025444623 6.1546116e-06 -5.3447155e-05 -0.00016758256 0.000119960474 0.00025620539 1.747219e-05 -2.0211139e-05
-6.0535822e-05 5.2623327e-05 8.731443e-05 0.00015512381 0.00014025792 0.00017595882 2.0341447e-05 -3.867352e-05
-1.8993967e-05 0.00036483502 -5.6573535e-05 -7.400811e-05 0.0001378857 -3.3111373e-05 3.6318273e-05 0.00011769998
-5.504448e-05 0.00013107689 -7.551019e-05 0.00023138295 -0.000120688186 1.9657859e-05 0.00018109457 1.58222e-05
0.00023108431 4.1941126e-05 7.2819996e-05 -7.900877e-05 0.00019209857 0.00012270588 -2.6750076e-06 0.00018063167
-3.4147717e-05 0.00025784425 0.000118349024 -0.00025113742 1.4896796e-05 -2.367005e-05 3.895477e-05 7.899774e-05
00000000: c485 dc38 9b23 0b39 1dc9 5038 9b16 1d39
00000010: 4ee7 9ab8 918e 38b8 61a9 e8b6 db38 70b6
00000020: a064 f5b7 fd59 7e38 b1e6 3039 3c83 ad38
00000030: 23ed 98b7 c852 2138 db96 c737 cbbe a5b6
00000040: d750 90b8 cf9b 49b8 30bc 8bb8 793d 1136
00000050: 7256 6936 4222 1439 e118 c9b7 f710 5739
00000060: 73f0 8c38 6e65 1039 0b35 9db8 6db8 c7b7
00000070: 481f 21b8 9ded 5638 66f0 b5b9 1e3b 5338
00000080: 27ab 98b8 b8fa 55b7 5315 0c39 4a34 0ab8
00000090: 9a7b 01b7 a857 5bb7 cb30 2fb7 49ab e8b9
000000a0: ca39 8db6 62e4 69b8 6d45 6339 c818 5e39
000000b0: 1965 b6b9 6b1f 4237 e3d6 0b39 fd69 f438
000000c0: 88eb 79b7 bc3e 00b5 d33c 85b7 36cd 5238
000000d0: deb7 3139 3dc6 9538 5d84 f137 fb47 9238
000000e0: f1c5 a837 6771 d2b7 bd2f cd38 1bc1 6738
000000f0: 8d04 3739 753d c536 a1d1 2eb9 e5f1 7538
00000100: e18c 47b9 c2fe 04b7 e54b ae38 6a04 9639
00000110: e427 2238 9f44 c4b8 bb05 e9b6 4947 bf37
00000120: bd22 98b8 ceb8 0538 f764 3838 3efa b5b8
00000130: 7cd7 62b8 d0fe 1bb8 5756 3539 0dda ae38
00000140: 3267 8539 b683 ce36 722c 60b8 1ab9 2fb9
00000150: 4a93 fb38 4e53 8639 3e91 9237 178b a9b7
00000160: d8e7 7db8 deb7 5c38 941c b738 bba8 2239
00000170: 3312 1339 9681 3839 eda2 aa37 6035 22b8
00000180: 3c55 9fb7 5447 bf39 5f49 6db8 cd34 9bb8
00000190: 6995 1039 11e1 0ab8 7354 1838 b2d5 f638
000001a0: 8fdf 66b8 af71 0939 395b 9eb8 639f 7239
000001b0: fa19 fdb8 eee6 a437 34e4 3d39 eab9 8437
000001c0: 394f 7239 f1e9 2f38 f0b6 9838 83b1 a5b8
000001d0: 116e 4939 9caa 0039 4884 33b6 f267 3d39
000001e0: d539 0fb8 452f 8739 2632 f838 18ab 83b9
000001f0: 40ed 7937 0c8f c6b7 5e63 2338 97ab a538

encoder1.1.weight f4 [128]
1.5193306 1.5357589 1.5274966 1.5276872 1.5339345 1.5199609 1.5177919 1.5203438
1.5205978 1.5141814 1.5122782 1.5298126 1.5274107 1.5426569 1.5559312 1.5123575
1.525619 1.5315098 1.5265574 1.5106122 1.5230422 1.5131805 1.5162591 1.5165782
1.5248421 1.5180385 1.5396127 1.528331 1.5256194 1.538511 1.530142 1.5451353
1.5198716 1.5136616 1.5184435 1.5323728 1.5420592 1.5257043 1.5329543 1.5337912
1.5166314 1.5214628 1.4991614 1.506016 1.4962282 1.4985745 1.5249314 1.5302804
1.5248333 1.5076398 1.5153347 1.4962585 1.5398885 1.5232061 1.5439043 1.5051141
1.5013002 1.5267526 1.5077901 1.5429839 1.5037766 1.5159771 1.5404689 1.5221393
1.5401212 1.5053366 1.5047574 1.5109397 1.5202675 1.5212561 1.5164382 1.5206115
1.5345018 1.5020108 1.5248353 1.5174223 1.5297753 1.5176953 1.5029811 1.5040654
1.5362388 1.5061806 1.5108006 1.5033362 1.5118111 1.5051802 1.5227758 1.5175918
1.518491 1.5239819 1.5098021 1.5130246 1.5180116 1.5003521 1.5157783 1.542181
1.5272111 1.5130357 1.4975263 1.5318664 1.4983307 1.5437177 1.5029587 1.5109545
1.537561 1.4967402 1.5359715 1.5164977 1.5037019 1.5460147 1.521687 1.5040828
1.5160728 1.5364374 1.5120704 1.5183489 1.5136303 1.5138134 1.5175501 1.5235096
1.5360636 1.5062354 1.5173842 1.4854041 1.523514 1.5181847 1.5193505 1.52231
00000000: 6d79 c23f bf93 c43f 0285 c33f 418b c33f
00000010: f757 c43f 148e c23f 0147 c23f a09a c23f
00000020: f3a2 c23f b2d0 c13f 5592 c13f e6d0 c33f
00000030: 3282 c33f c875 c53f c128 c73f ee94 c13f
00000040: 7c47 c33f 8308 c43f 3c66 c33f be5b c13f
00000050: 0cf3 c23f e6af c13f c714 c23f 3c1f c23f
00000060: 072e c33f 164f c23f 0712 c53f 5aa0 c33f
00000070: 7f47 c33f eeed c43f b1db c33f fec6 c53f
00000080: 278b c23f aabf c13f 5b5c c23f cb24 c43f
00000090: 3262 c53f 474a c33f d937 c43f 4553 c43f
000000a0: fa20 c23f 4bbf c23f 85e4 bf3f 22c5 c03f
000000b0: 6884 bf3f 4ad1 bf3f f430 c33f 3ae0 c33f
000000c0: bd2d c33f 57fa c03f 7df6 c13f 6685 bf3f
000000d0: 111b c53f 6bf8 c23f a89e c53f 94a7 c03f
000000e0: 9b2a c03f a16c c33f 44ff c03f 7f80 c53f
000000f0: c07b c03f 8a0b c23f 162e c53f 76d5 c23f
00000100: b122 c53f dfae c03f e49b c03f 7966 c13f
00000110: 2098 c23f 85b8 c23f a61a c23f 66a3 c23f
00000120: 8e6a c43f e441 c03f ce2d c33f e53a c23f
00000130: adcf c33f d743 c23f af61 c03f 3785 c03f
00000140: 79a3 c43f 87ca c03f ea61 c13f 526d c03f
00000150: 0783 c13f bfa9 c03f 51ea c23f 7340 c23f
00000160: ea5d c23f d711 c33f 3241 c13f caaa c13f
00000170: 344e c23f 8a0b c03f 0605 c23f 3066 c53f
00000180: a77b c33f 27ab c13f f1ae bf3f 3314 c43f
00000190: 4dc9 bf3f 8b98 c53f f360 c03f f566 c13f
000001a0: cdce c43f 2f95 bf3f b79a c43f 991c c23f
000001b0: 4e79 c03f cfe3 c53f a4c6 c23f c985 c03f
000001c0: ac0e c23f fba9 c43f 868b c13f 4259 c23f
000001d0: a3be c13f a3c4 c13f 153f c23f 5d02 c33f
000001e0: bb9d c43f 52cc c03f a539 c23f b921 be3f
000001f0: 8202 c33f e053 c23f 147a c23f 0edb c23f

encoder1.1.bias f4 [128]
0.51130754 0.532008 0.5644712 0.53564644 0.55672336 0.53892606 0.5189354 0.5410596
0.54673314 0.50352776 0.50626415 0.53373414 0.5603182 0.51399016 0.5473466 0.55310184
0.5133951 0.49695686 0.55675805 0.5194206 0.5559523 0.5185772 0.51475716 0.5121861
0.5452473 0.5437284 0.5340804 0.52956975 0.5250911 0.54118073 0.54929966 0.5128947
0.5136857 0.513838 0.52157944 0.5129907 0.52167267 0.5360255 0.5328013 0.5612719
0.50372547 0.554322 0.50895876 0.5192438 0.5193104 0.5442425 0.50538504 0.5314103
0.5441548 0.5337704 0.55139494 0.519356 0.5476153 0.51540494 0.53876406 0.54998076
0.5079422 0.5080694 0.5131483 0.55680585 0.50942814 0.51066226 0.5685506 0.5375251
0.5497923 0.5070067 0.54854625 0.53234255 0.51945215 0.5603772 0.5059062 0.55922204
0.5368081 0.49806067 0.5109852 0.51311725 0.5597844 0.5334308 0.507777 0.5441867
0.52052593 0.5104143 0.5392724 0.5361019 0.5192029 0.53119653 0.5099271 0.5183445
0.51740235 0.5092929 0.5137664 0.5142304 0.52244025 0.54536575 0.51467276 0.547078
0.52677006 0.5187868 0.51199645 0.54806525 0.54652715 0.5486496 0.540999 0.55110925
0.5457423 0.5093381 0.52646184 0.5183462 0.51289546 0.5597812 0.52103823 0.54918104
0.5241778 0.55022365 0.51496744 0.5146026 0.54605645 0.5168958 0.54772484 0.52660525
0.5586715 0.5483365 0.53780866 0.52059734 0.5357227 0.51361436 0.51170576 0.5073407
00000000: 0de5 023f ad31 083f 2f81 103f 2020 093f
00000010: 6c85 0e3f 0ff7 093f f3d8 043f e282 0a3f
00000020: b4f6 0b3f 32e7 003f 879a 013f cda2 083f
00000030: 0371 0f3f dc94 033f e81e 0c3f 1598 0d3f
00000040: dc6d 033f 2171 fe3e b287 0e3f c0f8 043f
00000050: e452 0e3f 7ac1 043f 20c7 033f a11e 033f
00000060: 5495 0b3f c931 0b3f 7eb9 083f e291 073f
00000070: 5f6c 063f d28a 0a3f e79e 0c3f 114d 033f
00000080: e880 033f e38a 033f 3b86 053f 5c53 033f
00000090: 578c 053f f838 093f aa65 083f 84af 0f3f
000000a0: 27f4 003f 0ce8 0d3f 1f4b 023f 29ed 043f
000000b0: 87f1 043f 7a53 0b3f ea60 013f 810a 083f
000000c0: bb4d 0b3f 2da5 083f 3828 0d3f 84f4 043f
000000d0: 8430 0c3f 94f1 033f 71ec 093f 8acb 0c3f
000000e0: 8008 023f d610 023f b05d 033f d48a 0e3f
000000f0: e269 023f c3ba 023f 888c 113f 3f9b 093f
00000100: 30bf 0c3f 31cb 013f 876d 0c3f 9a47 083f
00000110: d1fa 043f e174 0f3f 1283 013f 2d29 0f3f
00000120: 416c 093f cf01 ff3e edcf 023f a75b 033f
00000130: 084e 0f3f ec8e 083f acfd 013f d24f 0b3f
00000140: 3041 053f 83aa 023f c20d 0a3f f93d 093f
00000150: 7bea 043f 7ffc 073f 958a 023f 3ab2 043f
00000160: 7b74 043f 0561 023f 3286 033f 9aa4 033f
00000170: a5be 053f 179d 0b3f 98c1 033f 4e0d 0c3f
00000180: 67da 063f 36cf 043f 3312 033f 014e 0c3f
00000190: 34e9 0b3f 4d74 0c3f e97e 0a3f 7f15 0d3f
000001a0: c4b5 0b3f fb63 023f 34c6 063f 56b2 043f
000001b0: 1e4d 033f d24d 0f3f c362 053f 2197 0c3f
000001c0: 8430 063f 75db 0c3f e8d4 033f ffbc 033f
000001d0: 5bca 0b3f 4853 043f b237 0c3f 9acf 063f
000001e0: 1805 0f3f c85f 0c3f d4ad 093f de45 053f
000001f0: 1f25 093f 3b7c 033f 26ff 023f 15e1 013f

encoder1.1.running_mean f4 [128]
35.698475 -21.305185 60.271435 55.33217 -60.62399 5.1120634 20.729774 5.299803
-13.166365 11.909916 57.634865 37.170063 51.064938 -23.614178 6.2144094 29.622221
-4.387879 -9.766564 -18.846891 17.075819 25.242664 13.607111 5.1716237 31.264267
38.5424 25.86483 -4.184107 -5.823819 22.717993 -57.89126 44.187737 -1.2994348
-42.038456 10.689813 51.017994 -9.817214 -1.3053983 18.690512 5.8880525 -22.593315
36.20778 4.2283955 110.564514 112.87284 -84.82027 89.12326 -32.879417 65.158844
25.709312 21.455732 3.8991344 115.5683 31.31834 43.973557 3.9008174 47.215954
86.14176 6.080087 71.05123 15.11459 86.24883 93.90017 -26.467415 48.139034
-14.715498 -11.6096735 13.630355 26.320038 -3.5679138 -4.894836 11.881014 3.0279446
-9.227983 0.38076857 2.6834292 155.14598 40.314217 39.500275 57.86848 51.237152
33.347168 51.001396 -65.244545 -75.549484 29.25027 55.353413 -2.9139857 -36.074295
-4.2106566 27.297558 63.838356 99.77134 19.347965 50.436237 16.077614 7.9015265
-3.5474584 29.413221 86.2213 -10.78925 106.07876 45.68585 14.744416 39.684937
-2.0877895 49.34667 16.002993 44.097256 -73.13571 10.879793 14.471564 16.83773
16.400904 -16.485937 100.29632 11.599302 43.460964 61.276066 -3.1573062 59.767727
0.73263884 29.107378 44.062702 -188.19899 -4.3674874 16.172968 21.57219 15.363931
00000000: 3dcb 0e42 0571 aac1 f315 7142 2454 5d42
00000010: f77e 72c2 0696 a340 94d6 a541 fc97 a940
00000020: 6ea9 52c1 048f 3e41 1a8a 6642 25ae 1442
00000030: 7f42 4c42 d6e9 bcc1 71dc c640 4ffa ec41
00000040: 8169 8cc0 d943 1cc1 6fc6 96c1 479b 8841
00000050: faf0 c941 bab6 5941 f17d a540 381d fa41
00000060: 6b2b 1a42 2ceb ce41 34e4 85c0 ba5c bac0
00000070: 73be b541 a690 67c2 3ec0 3042 e153 a6bf
00000080: 6127 28c2 7909 2b41 6d12 4c42 4f13 1dc1
00000090: 4b17 a7bf 2b86 9541 ed6a bc40 1cbf b4c1
000000a0: c4d4 1042 044f 8740 0821 dd42 e5be e142
000000b0: faa3 a9c2 1c3f b242 8684 03c2 5451 8242
000000c0: acac cd41 57a5 ab41 6b8b 7940 f822 e742
000000d0: f68b fa41 ece4 2f42 fea6 7940 23dd 3c42
000000e0: 9548 ac42 1390 c240 3b1a 8e42 5cd5 7141
000000f0: 677f ac42 e3cc bb42 44bd d3c1 5f8e 4042
00000100: ae72 6bc1 39c1 39c1 ef15 5a41 708f d241
00000110: b358 64c0 7fa2 9cc0 a218 3e41 d8c9 4140
00000120: d2a5 13c1 19f4 c23e 4ebd 2b40 5f25 1b43
00000130: c241 2142 4800 1e42 5379 6742 d8f2 4c42
00000140: 8063 0542 6e01 4c42 357d 82c2 5619 97c2
00000150: 8e00 ea41 e569 5d42 be7e 3ac0 144c 10c2
00000160: b3bd 86c0 6661 da41 7a5a 7f42 ed8a c742
00000170: a2c8 9a41 b5be 4942 f49e 8041 4ed9 fc40
00000180: 8f09 63c0 474e eb41 4e71 ac42 c5a0 2cc1
00000190: 5328 d442 4fbe 3642 21e9 6b41 60bd 1e42
000001a0: 589e 05c0 fd62 4542 2106 8041 9763 3042
000001b0: 7c45 92c2 a213 2e41 878b 6741 acb3 8641
000001c0: 0d35 8341 33e3 83c1 b797 c842 be96 3941
000001d0: 07d8 2d42 b11a 7542 4e11 4ac0 2712 6f42
000001e0: 388e 3b3f e9db e841 3540 3042 f132 3cc3
000001f0: 75c2 8bc0 3d62 8141 d893 ac41 a9d2 7541

encoder1.1.running_var f4 [128]
76.1347 101.207954 173.80832 59.258404 114.11508 55.950844 76.026215 66.05507
186.0034 70.238625 99.75057 51.63239 151.45113 46.100494 124.21432 120.41012
28.578033 72.31346 51.516888 26.328794 95.20999 35.500305 68.47372 72.01445
107.048615 46.766514 36.0957 25.551722 55.760433 241.59175 58.421844 51.87491
54.54394 64.70186 88.60315 44.596054 69.34224 49.325947 85.4665 29.69052
100.733215 73.931114 173.76566 177.34567 164.50562 134.01079 53.705162 53.401436
94.851875 56.728294 93.371925 252.87006 91.01128 122.82665 40.137077 94.1219
150.71458 44.062695 114.34719 64.008965 163.23431 217.49013 34.151157 111.19253
37.753914 28.996704 51.20253 79.25559 28.384949 49.177544 62.717697 49.5196
28.641283 37.581425 59.386467 350.95355 150.89221 141.56245 108.84878 82.21145
77.26973 75.60204 122.6373 126.85671 52.76156 82.42825 56.888744 110.40355
25.99071 103.376656 151.02966 198.8366 34.53672 82.195404 72.79972 36.3079
21.965155 47.802116 160.29019 25.926903 187.3556 44.68056 47.045536 96.906265
37.83357 78.671036 38.115414 73.42863 135.5979 77.74749 37.275047 68.88518
34.334232 57.508736 196.03719 38.140614 124.90995 153.0579 59.916 79.2026
26.880802 61.331635 84.704994 425.54907 24.988567 54.57271 94.70123 88.700005
00000000: f744 9842 796a ca42 eece 2d43 9b08 6d42
00000010: ec3a e442 aacd 5f42 6c0d 9842 321c 8442
00000020: df00 3a43 2d7a 8c42 4b80 c742 9187 4e42
00000030: 7d73 1743 e866 3842 bb6d f842 fbd1 f042
00000040: d09f e441 7ea0 9042 4b11 4e42 5fa1 d241
00000050: 846b be42 5000 0e42 8bf2 8842 6607 9042
00000060: e418 d642 e910 3b42 ff61 1042 ed69 cc41
00000070: af0a 5f42 7d97 7143 f8af 6942 e87f 4f42
00000080: ff2c 5a42 5a67 8142 d034 b142 5c62 3242
00000090: 3aaf 8a42 c54d 4542 d9ee aa42 2f86 ed41
000000a0: 6877 c942 bbdc 9342 02c4 2d43 7e58 3143
000000b0: 7081 2443 c302 0643 16d2 5642 129b 5542
000000c0: 29b4 bd42 c6e9 6242 6dbe ba42 bcde 7c43
000000d0: c605 b642 3fa7 f542 5e8c 2042 6a3e bc42
000000e0: efb6 1643 3340 3042 c3b1 e442 9704 8042
000000f0: fc3b 2343 797d 5943 c99a 0842 9362 de42
00000100: 0204 1742 40f9 e741 64cf 4c42 dd82 9e42
00000110: 6014 e341 ceb5 4442 ecde 7a42 1214 4642
00000120: 5921 e541 6153 1642 be8b 6d42 0e7a af43
00000130: 68e4 1643 fd8f 0d43 93b2 d942 436c a442
00000140: 1a8a 9a42 3f34 9742 4c46 f542 a3b6 fd42
00000150: d60b 5342 44db a442 138e 6342 9ece dc42
00000160: f9ec cf41 d9c0 ce42 9807 1743 2bd6 4643
00000170: 9a25 0a42 0c64 a442 7599 9142 4a3b 1142
00000180: a3b8 af41 5e35 3f42 4a4a 2043 4c6a cf41
00000190: 095b 3b43 e5b8 3242 a12e 3c42 02d0 c142
000001a0: 9355 1742 9257 9d42 2f76 1842 75db 9242
000001b0: 1099 0743 b77e 9b42 a619 1542 36c5 8942
000001c0: 4156 0942 f208 6642 8509 4443 fd8f 1842
000001d0: e5d1 f942 d30e 1943 fca9 6f42 bb67 9e42
000001e0: e20b d741 9853 7542 f568 a942 48c6 d443
000001f0: 96e8 c741 744a 5a42 0867 bd42 6766 b142

encoder2.0.weight f4 [128, 128]
-0.020128682 -0.07319334 -0.08974405 0.01873467 -0.0046103634 0.018083304 -0.09977306 0.025774885
0.03933737 0.05945545 -0.0069612134 0.009815834 -0.070105776 0.0033563862 -0.042973533 0.020412019
-0.06672663 -0.010269136 -0.065859 -0.06424686 0.038957153 0.049599458 -0.0998625 0.016805425
0.07488614 -0.0752692 -0.11266361 -0.043469775 0.008077234 0.048049908 0.00308862 0.047611464
-0.07104641 -0.16167109 0.014534055 0.03314739 0.008541933 -0.029366963 0.0034491136 0.019481357
0.041950863 0.023505032 -0.14638974 -0.00048144357 -0.05559371 -0.037597332 -0.0864814 0.050031755
-0.0643984 -0.046006333 -0.062426742 0.009630727 0.041426465 -0.023429167 -0.10480572 -0.02853603
0.013847023 -0.1084801 -0.1032193 0.041107357 -0.07004979 -0.012556139 0.030646782 -0.05687019
-0.09392696 0.027877362 0.03259936 -0.041619096 -0.05467108 -0.06546045 -0.0761031 0.030444924
0.042773083 -0.039778084 -0.014155804 -0.011266302 0.03505898 0.045357004 -0.21197861 -0.04908239
-0.065623246 -0.0861344 -0.12350411 -0.008642741 -0.09372453 -0.04825171 -0.05348936 -0.08774021
-0.08146695 0.04795451 -0.0016726055 0.044066448 -0.03664375 0.060387738 -0.0747333 0.06105487
0.041568667 -0.043123033 -0.15235303 0.054719176 0.034952614 -0.056715365 -0.05488605 0.07299748
0.065293364 -0.15988164 -0.0028051455 -0.0757695 0.006433485 0.0326289 -0.023737965 -0.063811764
-0.07629535 -0.11932377 -0.10842036 0.025602276 0.031282395 -0.059713785 -0.018138602 0.04614748
-0.076537214 -0.0047193463 0.009795989 0.024914509 -0.04359476 0.06117064 -0.038290918 -0.092537336
0.0043818927 0.10473587 0.032607034 0.0486727 0.05627579 0.018810805 0.11050795 0.02903355
0.10486762 -0.004672622 0.03284081 0.057852846 -0.07543503 0.053530276 0.020506483 0.09291952
0.12971704 -0.0014081703 -0.036630534 -0.03846397 -0.016673315 0.0020006504 0.10914553 -0.005298082
-0.09611755 0.05261756 0.106730774 -0.050027136 0.095535904 0.13254504 0.029513361 0.1015442
0.052285694 0.069476865 -0.01927077 0.086937316 0.056927625 0.059755646 0.08858798 0.019918393
0.08194008 -0.079203315 0.04220274 -0.07212269 0.11133095 0.0764502 0.02151837 0.011847658
0.044124525 0.07562567 0.107819855 -0.028840149 -0.05751021 -0.013520798 0.109317936 0.08415322
-0.035194505 0.08474836 0.010503477 0.041694827 -0.009101734 0.056868993 0.09115953 0.09266001
0.00902796 0.053858742 -0.020653883 0.12017978 0.018799925 -0.029822705 0.03004214 0.05239278
0.1338817 0.12602393 0.050367497 0.09889344 -0.011493917 0.07015588 0.08522103 0.06762601
-0.01999506 0.020630639 0.03519066 0.009548214 0.0029165337 0.04437197 -0.02074163 0.067179054
-0.02862981 4.77457e-05 0.014040817 0.10308433 0.11568653 0.07451192 0.025479961 0.028121756
0.07937882 0.106858276 0.07210449 0.055961847 -0.01947429 -0.014281108 -0.016069192 0.051058054
0.09024977 0.031424645 0.034042522 0.054883275 0.030579263 0.13065398 0.12501869 0.10351925
0.09487614 -0.008771916 0.028442059 -0.022745237 -0.073392935 0.08987039 0.058515687 0.041011687
0.011844954 -0.0031066844 0.022488017 0.0640443 0.09595182 -0.05214874 -0.029608898 0.02413497
00000000: e8e4 a4bc 64e6 95bd bacb b7bd 7379 993c
00000010: 8812 97bb 7023 943c d155 ccbd da25 d33c
00000020: 3920 213d 8f87 733d e41a e4bb 98d2 203c
00000030: 9e93 8fbd d1f6 5b3b 0405 30bd 1b37 a73c
00000040: f9a7 88bd e13f 28bc 15e1 86bd dc93 83bd
00000050: 8991 1f3d cd28 4b3d b684 ccbd 88ab 893c
00000060: e85d 993d bd26 9abd 2ebc e6bd 5d0d 32bd
00000070: 6056 043c fbcf 443d 726a 4a3b 3d04 433d
00000080: c880 91bd 1b8d 25be 3f20 6e3c 8fc5 073d
00000090: 77f3 0b3c fc92 f0bc 860a 623b 5e97 9f3c
000000a0: abd4 2b3d a08d c03c 31e7 15be 436a fcb9
000000b0: 3bb6 63bd a9ff 19bd 291d b1bd 19ee 4c3d
000000c0: 4fe3 83bd 2371 3cbd 2fb3 7fbd 32ca 1d3c
000000d0: ccae 293d 86ee bfbc 62a4 d6bd 64c4 e9bc
000000e0: a0de 623c d12a debd a464 d3bd 3060 283d
000000f0: 4476 8fbd 44b8 4dbc f60e fb3c b7f0 68bd
00000100: c75c c0bd 115f e43c e886 053d c978 2abd
00000110: c8ee 5fbd 2110 86bd f1db 9bbd a267 f93c
00000120: d432 2f3d 58ee 22bd bfed 67bc 4c96 38bc
00000130: 019a 0f3d 44c8 393d ec10 59be 9e0a 49bd
00000140: 7b65 86bd 3b67 b0bd b9ef fcbd 489a 0dbc
00000150: a5f2 bfbd 96a3 45bd a917 5bbd 24b1 b3bd
00000160: 25d8 a6bd f36b 443d 543b dbba 057f 343d
00000170: c217 16bd 2259 773d c60d 99bd ac14 7a3d
00000180: e843 2a3d c7a1 30bd 6f02 1cbe 3721 603d
00000190: 792a 0f3d 5f4e 68bd 32d0 60bd b47f 953d
000001a0: 87b8 853d 03b8 23be 88d6 37bb 0a2d 9bbd
000001b0: fccf d23b e2a5 053d 1f76 c2bc beaf 82bd
000001c0: bd40 9cbd 0560 f4bd 7e0b debd ddbb d13c
000001d0: f821 003d 7196 74bd 6897 94bc 2405 3d3d
000001e0: 8bbf 9cbd bfa4 9abb 5b7f 203c 8319 cc3c
000001f0: 6b90 32bd 118e 7a3d f0d6 1cbd 3784 bdbd
00000200: fb95 8f3b c37f d63d f48e 053d 065d 473d
00000210: 7181 663d 1e19 9a3c fe51 e23d c4d7 ed3c
00000220: d6c4 d63d cb1c 99bb 1684 063d 1bf7 6c3d
00000230: ae7d 9abd 9042 5b3d 36fd a73c 974c be3d
00000240: 8bd4 043e 5b92 b8ba e609 16bd 658c 1dbd
00000250: 7a96 88bc 581d 033b b187 df3d 889b adbb
00000260: 47d9 c4bd 8385 573d aa95 da3d 41e9 4cbd
00000270: 54a8 c33d e3b9 073e 01c6 f13c 68f6 cf3d
00000280: 8629 563d e349 8e3d bcdd 9dbc 310c b23d
00000290: f12c 693d 56c2 743d 9d6d b53d e62b a33c
000002a0: 33d0 a73d 5935 a2bd c8dc 2c3d 10b5 93bd
000002b0: 7b01 e43d ec91 9c3d 4b47 b03c ae1c 423c
000002c0: ebbb 343d a2e1 9a3d a8d0 dc3d 2d42 ecbc
000002d0: d38f 6bbd 5686 5dbc 15e2 df3d 8658 ac3d
000002e0: 1d28 10bd 8c90 ad3d c716 2c3c 32c8 2a3d
000002f0: 701f 15bc 76ef 683d d9b1 ba3d 88c4 bd3d
00000300: 02ea 133c fc9a 5c3d 5532 a9bc d120 f63d
00000310: 4d02 9a3c bf4e f4bc ef1a f63c d099 563d
00000320: 4918 093e 6b0c 013e 264e 4e3d a588 ca3d
00000330: fb50 3cbc e3ad 8f3d 5d88 ae3d 817f 8a3d
00000340: aecc a3bc 9601 a93c 1524 103d 1d70 1c3c
00000350: 5123 3f3b 62bf 353d 5aea a9bc 2c95 893d
00000360: 1089 eabc 8e42 4838 740b 663c e11d d33d
00000370: 0fed ec3d b599 983d 5abb d03c 995f e63c
00000380: 5d91 a23d 83d8 da3d 85ab 933d 4038 653d
00000390: 8c88 9fbc 4ffb 69bc 8aa3 83bc 4022 513d
000003a0: dfd4 b83d 21b7 003d 2c70 0b3d 49cd 603d
000003b0: 5d81 fa3c 28ca 053e e604 003e e701 d43d
000003c0: 6c4e c23d 15b8 0fbc 52ff e83c 3854 babc
000003d0: 094f 96bd f80d b83d 25ae 6f3d dffb 273d
000003e0: 5711 423c 8499 4bbb ca38 b83c a829 833d
000003f0: 6382 c43d eb99 55bd 5c8e f2bc b3b6 c53c

encoder2.0.bias f4 [128]
5.409704e-05 -0.00019263462 0.00021428551 0.0002015631 2.655703e-05 2.0596046e-05 2.2545752e-05 3.965872e-05
-1.5969183e-05 0.00030650417 -0.00011817758 0.00046096777 1.6745804e-05 0.00012676054 -5.9958e-05 8.819416e-05
3.067268e-05 5.7540863e-05 -6.533052e-05 2.7322274e-05 0.00011217383 -1.9005702e-05 -2.614757e-05 -0.00013632463
-0.00019668476 0.0002122676 -2.6295873e-05 0.00011266999 0.00018101605 2.8254944e-05 0.00012985252 1.2175489e-05
-3.0330502e-05 7.827084e-05 -7.351378e-05 0.00016624792 7.7774544e-05 -1.4335353e-05 -5.4862234e-05 5.2704445e-06
-1.37276e-05 -8.046581e-05 -3.5661946e-05 -2.1185973e-05 0.00014451443 -2.8230434e-06 -2.1181735e-05 1.583177e-05
-0.00013567315 0.00028565063 -2.2983833e-05 1.1001831e-05 -0.0007415124 -8.740283e-06 -3.038961e-05 0.00013990214
6.994064e-05 -5.747464e-05 -0.0002352389 7.185073e-05 -1.390141e-05 4.6257403e-05 4.8084585e-06 -3.2745093e-06
-1.8169634e-05 0.00019535531 0.00015536448 -0.00021816383 -7.2016146e-06 -0.000121304394 0.00011766333 0.00019521994
0.00016901737 -2.2037795e-05 -7.463922e-06 7.740355e-05 -4.4941935e-05 6.898511e-05 -0.00033184382 -6.157414e-05
-1.2950144e-05 2.1316442e-05 9.057169e-05 -1.9884841e-05 0.00022462197 -9.006265e-05 3.019161e-06 -8.307066e-05
-1.4498235e-07 7.476353e-05 -0.00012533934 0.00011786566 7.803226e-05 2.9256678e-05 3.6605732e-05 -0.00020952904
-2.3531362e-05 8.549166e-05 0.00018541387 0.00025431497 -2.5926325e-05 -4.606943e-05 0.00017548828 0.0001538308
-0.00023803247 4.9389673e-05 -7.257466e-05 -4.6057266e-05 1.2212705e-05 4.2856864e-06 -3.5957844e-05 -2.4418288e-05
0.0001703581 2.7825516e-05 6.0532402e-05 4.8985436e-05 -2.8523104e-06 -3.719308e-05 -7.351645e-06 -2.2484652e-05
0.00033808203 0.00022274486 6.716343e-06 -2.0580388e-05 5.759938e-05 0.00012106015 -5.3106766e-07 3.3226418e-06
00000000: 41e6 6238 f6fd 49b9 d4b1 6039 af5a 5339
00000010: cac6 de37 acc5 ac37 a220 bd37 3a57 2638
00000020: 8ff5 85b7 4bb2 a039 1bd6 f7b8 0cae f139
00000030: 5779 8c37 06eb 0439 6a7b 7bb8 e1f4 b838
00000040: 8aa6 0038 0858 7138 0e02 89b8 2332 e537
00000050: de3e eb38 6f6e 9fb7 7b57 dbb7 5df2 0eb9
00000060: 2a3d 4eb9 2694 5e39 f595 dcb7 3e49 ec38
00000070: 20cf 3d39 0805 ed37 0529 0839 5445 4c37
00000080: 426e feb7 5625 a438 692b 9ab8 d652 2e39
00000090: e41a a338 df81 70b7 e01b 66b8 c6d8 b036
000000a0: 984f 66b7 c1bf a8b8 b993 15b8 88b8 b1b7
000000b0: cc88 1739 8473 3db6 6eaf b1b7 78ce 8437
000000c0: 7c43 0eb9 61c3 9539 68cd c0b7 8194 3837
000000d0: 0e62 42ba 3ba3 12b7 31ed feb7 b2b2 1239
000000e0: 18ad 9238 ed10 71b8 76aa 76b9 91ae 9638
000000f0: 1a3a 69b7 8204 4238 5858 a136 a4bf 5bb6
00000100: fe6a 98b7 4bd8 4c39 56e9 2239 e8c2 64b9
00000110: 66a5 f1b6 cd64 feb8 05c2 f638 f4b3 4c39
00000120: 413a 3139 cedd b8b7 9a72 fab6 b753 a238
00000130: 0980 3cb8 19ac 9038 53fb adb9 5d21 81b8
00000140: 7244 59b7 b6d0 b237 4ef1 bd38 5fce a6b7
00000150: 8088 6b39 04e0 bcb8 cb9c 4a36 3936 aeb8
00000160: 72ac 1bb4 5dca 9c38 866d 03b9 a52e f738
00000170: 40a5 a338 3d6c f537 1b89 1938 06b5 5bb9
00000180: 3765 c5b7 fc49 b338 a86b 4239 9455 8539
00000190: 5c7c d9b7 ac3a 41b8 4703 3839 a44d 2139
000001a0: 5b98 79b9 c227 4f38 3933 98b8 9d2d 41b8
000001b0: 2be5 4c37 c4cd 8f36 71d1 16b8 e0d5 ccb7
000001c0: 27a2 3239 d76a e937 2ce4 7d38 b675 4d38
000001d0: 526a 3fb6 c4ff 1bb8 26ae f6b6 6c9d bcb7
000001e0: 9a40 b139 9e90 6939 f25c e136 0ca4 acb7
000001f0: dd96 7138 ace1 fd38 b18e 0eb5 8dfa 5e36

encoder2.1.weight f4 [128]
1.0069833 0.99951714 1.060271 0.98247164 0.95017457 0.9837417 0.9929459 0.96388865
0.9514824 0.9824786 0.9648417 1.0366173 0.9790373 1.0132782 0.92643267 0.962923
0.9727452 1.0102137 0.9595363 0.91447204 1.0247794 1.026267 0.9694324 1.0162184
1.0111134 1.013943 0.90250164 0.9798178 1.0009435 1.0185308 0.9732449 0.9291025
1.0112606 0.95914024 0.98723346 0.9866912 0.99433005 1.0172647 0.999631 0.9493755
0.99311674 0.9226843 1.0919896 0.9984947 1.0080843 0.98107624 0.9793815 1.0645317
1.0157009 0.98848027 1.0136869 0.96201766 0.9681536 0.9338742 0.9043566 0.93766767
1.0145391 0.99836093 0.9775412 0.9715691 0.9730602 1.0075983 0.9186366 0.96217763
1.0013597 0.94742084 0.938864 0.9758271 0.91765755 0.95789146 1.0088243 0.958705
0.9496054 1.0048425 1.0668807 0.9908468 0.95810205 1.00149 1.1125965 0.9476347
0.9493042 0.992317 1.0530206 0.9972296 0.98698586 0.9849702 0.990146 1.0183712
1.0585853 1.0310032 1.0528982 0.9990777 1.1656691 0.9832525 0.88556486 0.9600986
0.95005286 1.0009478 0.9895871 1.1992736 1.0388044 0.9819844 0.9107659 0.9536417
0.980586 0.9609194 1.0801857 0.95408314 1.0686153 1.1625538 0.95613086 1.0302588
0.8946015 0.9823679 0.94579655 0.95522624 0.957546 0.95751137 1.1262212 0.9633107
1.0047055 0.9223727 0.90165037 1.0289117 1.0120436 0.9545389 1.0636053 1.0641499
00000000: d4e4 803f 5be0 7f3f f6b6 873f 4383 7b3f
00000010: a43e 733f 7fd6 7b3f b431 7e3f 68c1 763f
00000020: 5a94 733f b883 7b3f deff 763f e0af 843f
00000030: 30a2 7a3f 1ab3 813f b12a 6d3f 1f82 763f
00000040: d405 793f af4e 813f 2ca4 753f d71a 6a3f
00000050: f92b 833f b85c 833f b92c 783f 7213 823f
00000060: 2a6c 813f e2c8 813f 590a 673f 57d5 7a3f
00000070: eb1e 803f 385f 823f 9426 793f a9d9 6d3f
00000080: fd70 813f 378a 753f 55bb 7c3f cb97 7c3f
00000090: 6a8c 7e3f bb35 823f d1e7 7f3f 460a 733f
000000a0: e63c 7e3f 0a35 6c3f 51c6 8b3f 599d 7f3f
000000b0: e808 813f d027 7b3f bfb8 7a3f 9342 883f
000000c0: 7d02 823f 0b0d 7d3f 7ec0 813f ca46 763f
000000d0: ead8 773f 6112 6f3f ea83 673f fd0a 703f
000000e0: 6bdc 813f 9594 7f3f 2440 7a3f c1b8 783f
000000f0: 791a 793f fbf8 803f c52b 6b3f 4651 763f
00000100: 8e2c 803f 2c8a 723f 6459 703f cecf 793f
00000110: 9beb 6a3f 6038 753f 2821 813f b16d 753f
00000120: 5719 733f ae9e 803f 8c8f 883f 23a8 7d3f
00000130: 2d46 753f d330 803f 9069 8e3f 3098 723f
00000140: 9a05 733f 7d08 7e3f 61c9 863f 704a 7f3f
00000150: 1bab 7c3f 0227 7c3f 357a 7d3f fd59 823f
00000160: b97f 873f eaf7 833f 5ec5 863f 8ec3 7f3f
00000170: a534 953f 70b6 7b3f 61b4 623f 06c9 753f
00000180: aa36 733f 0f1f 803f 9555 7d3f cc81 993f
00000190: 8bf7 843f 5463 7b3f f427 693f dd21 743f
000001a0: af07 7b3f d0fe 753f 8643 8a3f cb3e 743f
000001b0: 63c8 883f 90ce 943f fec4 743f 85df 833f
000001c0: 9b04 653f 767c 7b3f b91f 723f b589 743f
000001d0: bc21 753f 771f 753f 0428 903f 889b 763f
000001e0: 319a 803f 9e20 6c3f 8fd2 663f 61b3 833f
000001f0: a58a 813f a95c 743f 3824 883f 1036 883f

encoder2.1.bias f4 [128]
0.0004491128 0.04414095 0.012911909 -0.041944586 -0.01901982 -0.026626205 -0.032822244 -0.030962076
0.010256879 0.00036980055 0.04801819 0.06270602 -0.014330918 0.055406675 -0.011731403 0.048247334
-0.032540098 0.02664831 -0.021185184 -0.03125043 0.14782408 0.17340109 -0.024849517 -0.0145617
0.020085935 -0.010365517 -0.033452086 -0.028756853 0.04708303 0.01933715 0.030551843 -0.033536475
-0.026470287 0.00028658513 -0.04019563 -0.0013316876 -0.002945163 -0.0342071 0.09954897 -0.023777615
-0.039597847 -0.03363979 -0.02423848 -0.034543753 -0.046216093 -0.014683205 -0.020483691 -0.05787953
0.049579114 -0.012803323 0.037064992 -0.0005645007 -0.04680425 -0.006852551 -0.0492144 -0.035831835
-0.010002622 0.0112353945 0.002400561 -0.035322506 0.01778389 -0.00085284567 -0.080114625 -0.012202339
0.06878151 0.0049431445 -0.06260713 0.14858173 -0.068866216 0.0017465093 0.001557897 0.0069300085
0.09465691 0.01252312 0.11578413 -0.04284661 -0.033618875 0.051048838 -0.047762845 -0.0329918
-0.022905013 0.07542183 0.009852704 0.007313154 0.044374656 0.0015542842 0.056960817 -0.011416278
0.04700862 0.027798224 0.14429569 0.005036421 0.30161962 -0.042552534 -0.09478399 -0.014044443
0.008781028 -0.037195016 -0.02969393 0.037143808 -0.02053967 -0.017331626 -0.026287802 0.050359577
-0.0011237775 0.024724398 0.105215475 0.013236755 0.11540243 0.14568657 0.018575283 0.009900842
-0.05650582 -0.03301716 -0.026446782 0.033252005 -0.016515624 -0.03170158 0.11352648 0.013478094
0.118674 -0.039184976 -0.11273873 0.14390813 -0.014564313 -0.019614605 0.083128475 0.023519967
00000000: e676 eb39 24cd 343d 798c 533c 16ce 2bbd
00000010: 74cf 9bbc 331f dabc 9e70 06bd 2ea4 fdbc
00000020: 780c 283c cae1 c139 b9ae 443d 046c 803d
00000030: 3acc 6abc 1cf2 623d 1235 40bc ff9e 453d
00000040: c448 05bd 8e4d da3c 8d8c adbc 7300 00bd
00000050: 325f 173e 0e90 313e 3791 cbbc 3294 6ebc
00000060: 428b a43c 21d4 29bc 0e05 09bd 7e93 ebbc
00000070: 23da 403d f168 9e3c dc47 fa3c 8b5d 09bd
00000080: 37d8 d8bc ce40 9639 2ca4 24bd 058c aeba
00000090: a303 41bb be1c 0cbd 55e0 cb3d 46c9 c2bc
000000a0: 5a31 22bd e0c9 09bd c78f c6bc c07d 0dbd
000000b0: 164d 3dbd d391 70bc 6acd a7bc 1613 6dbd
000000c0: 7813 4b3d 07c5 51bc 76d1 173d 00fb 13ba
000000d0: d0b5 3fbd 5d8b e0bb 0a95 49bd 67c4 12bd
000000e0: 0ae2 23bc a914 383c bb52 1d3b 55ae 10bd
000000f0: 85af 913c 8191 5fba 2313 a4bd 52ec 47bc
00000100: 52dd 8c3d 1afa a13b 2b38 80bd cf25 183e
00000110: bb09 8dbd 21eb e43a 5932 cc3a 2015 e33b
00000120: 7bdb c13d c62d 4d3c 3b20 ed3d ed7f 2fbd
00000130: f2b3 09bd 9618 513d f9a2 43bd 6922 07bd
00000140: 4ba3 bbbc c376 9a3d 3c6d 213c 2fa3 ef3b
00000150: 33c2 353d 20b9 cb3a bf4f 693d 570b 3bbc
00000160: 1c8c 403d 1ab9 e33c 40c2 133e 9008 a53b
00000170: e36d 9a3e 914b 2ebd 1c1e c2bd aa1a 66bc
00000180: 4dde 0f3c cd59 18bd af40 f3bc 1b24 183d
00000190: cf42 a8bc 0efb 8dbc 8459 d7bc d845 4e3d
000001a0: b74b 93ba d28a ca3c 367b d73d f9de 583c
000001b0: 1c58 ec3d dc2e 153e 312b 983c 2437 223c
000001c0: a672 67bd 003d 07bd eca6 d8bc 4133 083d
000001d0: c64b 87bc 84d9 01bd 9280 e83d 39d3 5c3c
000001e0: 5b0b f33d 6d80 20bd 90e3 e6bd a75c 133e
000001f0: 289f 6ebc cfae a0bc 433f aa3d f2ac c03c

encoder2.1.running_mean f4 [128]
-2.8739774 4.628895 2.3029141 0.89157295 -3.5835936 -2.6216896 1.264708 -0.030958846
3.3464012 -3.2418191 1.3609672 4.9223294 -3.2763872 -4.141908 -3.4526134 2.2189112
-1.7452633 -2.4021544 -1.4694843 0.45672148 -3.2836843 -1.6725439 -1.9165674 -1.8971863
2.1474695 -3.9986718 2.5693738 -1.6660676 -4.2163444 0.13320667 3.7444363 -3.79015
-1.9640377 -3.7629766 2.0386138 2.7473173 -0.8886192 -1.8319322 -2.0030758 0.81254333
-1.5663744 2.2280955 3.13417 -0.8276678 1.310736 1.9625063 -1.6074841 3.5401034
1.7619675 -4.5375547 -1.6186186 0.32387033 3.8228142 2.4982696 -2.671295 3.0303833
-1.4077715 -1.4010355 4.249641 1.7045045 1.3235929 0.42612648 -0.55030125 0.7835142
-0.28777146 -4.2938237 1.4670259 3.791478 -2.3319633 -3.1569421 -1.5480492 -4.2025194
-3.3130584 -0.6899541 -0.18252 -1.2894219 0.5560357 -2.4732063 3.227427 2.1163206
0.6082643 -1.9527695 -0.23063542 0.4137107 3.0422363 -0.8667846 2.23994 -2.8756847
1.4350439 1.9291102 -1.5978576 -3.004814 -1.1050392 -1.8379642 0.8676379 2.7830174
1.7647475 -0.19977343 -1.1366615 1.8409656 -0.9653505 -1.5614936 1.3113488 3.5864272
3.6832147 2.9283264 0.7037756 2.626794 -1.160185 0.15373577 -0.6269984 0.7643172
-2.0030315 -2.6556022 -3.6488554 -4.4538417 -0.104534514 -0.23707224 1.0257077 2.3849876
-4.1346126 1.7885371 -0.10569971 -4.083248 2.6498466 -3.5264583 0.05116433 1.460887
00000000: 3fef 37c0 e81f 9440 f262 1340 203e 643f
00000010: 9959 65c0 c3c9 27c0 f4e1 a13f 689d fdbc
00000020: 702b 5640 f779 4fc0 2c34 ae3f b983 9d40
00000030: 54b0 51c0 838a 84c0 9ef7 5cc0 a402 0e40
00000040: ca64 dfbf e6bc 19c0 1018 bcbf 66d7 e93e
00000050: e227 52c0 eb15 d6bf 1552 f5bf 00d7 f2bf
00000060: 2470 0940 3dea 7fc0 9f70 2440 b441 d5bf
00000070: 4bec 86c0 5467 083e d8a4 6f40 d191 72c0
00000080: 9665 fbbf 9cd4 70c0 a678 0240 0cd4 2f40
00000090: 8c7c 63bf c17c eabf 6532 00c0 d702 503f
000000a0: f57e c8bf 1e99 0e40 3e96 4840 09e2 53bf
000000b0: 32c6 a73f 6833 fb3f 0ac2 cdbf 0e91 6240
000000c0: 2788 e13f a633 91c0 e52e cfbf 55d2 a53e
000000d0: fda8 7440 a6e3 1f40 7ff6 2ac0 cdf1 4140
000000e0: db31 b4bf 2255 b3bf 0ffd 8740 342d da3f
000000f0: 7e6b a93f 402d da3e 8be0 0cbf 6394 483f
00000100: c856 93be 0167 89c0 81c7 bb3f 93a7 7240
00000110: e33e 15c0 570b 4ac0 7a26 c6bf 0a7b 86c0
00000120: 2609 54c0 d5a0 30bf 86e6 3abe c70b a5bf
00000130: 5b58 0e3f 0349 1ec0 2a8e 4e40 cc71 0740
00000140: 36b7 1b3f 5af4 f9bf b12b 6cbe e4d1 d33e
00000150: 00b4 4240 98e5 5dbf 2d5b 0f40 380b 38c0
00000160: 85af b73f 15ed f63f 9986 ccbf df4e 40c0
00000170: ed71 8dbf 6942 ebbf 841d 5e3f f51c 3240
00000180: 3fe3 e13f 6891 4cbe 207e 91bf c3a4 eb3f
00000190: 3621 77bf 06df c7bf 47da a73f 0688 6540
000001a0: cab9 6b40 b369 3b40 a32a 343f 651d 2840
000001b0: f180 94bf e96c 1d3e f882 20bf 4baa 433f
000001c0: ab31 00c0 63f5 29c0 d986 69c0 df85 8ec0
000001d0: 3116 d6bd 11c3 72be 644a 833f a3a3 1840
000001e0: bf4e 84c0 c9ee e43f 1779 d8bd f8a9 82c0
000001f0: 1697 2940 7eb1 61c0 b091 513d 58fe ba3f

encoder2.1.running_var f4 [128]
2.5338054 2.154067 2.2697344 2.1077347 2.9927254 3.7644868 2.834111 1.7657887
4.1363335 1.5231814 1.3780428 3.0125678 2.091899 3.1139495 2.9549682 1.5763086
3.7365143 1.5548283 1.6737806 2.8470187 1.5316117 1.364463 1.2338301 3.5661447
0.715576 2.3510032 4.7864137 1.2568753 2.128877 1.3617966 0.84364426 2.6379757
2.4002788 2.1383905 2.4387214 1.018407 1.4849888 2.7104633 1.6186503 1.7679982
4.357876 2.107045 1.5593308 1.7856421 1.1967028 1.321235 1.3073419 1.847954
1.0064535 2.8151996 1.3417559 1.2515844 1.4728245 2.9174721 2.0874074 4.00896
3.506742 0.8972949 2.9998443 1.7592512 1.5459739 1.9783345 1.5585309 1.8890319
1.1329466 2.5056412 1.4356686 1.4188887 3.232948 3.0881593 1.0923566 1.9290433
0.8149773 1.2713671 1.81725 1.6131256 1.5823368 1.3123435 1.6746942 0.90709907
0.9374829 0.68934965 1.7924415 1.4693884 3.2774186 1.4498968 1.1957791 3.20596
1.0816782 1.0615344 0.8863606 2.233706 1.2117159 3.608037 1.0893271 2.150497
2.509473 2.9769187 2.040309 1.1116488 2.3705223 2.7102008 1.331915 1.9256481
2.66138 2.434391 1.2454047 2.058269 1.1907468 1.5529333 1.9160849 1.4136326
2.193297 3.1109977 2.3931634 1.6960708 1.3404977 1.2263842 1.2459159 2.873314
1.6404644 3.417219 1.8722217 1.6089408 1.4764487 1.9985675 1.989499 1.519206
00000000: de29 2240 3cdc 0940 5443 1140 20e5 0640
00000010: d088 3f40 5aed 7040 1362 3540 5d05 e23f
00000020: d85c 8440 9cf7 c23f b563 b03f e9cd 4040
00000030: ace1 0540 f34a 4740 331e 3d40 7bc4 c93f
00000040: 0d23 6f40 9d04 c73f 713e d63f 8e35 3640
00000050: da0b c43f b9a6 ae3f 25ee 9d3f b73b 6440
00000060: fd2f 373f d676 1640 4d2a 9940 4ae1 a03f
00000070: 853f 0840 5a4f ae3f 12f9 573f 98d4 2840
00000080: 2b9e 1940 64db 0840 0314 1c40 295b 823f
00000090: 1d14 be3f 3b78 2d40 ef2f cf3f c44d e23f
000000a0: b873 8b40 d3d9 0640 2798 c73f ec8f e43f
000000b0: 8f2d 993f 3a1e a93f fb56 a73f c289 ec3f
000000c0: 78d3 803f 3b2c 3440 a8be ab3f eb33 a03f
000000d0: 8385 bc3f ddb7 3a40 1598 0540 6649 8040
000000e0: 766e 6040 1eb5 653f 73fd 3f40 252f e13f
000000f0: 79e2 c53f 113a fd3f f17d c73f cccb f13f
00000100: 6504 913f 6d5c 2040 fdc3 b73f 259e b53f
00000110: 9fe8 4e40 67a4 4540 57d2 8b3f e4ea f63f
00000120: 5aa2 503f 28bc a23f a69b e83f e67a ce3f
00000130: 038a ca3f dffa a73f 615c d63f a537 683f
00000140: e1fe 6f3f 3879 303f b96e e53f eb14 bc3f
00000150: 3ac1 5140 3896 b93f 4a0f 993f 732e 4d40
00000160: 6e74 8a3f 5ce0 873f 87e8 623f 0af5 0e40
00000170: 8219 9b3f 14ea 6640 126f 8b3f bea1 0940
00000180: 359b 2040 d685 3e40 6c94 0240 824a 8e3f
00000190: a3b6 1740 ee73 2d40 317c aa3f a37b f63f
000001a0: 0d54 2a40 10cd 1b40 6c69 9f3f aeba 0340
000001b0: 646a 983f 85c6 c63f 4542 f53f eaf1 b43f
000001c0: fa5e 0c40 961a 4740 9729 1940 d918 d93f
000001d0: 6e95 ab3f 28fa 9c3f 2c7a 9f3f 60e4 3740
000001e0: bdfa d13f b7b3 5a40 f6a4 ef3f c6f1 cd3f
000001f0: 45fc bc3f 0fd1 ff3f e7a7 fe3f 5875 c23f

encoder3.0.weight f4 [128, 128]
0.03722823 -0.11934662 -0.09282105 -0.13075657 -0.026986424 0.0033083106 0.14467971 -0.021103127
-0.005765709 0.091742806 -0.05639092 -0.037755214 0.049844015 -0.069011524 -0.022193104 0.07312672
0.12124841 -0.04644202 0.045030016 0.00051585486 -0.058701187 0.031922303 0.016458163 0.085517205
-0.018358622 0.03517653 -0.12728107 -0.10226456 0.038052157 -0.053762104 -0.03108867 0.004511181
0.047495786 0.031105269 0.06712316 -0.09344663 0.0047072624 0.0040928684 -0.052104235 -0.016368786
-0.012376979 -0.14991571 0.04616465 -0.052386515 -0.051021174 -0.08713979 0.06854551 -0.084011614
-0.030379271 -0.04787247 0.0039537805 0.012414852 -0.10459884 -0.081623234 -0.04325313 -0.12749861
-0.0536452 -0.039498616 -0.08741356 -0.08019117 -0.008135799 -0.018358445 -0.0106583005 -0.07547414
0.015465177 0.021390911 -0.020036958 0.031376757 0.02996642 -0.06550012 0.0051882323 0.0040343446
0.044952873 0.00492756 0.059105054 -0.042366087 0.07151756 -0.121876664 -0.026974741 -0.038033143
0.09429875 -0.0040566726 0.095796846 -0.02017051 -0.085933976 0.048027672 -0.10920599 0.0323064
0.09224868 -0.05042126 0.07294994 -0.0019548275 -0.097101234 -0.07026685 -0.105650224 -0.08096007
-0.035666842 0.08233398 0.041130334 0.060769152 0.11802028 -0.10311774 -0.08400215 0.010739771
-0.035032257 -0.07494942 0.089276515 -0.037578516 0.12736505 0.0073454943 0.0066748057 -0.0041166656
0.013194789 0.03797363 0.033807456 0.0070205936 -0.059937414 -0.03800406 -0.10078818 -0.11530042
0.1474324 -0.05848367 -0.032512303 -0.05021088 0.06335767 0.076964214 0.011183604 -0.042303223
-0.057932936 0.037747584 0.11307057 0.00554625 0.0032722189 0.011766353 0.121272296 0.024617149
0.017542647 -0.065313555 -0.025964256 0.13022146 -0.087217756 -0.06623308 -0.110171825 0.052174993
0.015093598 -0.012751254 -0.07956669 -0.0062736026 -0.05093893 -0.03197312 0.011251393 0.003763962
0.08407362 0.017464608 0.0084393425 -0.05614772 0.010744408 -0.044313416 -0.0199867 0.051267806
0.0019427777 0.00070521666 0.13324177 0.074780315 0.04768911 0.04268269 -0.04266262 0.021705424
-0.033928875 0.09216095 0.10047941 0.03929102 0.015635733 0.008048371 0.090542324 0.1110295
-0.029132178 -0.014302364 -0.092780784 0.07484814 -0.0019449835 0.12129742 -0.03355906 0.056972977
0.013381908 0.0048973947 0.073519446 0.10716893 0.062183075 -0.026550682 0.10416609 0.008147347
0.010407647 -0.01882523 0.039015636 -0.004973257 -0.071120806 0.019399926 0.08439413 -0.031620868
0.061801802 -0.017602801 -0.062211115 -0.036665272 -0.06349353 -0.012494212 0.12987679 -0.02175652
0.020704787 0.06359673 0.06871914 -0.02103536 0.0085552 -0.0038410306 0.06974236 0.057131898
-0.04232181 -0.045214478 -0.038007542 0.042236626 -0.01910634 0.08682925 -0.07454255 0.021039149
0.1069781 0.06880685 -0.0021184215 0.0711877 -0.010089781 0.081988595 0.092080235 0.08053366
0.051326703 -0.021172514 0.0039867116 0.051483903 -0.01442753 -0.06503089 0.028065678 0.07365328
0.0044283653 -0.041097738 -0.11368852 0.021792695 -0.08972227 0.075520545 0.0814012 0.032613575
-0.031855527 0.011192826 -0.002838536 -0.008257087 0.09494118 0.0030653053 -0.008273672 0.011346633
00000000: a17c 183d 006c f4bd f618 bebd 0de5 05be
00000010: a212 ddbc 3ed0 583b eb26 143e 77e0 acbc
00000020: 46ee bcbb a7e3 bb3d 2afa 66bd 36a5 1abd
00000030: 3d29 4c3d ea55 8dbd 50ce b5bc 76c3 953d
00000040: 1651 f83d fd39 3ebd 6571 383d 6f3a 073a
00000050: a870 70bd f6c0 023d 45d3 863c a523 af3d
00000060: d264 96bc 4415 103d f855 02be 1570 d1bd
00000070: 94dc 1b3d a735 5cbd abad febc 87d2 933b
00000080: f18a 423d 7ad0 fe3c de77 893d f260 bfbd
00000090: 613f 9a3b 781d 863b 406b 55bd d517 86bc
000000a0: d0c8 4abc 8183 19be 2517 3d3d 3e93 56bd
000000b0: 94fb 50bd 5976 b2bd 9761 8c3d 480e acbd
000000c0: f3dd f8bc ec15 44bd b78e 813b aa67 4b3c
000000d0: eb37 d6bd 152a a7bd 322a 31bd ff8e 02be
000000e0: 12bb 5bbd 4dc9 21bd e105 b3bd 453b a4bd
000000f0: 044c 05bc 7364 96bc 27a0 2ebc 3092 9abd
00000100: a761 7d3c fe3b af3c 8c24 a4bc ea84 003d
00000110: 237c f53c ed24 86bd 0c02 aa3b 8932 843b
00000120: 8120 383d 5f77 a13b 2418 723d 1088 2dbd
00000130: cc77 923d 799a f9bd 22fa dcbc a4c8 1bbd
00000140: b41f c13d d6ed 84bb 2331 c43d a03c a5bc
00000150: 27fe afbd aab8 443d 64a7 dfbd b753 043d
00000160: e0ec bc3d 8686 4ebd c766 953d 901c 00bb
00000170: 03dd c6bd 11e8 8fbd 255f d8bd 65ce a5bd
00000180: 6517 12bd b89e a83d 4878 283d 13e9 783d
00000190: 9eb4 f13d 652f d3bd 5209 acbd ddf5 2f3c
000001a0: fc7d 0fbd 157f 99bd 9bd6 b63d eeeb 19bd
000001b0: fc6b 023e 79b2 f03b 54b8 da3b 18e5 86bb
000001c0: f52e 583c 3d8a 1b3d b079 0a3d 020d e63b
000001d0: ef80 75bd 25aa 1bbd 096a cebd a022 ecbd
000001e0: 85f8 163e 938c 6fbd 9f2b 05bd eca9 4dbd
000001f0: abc1 813d 6a9f 9d3d 6f3b 373c 2546 2dbd
00000200: 164b 6dbd 369d 1a3d 8b91 e73d 51bd b53b
00000210: b972 563b a9c7 403c 9c5d f83d e7a9 c93c
00000220: 99b5 8f3c 1dc3 85bd feb2 d4bc c658 053e
00000230: 399f b2bd 36a5 87bd c4a1 e1bd 72b5 553d
00000240: 234b 773c a3ea 50bc dcf3 a2bd cb92 cdbb
00000250: 57a5 50bd 3ff6 02bd c357 383c ceac 763b
00000260: ca2e ac3d f011 8f3c 2b45 0a3c 27fb 65bd
00000270: 5009 303c fc81 35bd 26bb a3bc 31fe 513d
00000280: cda4 fe3a 4ade 383a 8870 083e 6c26 993d
00000290: a855 433d 0bd4 2e3d 00bf 2ebd 93cf b13c
000002a0: 01f9 0abd e1be bc3d 26c8 cd3d 9fef 203d
000002b0: 8216 803c 51dd 033c 416e b93d 6f63 e33d
000002c0: 9ba6 eebc 7654 6abc da03 bebd fb49 993d
000002d0: d1ee feba c86a f83d 3a75 09bd 7f5c 693d
000002e0: ca3f 5b3c 537a a03b 5d91 963d 627b db3d
000002f0: aeb3 7e3d d180 d9bc 0855 d53d 737c 053c
00000300: d684 2a3c 5e37 9abc dcce 1f3d b4f6 a2bb
00000310: c9a7 91bd 98ec 9e3c d4d6 ac3d e284 01bd
00000320: e323 7d3d c033 90bc 15d1 7ebd 532e 16bd
00000330: e508 82bd 86b4 4cbc 6cfe 043e bb3a b2bc
00000340: 169d a93c 013f 823d 9fbc 8c3d 5952 acbc
00000350: 1c2b 0c3c cdb9 7bbb 15d5 8e3d 2303 6a3d
00000360: a259 2dbd d132 39bd ccad 1bbd 5000 2d3d
00000370: e684 9cbc 89d3 b13d c4a9 98bd 4b5a ac3c
00000380: 5617 db3d 9bea 8c3d 37d5 0abb dbca 913d
00000390: 9c4f 25bc a3e9 a73d 9094 bc3d d5ee a43d
000003a0: f33b 523d fb71 adbc f6a2 823b c9e0 523d
000003b0: 7261 6cbc ea2e 85bd fee9 e53c 88d7 963d
000003c0: d21b 913b 1a56 28bd 87d5 e8bd 9886 b23c
000003d0: 4fc0 b7bd 84aa 9a3d acb5 a63d d095 053d
000003e0: f17a 02bd 1d62 373c bb06 3abb bc48 07bc
000003f0: 8570 c23d 4ae3 483b 4c8e 07bc 3ae7 393c
