saved-model/logmel/unet/logmel-unet-valve-2.pkl (torch, 772879 bytes, 56 tensors)

encoder1.0.weight f4 [128, 320]
000000 72 e5 8e 3d 83 85 94 3d 38 00 35 3d e4 16 db 3d
       0.06977357 0.07252028 0.04418966 0.106977254
000010 e3 37 96 3d 12 bf c3 3b c0 2c b5 3d fe f6 5a 3d
       0.07334878 0.005973705 0.08846426 0.053458206
000020 af ff 89 3d 8e af dd bc 19 37 ad 3c f6 14 33 bd
       0.06738221 -0.02706125 0.021144437 -0.04372116
000030 65 fe 0d bd 68 ef 79 bd 1c 72 a9 bd 50 6e f3 3b
       -0.034666438 -0.06101933 -0.08273718 0.0074289218
000040 6e 37 fc 3d 69 62 4f 3d b2 32 f2 bc eb 22 56 bd
       0.1231526 0.05063096 -0.029565189 -0.052279394
000050 61 a7 0d bd 35 69 ab bc 13 17 80 bd 06 59 af 3c
       -0.034583453 -0.02092419 -0.06254401 0.021404754
000060 ce cf 3a bd f2 41 82 3d 57 75 ef bb a8 83 fd ba
       -0.045608334 0.06360234 -0.007307689 -0.0019341605
000070 5e 69 19 bd 55 87 12 bc b7 6a 8f 3b e7 c0 82 3c
       -0.037454 -0.0089433985 0.004376735 0.015961124
000080 8c d9 80 3d 85 02 40 3c 35 2b 05 bc cf 0c cb 3c
       0.06291494 0.011719351 -0.008127977 0.024786381
000090 e5 e7 18 bd 5e 4e 36 bc 56 61 12 3c ce b3 f3 3b
       -0.037330527 -0.011127083 0.0089343395 0.007437206
0000a0 05 7c 0e bd 18 a8 82 bc 18 f0 78 bc 06 fc 69 bb
       -0.034786243 -0.015949294 -0.015193962 -0.0035703196
0000b0 b7 8b a9 bc 7e 07 e2 bc eb e9 4d bc 90 1c 86 bc
       -0.020696504 -0.027591463 -0.012567977 -0.016371042
0000c0 15 23 71 bc 70 ea a3 3c 6c 3c 0b bc b0 e6 dd bb
       -0.014717837 0.02000925 -0.008498292 -0.006771885
0000d0 65 d8 f5 3b f8 c8 0e 3c f3 8d 09 bd 6b 1d 0e bb
       0.007502603 0.008714907 -0.03358264 -0.0021685015
0000e0 7a 1f 1e 3d e6 aa cd bc a4 e8 5a 3d 66 b5 ef 3c
       0.038604237 -0.025105905 0.05344452 0.029261302
0000f0 4c 6c 31 bc 0c ec 0b bd 67 ad 08 3d ee 1a 0c bd
       -0.010829043 -0.03416066 0.033368494 -0.03420537
000100 c8 7e 2e 3c 3f e3 ba 3d f0 45 b9 3d 46 eb 02 3e
       0.010650344 0.09125375 0.09046543 0.12785062
000110 2c 43 9a 3d 70 59 58 3d ce ac 04 3d e9 33 8c 3d
       0.07532343 0.05281967 0.032391362 0.068458386
000120 47 42 37 3d cf a6 3e 3c 70 68 e5 3c 95 2c f1 bc
       0.04474094 0.01163645 0.028003901 -0.029440204
000130 8f 6b 58 bd cd d7 a3 3c d2 86 5a bd ac cc 14 3d
       -0.05283695 0.020000363 -0.05335123 0.036328003
000140 58 a6 bc 3d 1c d5 4c 3d ff a2 c3 bc 92 b1 63 bc
       0.09211415 0.050007924 -0.023881434 -0.0138973165
000150 af a2 de bc b4 7c 03 bd 21 b3 f2 ba d4 46 b3 3c
       -0.027177183 -0.032101348 -0.0018516519 0.02188436
000160 6f ba 62 bb 26 a1 fa 3c 19 08 f3 3c fb 6a b0 b7
       -0.0034595986 0.03059442 0.029666947 -2.1030652e-05
000170 55 76 75 bc a7 8b c7 3c ed 89 07 3d a3 04 78 3b
       -0.014981826 0.024358584 0.03309052 0.003784456
000180 2e f3 b2 bb 63 c0 fa bc f1 61 c2 3c 73 a4 54 bd
       -0.005461118 -0.030609315 0.023728343 -0.051914643
000190 a9 46 d4 3b 72 c6 12 3d d0 cf 5e 3c d8 47 3a 3d
       0.00647815 0.035833783 0.013599351 0.04547867
0001a0 99 30 09 bd 92 05 75 3c 9e c3 01 bd 6d 7c fe bb
       -0.033493612 0.014954941 -0.031680696 -0.0077662976
0001b0 41 0f a4 bd 1a e3 ec 3b 3a c9 da bc 79 90 53 3c
       -0.08010722 0.007229221 -0.02670728 0.012912863
0001c0 7e 88 23 bd 05 64 19 3d b2 c8 a9 3c 55 74 1e 3d
       -0.03992509 0.0374489 0.020725582 0.03868516
0001d0 ff 47 5f bc 86 bd 8c bd e7 97 36 3c 94 27 15 3d
       -0.013628005 -0.06872086 0.011144615 0.036414698
0001e0 fa 50 12 3b 33 d3 05 3d 3b 10 9d bc e3 b3 37 bc
       0.0022326098 0.03267212 -0.019172778 -0.011212322
0001f0 6a 8c f6 bc 15 db d6 bc 10 e2 3a bd 48 fd 4a bc
       -0.030096252 -0.026227513 -0.045625746 -0.0123894885
000200 53 0a 33 3d b4 5c 7d 3d bb d8 64 3d b3 cd ff 3d
       0.043711018 0.061855987 0.055870753 0.12490406
000210 2f 7d 22 3d 09 a9 07 bd 34 ba 9e 3d 65 eb b0 3d
       0.039670166 -0.03312019 0.07750359 0.08638648
000220 3d 82 4d 3d 6a 77 07 3c 52 b2 fc bc cc 98 14 bc
       0.050173033 0.008268217 -0.030846749 -0.009069633
000230 86 c7 2e bd 5c 70 70 bd 44 89 5a bd 8c 8a f5 3c
       -0.04267075 -0.058700904 -0.053353563 0.02997329
000240 b1 8b 03 3e 3e 1b 8a 3d 1e 2c 08 bc 29 0d 23 bd
       0.12846257 0.06743477 -0.0083113 -0.039807472
000250 c6 58 be bb 5e 2e ac bc 80 b3 37 bd 18 bc 57 bc
       -0.0058089225 -0.021018203 -0.04484892 -0.013167404
000260 29 eb b8 3c 7f 45 31 bd 07 3b 73 bd fc ad 08 3d
       0.02257307 -0.043279167 -0.059382465 0.03336905
000270 29 19 7b 3a 30 29 6b 3d 04 0c 05 3c 47 4e 62 3d
       0.00095786393 0.057412326 0.0081205405 0.055250432
000280 fc 49 dd bc f4 0d 36 3c 09 44 e3 3c e7 c8 df bc
       -0.027012818 0.011111725 0.027742403 -0.027317477
000290 d7 e3 56 3b a3 6b 33 bd 66 79 04 bd 00 1f 00 bc
       0.0032789612 -0.043803822 -0.032342337 -0.007819891
0002a0 d9 0c 87 3c f4 09 63 3c d3 f7 ad 3a c2 b1 12 3c
       0.016485618 0.0138573535 0.001327271 0.008953514
0002b0 5d 81 f0 bc 03 b7 bd bc b7 6b c0 3c a7 49 32 3c
       -0.02935856 -0.023158556 0.023488862 0.010881818
0002c0 60 3a 18 3c 40 84 c0 3b 5e 29 a6 bc f9 84 96 3c
       0.009291261 0.0058751404 -0.020283397 0.018373953
0002d0 99 45 fd 3c bf 15 91 3c 07 02 a6 3b d6 29 eb 3c
       0.030916976 0.017710565 0.0050661596 0.028706472
0002e0 95 b5 d7 3b 16 ab f5 3c 03 20 d6 3c f0 17 82 bd
       0.0065829256 0.029988807 0.026138311 -0.06352222
0002f0 5b 59 55 bd 4b 2a 29 bd 6b c4 fc bc e5 db c2 bb
       -0.05208717 -0.0413001 -0.030855378 -0.0059466236
000300 5d 2b 0f 3d 04 39 93 3d 0f c3 b4 3c 28 fd 91 3d
       0.034953464 0.07188609 0.022065667 0.07128364
000310 d3 1d 70 3d 55 19 95 3c 29 f1 00 3d 41 8c b4 3d
       0.058622193 0.018200556 0.03147999 0.08815814
000320 a1 8f 1c 3c c8 fb 24 bd cb 24 d4 3c 5f ae 5c bd
       0.009555728 -0.04027918 0.02589645 -0.05387723
000330 a2 91 a6 bd 7d ce 4e bd 2f b4 a6 bd 93 54 96 3c
       -0.08133246 -0.05048989 -0.08139836 0.018350875
000340 c8 45 86 3d e4 ff 41 3d b5 f9 96 bb 5d da a9 bd
       0.065562785 0.047363177 -0.004607404 -0.082936026
000350 cb ed 56 bc 9f ce 56 bd df f5 8f bd 3c 4e f5 bb
       -0.013118218 -0.052443143 -0.07029318 -0.007486133
000360 b6 74 09 bd 18 c4 ec 3c a8 85 fe 3b 7b 30 1c bd
       -0.03355857 0.028902099 0.007767398 -0.038132172
000370 db 0c 53 bd 78 bb 69 3c e9 20 a4 3d 66 b0 60 3c
       -0.05152593 0.014265887 0.080140896 0.013713932
000380 3b cb 1f bc a0 da fc bc b2 12 1c bd f6 92 df bc
       -0.009753044 -0.030865967 -0.038103767 -0.027291756
000390 d2 b7 6e bb 61 34 af 3b a3 24 f1 ba 44 0e 05 bd
       -0.0036425483 0.00534682 -0.0018397759 -0.032484308
0003a0 1d e2 d7 bc 98 10 3c bd 51 4c d0 bc 78 2f 68 ba
       -0.026352936 -0.045914263 -0.025427015 -0.0008857171
0003b0 18 a3 41 bd 50 a8 f6 bc 01 73 e9 3a 36 11 8b 3c
       -0.04727468 -0.030109555 0.0017810763 0.01697598
0003c0 80 7c 22 3b 9c 48 e1 3c 90 4a 11 3c 35 e5 c6 bc
       0.0024793446 0.027500443 0.008867875 -0.024279216
0003d0 53 ec 48 bc a6 6d 88 bd 6c 0e 33 3d b6 96 2e bc
       -0.012263375 -0.06661539 0.043714926 -0.0106560495
0003e0 ed 4f 89 bc 1c 93 87 bd 8f db 5b bd 18 10 f8 bc
       -0.016761744 -0.06619856 -0.053676184 -0.030281112
0003f0 41 43 66 bd db e0 81 bc 47 2c 9b bd 23 28 bf bd
       -0.056216482 -0.01585429 -0.075768046 -0.09333827

encoder1.0.bias f4 [128]
000000 2d 26 a5 38 bf cc 06 38 da 75 ab 38 ba 54 e6 38
       7.874924e-05 3.2138774e-05 8.175867e-05 0.00010983036
000010 97 6c a6 37 a1 5d d2 37 ef cc 29 38 18 f1 ad 36
       1.9839308e-05 2.507755e-05 4.04836e-05 5.183869e-06
000020 1b c5 2a 39 64 83 75 36 05 b0 b3 38 50 7d be 37
       0.00016285891 3.6584324e-06 8.568171e-05 2.2708118e-05
000030 ab 56 5f 38 24 51 ac 37 c7 83 06 38 ab 08 52 37
       5.324806e-05 2.0541782e-05 3.2070817e-05 1.2518994e-05
000040 c0 6c 2a 38 0c 12 f8 b7 27 ce 5a b7 9f 4d 8b 38
       4.063244e-05 -2.9572308e-05 -1.3041811e-05 6.6424946e-05
000050 c5 8a 9a 38 ab f9 b4 35 e5 38 30 38 2c c0 7d 38
       7.36914e-05 1.3483708e-06 4.2014657e-05 6.0498875e-05
000060 57 3a 6f 36 9f cc 73 39 15 0c f1 38 81 30 35 39
       3.5647734e-06 0.00023250513 0.00011494026 0.00017279574
000070 8a f1 d7 36 eb 43 53 38 15 fb ce 35 fd 34 9f 38
       6.435618e-06 5.0369574e-05 1.542127e-06 7.591581e-05
000080 36 00 56 b8 9a 3f 1d 38 06 22 6f 36 e6 46 81 36
       -5.1021772e-05 3.749095e-05 3.563358e-06 3.8527533e-06
000090 8f f1 14 38 db af 3c 38 b3 8e 90 37 94 d5 bf 38
       3.551092e-05 4.498647e-05 1.7232587e-05 9.147372e-05
0000a0 a6 98 51 37 95 bb e2 37 e4 7d 93 b7 bb 36 bd b6
       1.2492912e-05 2.702865e-05 -1.7582388e-05 -5.6390104e-06
0000b0 9d d7 93 38 b3 8f 9d 38 50 fe 5f b7 5a 0f 81 38
       7.049667e-05 7.5131094e-05 -1.33510475e-05 6.154059e-05
0000c0 41 f8 93 38 7e 1c 28 38 f3 20 98 37 d7 4c ca 37
       7.055747e-05 4.0080857e-05 1.8135155e-05 2.4116058e-05
0000d0 05 8d ce b8 c4 f9 40 38 aa ae e4 b6 f2 76 b5 37
       -9.8491124e-05 4.600898e-05 -6.815263e-06 2.163227e-05
0000e0 8d b0 54 36 18 89 46 37 6c 55 fc 38 a8 51 e1 37
       3.1693228e-06 1.1833639e-05 0.000120322075 2.6860114e-05
0000f0 61 0c 1a 38 e3 e2 55 38 ff 17 80 38 be 5f 34 39
       3.672799e-05 5.0994462e-05 6.107985e-05 0.00017201804
000100 0d 93 50 39 d5 a4 5c 38 0e 9e 32 39 12 77 94 36
       0.00019891206 5.26056e-05 0.00017034283 4.4246053e-06
000110 c8 39 96 39 a7 33 60 38 66 5a f3 38 77 38 80 37
       0.0002865328 5.3453867e-05 0.00011603981 1.5285083e-05
000120 b6 1f 0e 39 08 14 ae 37 97 d4 1e b8 3e 02 14 b7
       0.00013553989 2.0751744e-05 -3.7868125e-05 -8.8220095e-06
000130 fe ee 25 38 bc b0 04 38 63 c5 f5 b7 74 14 c6 38
       3.9561644e-05 3.163585e-05 -2.9298191e-05 9.4451854e-05
000140 32 e2 47 36 af 48 d7 37 66 d4 c8 38 a2 c2 8d 38
       2.9784974e-06 2.5663843e-05 9.5763055e-05 6.759657e-05
000150 42 a8 b9 38 91 af d6 37 3c 75 5a 38 69 74 cf 37
       8.852828e-05 2.5592542e-05 5.2084433e-05 2.473053e-05
000160 34 5d 67 b8 2a 90 9e b7 70 d8 83 37 3b 9c 00 38
       -5.5161494e-05 -1.89022e-05 1.5717203e-05 3.066308e-05
000170 c5 a9 93 b8 13 11 29 37 89 8b a1 37 5e 32 27 38
       -7.041128e-05 1.007716e-05 1.9257672e-05 3.986281e-05
000180 e5 76 f0 37 dd 69 1e 38 6a 29 f5 37 73 f7 f0 37
       2.8665594e-05 3.776873e-05 2.922556e-05 2.8725457e-05
000190 78 75 2a 37 7b f4 8c 38 25 fa 29 b6 6d 61 11 39
       1.016014e-05 6.721258e-05 -2.5328566e-06 0.00013864572
0001a0 a6 01 cf 37 47 16 69 39 ca 8a 9b 38 09 b0 a3 b4
       2.467709e-05 0.0002222891 7.4168274e-05 -3.0489198e-07
0001b0 98 2c 10 38 02 9f 5d b6 8d b4 53 b7 c8 1a 96 38
       3.4373807e-05 -3.302412e-06 -1.2618618e-05 7.157546e-05
0001c0 4b ce e6 b7 50 f7 9a 38 f8 e1 04 39 bd a5 fa 37
       -2.75142e-05 7.389358e-05 0.00012672681 2.98795e-05
0001d0 9f 8e 81 37 d6 f3 d0 37 e5 61 fa b6 50 71 3f 39
       1.5444411e-05 2.4909077e-05 -7.461977e-06 0.00018257392
0001e0 23 c5 83 37 47 df c2 37 88 34 fc 38 c4 57 88 b7
       1.5708216e-05 2.3230574e-05 0.00012026081 -1.6253332e-05
0001f0 9c 07 37 37 86 ef 7a b7 9b 1e d8 38 a1 8e 16 b7
       1.0909422e-05 -1.495693e-05 0.00010305383 -8.973905e-06

encoder1.1.weight f4 [128]
000000 03 42 bf 3f a5 03 c0 3f e6 47 c1 3f 42 34 be 3f
       1.494202 1.5001112 1.5100067 1.4859698
000010 94 37 be 3f 5c 1b c0 3f 85 50 c0 3f a9 f5 be 3f
       1.4860711 1.500835 1.5024573 1.491872
000020 5e 39 bf 3f 5b 91 c2 3f 1a 9e c0 3f 85 3f bf 3f
       1.4939382 1.5200609 1.5048249 1.494126
000030 31 cf c5 3f 9c c1 c5 3f 3d 34 c0 3f 18 4c be 3f
       1.5453855 1.544971 1.5015942 1.4866972
000040 d6 21 be 3f ff 86 c7 3f a7 df bf 3f 33 07 c5 3f
       1.4854076 1.5588073 1.4990128 1.5392822
000050 69 33 bf 3f 9f 71 c0 3f 7b bd bf 3f 97 d9 be 3f
       1.4937564 1.5034674 1.49797 1.4910153
000060 9a 2b bf 3f df 81 bd 3f 9c 59 c1 3f f9 9c be 3f
       1.4935181 1.4805259 1.5105472 1.4891654
000070 0f aa be 3f fd 58 c0 3f d0 db be 3f a8 5a c1 3f
       1.4895648 1.5027157 1.4910831 1.5105791
000080 07 2d c0 3f 42 81 c3 3f 77 e7 c6 3f 58 a5 bf 3f
       1.5013741 1.5273821 1.5539387 1.4972334
000090 3e 93 be 3f a0 18 be 3f b4 7b c0 3f 52 e5 be 3f
       1.4888685 1.4851265 1.5037751 1.4913733
0000a0 7e a8 bf 3f 36 d7 c0 3f c2 be be 3f 40 bd be 3f
       1.4973295 1.5065677 1.4901965 1.4901505
0000b0 cc 50 c2 3f 99 55 be 3f 94 5c c0 3f 2c 36 bf 3f
       1.5180907 1.4869872 1.5028253 1.4938407
0000c0 9d 7b be 3f 48 06 bf 3f 96 76 bd 3f f3 d0 bd 3f
       1.4881474 1.4923792 1.4801815 1.4829391
0000d0 c2 36 c2 3f b7 f0 bf 3f cb 28 c1 3f c3 60 bf 3f
       1.5172961 1.4995335 1.5090574 1.4951404
0000e0 dd 9c c1 3f bf b5 c3 3f 96 91 bd 3f 7b ee bf 3f
       1.5125996 1.528984 1.4810054 1.4994653
0000f0 a6 a4 bf 3f ca 36 be 3f d4 4a c0 3f 6b 72 c2 3f
       1.4972122 1.486047 1.5022836 1.5191168
000100 f0 8d bd 3f 56 cf bd 3f 33 54 be 3f a0 d3 bf 3f
       1.4808941 1.4828899 1.4869446 1.4986458
000110 79 cf c0 3f d6 17 bf 3f 86 55 bf 3f e6 ac c0 3f
       1.5063316 1.4929149 1.4947975 1.5052764
000120 cf fb c0 3f 47 82 c5 3f 25 3e c0 3f 6e 06 c4 3f
       1.5076846 1.5430382 1.5018965 1.5314462
000130 4b 29 bf 3f 46 61 c9 3f 5b 39 c2 3f 0f 5f c0 3f
       1.4934477 1.573281 1.5173753 1.502901
000140 2a 92 c2 3f b6 1e be 3f 70 6d c2 3f f6 26 bf 3f
       1.5200856 1.4853122 1.5189648 1.4933765
000150 de ac c2 3f fe 08 c2 3f 5c 8a be 3f c7 9a c2 3f
       1.5209005 1.5158994 1.4885974 1.5203484
000160 40 f5 c0 3f 3b 4a c2 3f 4e ed c5 3f de 43 c0 3f
       1.5074844 1.5178903 1.5463045 1.5020711
000170 5a db c0 3f a5 7c be 3f 97 4b c5 3f c7 18 c3 3f
       1.5066941 1.4881788 1.5413693 1.5241936
000180 87 f1 bd 3f 8f cd c3 3f 7e d9 c3 3f a8 1a c4 3f
       1.4839333 1.5297107 1.5300748 1.5320635
000190 74 ae bf 3f e9 8c c2 3f 9c 5b c0 3f a2 7b c0 3f
       1.4975114 1.5199252 1.5027957 1.503773
0001a0 ad e2 c4 3f 84 1f bf 3f d3 e5 bc 3f e4 05 be 3f
       1.5381676 1.4931493 1.4757637 1.4845548
0001b0 9e 26 c3 3f 7f cf bf 3f 32 d0 be 3f e7 98 be 3f
       1.524616 1.4985198 1.4907286 1.4890412
0001c0 e9 44 bc 3f bb 91 be 3f cd 3a bf 3f 92 a2 be 3f
       1.470853 1.4888223 1.493982 1.4893363
0001d0 a0 ff c1 3f 34 e7 bf 3f 14 9c c4 3f 06 64 bf 3f
       1.5156136 1.4992433 1.5360131 1.49524
0001e0 d2 9b bf 3f 85 03 bf 3f 43 a5 be 3f bb da be 3f
       1.4969428 1.4922949 1.4894184 1.4910501
0001f0 20 19 c0 3f 1a cd c3 3f 0f 06 c2 3f c3 67 be 3f
       1.5007668 1.5296967 1.5158099 1.4875416

encoder1.1.bias f4 [128]
000000 98 ad 01 3f ae a9 00 3f 6a 88 03 3f 9a b5 f8 3e
       0.5065551 0.5025891 0.51380026 0.4857605
000010 a9 d3 fc 3e 06 fe 03 3f 44 8b 04 3f b9 7a 00 3f
       0.49380234 0.51559484 0.51775 0.5018726
000020 6b 30 01 3f 26 8f 07 3f 54 2f 02 3f d4 fd 00 3f
       0.50464505 0.529528 0.50853467 0.5038731
000030 40 f9 07 3f c2 48 07 3f 1c 21 05 3f 00 67 fe 3e
       0.531147 0.52845395 0.52003646 0.49687958
000040 c6 ad 00 3f 6c 59 08 3f d4 14 f9 3e 99 67 05 3f
       0.5026516 0.53261447 0.48648703 0.521112
000050 f4 75 01 3f ce c2 04 3f 9d 1c 01 3f b2 65 00 3f
       0.5057061 0.5185975 0.50434285 0.50155175
000060 e4 35 02 3f ae f0 ff 3e 96 b7 05 3f f8 39 fe 3e
       0.5086348 0.49988312 0.52233255 0.49653602
000070 d6 c0 fd 3e 41 81 04 3f 8e 8e 02 3f 6c b7 03 3f
       0.49561185 0.51759726 0.5099877 0.51451755
000080 a5 bd 04 3f c0 64 03 3f 0a e0 04 3f 65 7c 00 3f
       0.51851875 0.5132561 0.51904356 0.5018981
000090 20 6f 00 3f e2 cf 04 3f 0b ab 01 3f f4 2c 00 3f
       0.50169563 0.51879704 0.50651616 0.50068593
0000a0 fe b5 ff 3e 3e 7a 05 3f 4a 57 02 3f 81 20 00 3f
       0.49943537 0.5213965 0.5091444 0.500496
0000b0 04 72 03 3f 53 6a ff 3e a6 02 04 3f 81 64 01 3f
       0.5134585 0.49885806 0.5156654 0.5054398
0000c0 74 77 00 3f a0 39 00 3f aa 36 fe 3e b9 ad ff 3e
       0.5018227 0.5008793 0.4965108 0.49937227
0000d0 85 09 05 3f 56 42 02 3f 1e 2c 03 3f fd c1 01 3f
       0.5196765 0.5088247 0.5123919 0.5068663
0000e0 1a 48 03 3f ab b7 03 3f 1c c1 f6 3e 1f f0 02 3f
       0.51281893 0.5145213 0.48194206 0.51147646
0000f0 38 d7 01 3f 1e 08 00 3f 24 f5 00 3f b6 81 02 3f
       0.5071902 0.50012386 0.50374055 0.50979173
000100 0a 5c fe 3e ff 7b 02 3f 6a 00 02 3f a8 7f 03 3f
       0.49679595 0.50970453 0.5078188 0.5136666
000110 f1 ad 03 3f de ae 02 3f 1d e4 02 3f f0 81 02 3f
       0.5143729 0.51048076 0.51129323 0.5097952
000120 5b a6 03 3f 9c 9e 08 3f 38 0d 04 3f b2 15 06 3f
       0.51425713 0.5336702 0.5158267 0.52376854
000130 15 f1 00 3f 34 9b 09 3f 39 9f 04 3f f2 b6 03 3f
       0.5036786 0.53752446 0.51805454 0.5145103
000140 36 7d 03 3f ff e4 fe 3e 21 14 05 3f 92 18 02 3f
       0.5136293 0.49784085 0.5198384 0.5081874
000150 c3 3b 05 3f a2 9e 04 3f 32 5e 00 3f 39 d7 06 3f
       0.52044314 0.51804554 0.5014373 0.52672154
000160 0b c4 04 3f 5f 34 04 3f cb d0 07 3f b8 02 04 3f
       0.5186164 0.5164241 0.5305297 0.5156665
000170 43 59 02 3f 00 cd fe 3e 4b 1b 08 3f cd f3 04 3f
       0.5091745 0.49765778 0.53166646 0.5193451
000180 0d 71 fe 3e 86 29 03 3f 42 ac 06 3f 4f 62 04 3f
       0.49695626 0.51235235 0.52606595 0.51712507
000190 c8 47 03 3f 46 4b 06 3f 82 4f 01 3f a8 42 02 3f
       0.51281404 0.5245861 0.50511944 0.5088296
0001a0 bf 35 07 3f c0 c9 fe 3e b6 96 f9 3e f8 bf fd 3e
       0.52816385 0.49763298 0.48747796 0.49560523
0001b0 56 ee 08 3f 5e 79 00 3f 59 78 00 3f ff ea fb 3e
       0.5348867 0.5018519 0.50183636 0.49202725
0001c0 f0 f6 01 3f 79 af ff 3e e1 55 01 3f 32 19 00 3f
       0.5076742 0.49938563 0.50521666 0.50038445
0001d0 d8 d6 02 3f e9 c0 02 3f 39 5b 04 3f 2f a0 01 3f
       0.51109076 0.5107561 0.51701695 0.50635046
0001e0 4d f3 01 3f 76 e1 00 3f 23 d0 ff 3e 45 bf fe 3e
       0.5076187 0.50344026 0.49963483 0.49755302
0001f0 ad fb 03 3f d5 bf 06 3f 78 c8 04 3f fb 8c ff 3e
       0.515559 0.5263646 0.5186839 0.49912247

encoder1.1.running_mean f4 [128]
000000 fe 7b 99 41 a9 34 2c 42 8d 9b 1b 40 18 e5 b5 c2
       19.185543 43.051426 2.431369 -90.94745
000010 98 e0 e2 41 cb ba 18 41 54 bf 96 41 5e 8e c9 41
       28.359665 9.545604 18.843422 25.194515
000020 b0 4f 7e 41 96 59 eb c0 7e 15 24 40 8d bd ef 40
       15.894455 -7.354686 2.5638118 7.4918885
000030 48 17 0b 40 ba 47 c2 bf ae ea 74 40 ae 4d 9f 41
       2.173296 -1.5178139 3.8268237 19.91293
000040 69 76 8a 42 35 03 0d c2 dc fc 95 c2 0b 4b 18 41
       69.23127 -35.25313 -74.993866 9.518321
000050 4b fc d2 41 4e be a7 41 ed 11 16 40 57 27 4c 42
       26.37319 20.967922 2.344844 51.038418
000060 78 4d 8a 40 e0 73 ce 42 0c 2a 97 41 5d cc aa 41
       4.3219566 103.22632 18.89553 21.349787
000070 ad f3 2c 42 5a c0 06 41 6d b4 8e 41 8f 1e b4 40
       43.237965 8.421961 17.838099 5.6287303
000080 dc 5c eb c1 0b eb 30 c1 23 62 81 c1 89 cc 57 c0
       -29.420341 -11.057384 -16.172918 -3.3718588
000090 3c af 27 42 b7 fd b1 42 29 59 30 41 08 87 62 42
       41.921127 88.99554 11.021768 56.631866
0000a0 42 91 5b 41 0e 4a 3f 41 f8 32 82 42 46 62 5f 42
       13.722963 11.95558 65.09955 55.84597
0000b0 ad ef 82 42 ae 8c 29 42 9b b3 87 41 f6 5a c4 41
       65.46812 42.387383 16.962698 24.544415
0000c0 35 6f d2 41 38 01 48 42 6e 32 48 3f 9e b0 05 42
       26.3043 50.00119 0.7820195 33.422478
0000d0 ad a6 62 c2 99 29 48 41 34 38 26 c2 36 30 fb bf
       -56.66277 12.510156 -41.554886 -1.9624088
0000e0 6f 64 13 c0 ae fe 99 41 b6 78 0b c3 48 0f 73 c0
       -2.303005 19.249355 -139.47153 -3.7978077
0000f0 d4 7f df 41 40 64 2f 42 c0 84 fb 41 2f bb b3 41
       27.937416 43.8479 31.43982 22.466398
000100 6f 12 9b 42 ba 35 b4 42 ed 40 13 42 4a 9c 02 42
       77.536 90.104935 36.813404 32.652626
000110 3f c6 79 42 f6 8c d4 41 8d 19 b8 41 e8 f5 57 c0
       62.4436 26.568829 23.012476 -3.374384
000120 56 9b b5 41 ff 3c 92 40 85 57 01 c2 cd d6 46 c1
       22.700848 4.569946 -32.33547 -12.427442
000130 81 d0 3b 41 59 32 0d 40 21 37 f2 c1 8c 32 a5 41
       11.738404 2.206198 -30.276918 20.649681
000140 6b be 4b c1 8a 63 9e 41 53 ae 86 41 9e 11 ee 40
       -12.733989 19.798603 16.83512 7.4396505
000150 0a 8f 86 40 10 77 8a 41 bb 70 27 42 91 e1 6c c0
       4.204961 17.308136 41.86009 -3.7012675
000160 1f 08 20 c1 a3 8b 00 41 b9 02 f2 c0 ae 9e 7a c0
       -10.001983 8.034091 -7.5628324 -3.915935
000170 64 9a 0f c2 8c aa 64 41 58 5c d8 c1 5f 14 a0 40
       -35.900772 14.291637 -27.04509 5.0024867
000180 66 c1 50 42 a3 3d bb c1 92 53 38 41 0e ee cd 40
       52.188866 -23.405096 11.520403 6.4353094
000190 ef 0d f4 41 9d 53 d1 40 cd fd a7 c1 63 40 04 42
       30.506804 6.5414567 -20.998926 33.062878
0001a0 7f 0d 45 40 5a f3 13 42 4c ec 3f 42 f2 d9 ee 41
       3.0789487 36.987648 47.98076 29.856419
0001b0 da f7 3a 41 51 2c a7 41 1f 8b f0 c1 ff b9 c5 40
       11.685511 20.896639 -30.06793 6.1789546
0001c0 ef 64 9c 42 28 c7 68 42 bd 6f 54 41 01 01 89 42
       78.197136 58.19449 13.27728 68.50196
0001d0 46 45 39 40 71 e0 03 41 33 d7 54 c0 ec ca 05 42
       2.894853 8.242295 -3.3256347 33.448166
0001e0 a1 97 a0 41 bb 2f 8b 3f 1f 00 90 42 2d de 08 c1
       20.074038 1.0873941 72.00024 -8.554242
0001f0 07 32 02 41 17 69 89 3e 7d 1b 11 42 e7 bc b6 c1
       8.137214 0.2683799 36.276844 -22.842237

encoder1.1.running_var f4 [128]
000000 11 8a 16 43 05 7d 48 43 83 d1 be 42 a1 00 8d 43
       150.53932 200.48836 95.4092 282.0049
000010 fd 1b 66 43 18 b8 71 42 ff bf d6 42 3c ff 1d 43
       230.10933 60.42978 107.37499 157.99701
000020 7c 9b b1 42 e3 06 71 42 2d 11 7c 42 9c dc 8e 42
       88.80368 60.256725 63.016773 71.43088
000030 f3 20 26 43 7a ec b8 42 31 8f ac 42 8c 3e 35 43
       166.12871 92.46187 86.27967 181.24432
000040 66 f1 86 43 be 06 4e 43 cf 94 df 43 28 cd 1d 43
       269.88593 206.02634 447.16257 157.80139
000050 c2 34 94 42 bd 75 fc 42 a2 b8 29 43 f1 26 43 43
       74.10304 126.22996 169.72122 195.15211
000060 7e 7d 9e 42 b1 06 a8 43 47 2b 12 43 4d 43 b0 42
       79.2451 336.05228 146.16905 88.13145
000070 a2 75 77 43 10 2d 63 42 37 2c 10 43 45 2e 89 42
       247.4595 56.794006 144.17271 68.59037
000080 37 c9 4b 42 c5 49 ee 42 20 a9 15 43 3a b5 3e 42
       50.9465 119.14408 149.66064 47.67698
000090 ed c8 79 43 07 38 8a 43 9b a7 0d 43 8f ca 96 43
       249.78487 276.4377 141.65471 301.5825
0000a0 2f 1f 01 43 58 04 0a 43 4d 26 1b 43 d0 07 75 43
       129.12181 138.01697 155.14961 245.03052
0000b0 30 7b 81 43 43 64 67 43 9f af 7f 42 a6 3d 29 43
       258.9624 231.39165 63.921505 169.24081
0000c0 d8 2f 33 43 dd aa 78 43 86 50 8c 42 29 49 39 43
       179.18689 248.66743 70.15727 185.28578
0000d0 9e 56 6d 43 de 23 35 43 27 13 48 43 ca 96 51 42
       237.33835 181.1401 200.07481 52.397255
0000e0 04 dd e8 42 f6 20 5a 43 dd e6 0b 44 41 73 62 42
       116.43167 218.12875 559.60724 56.612553
0000f0 39 be cf 42 b7 0a 03 43 08 59 12 43 67 b7 a5 42
       103.87153 131.04185 146.34778 82.85821
000100 be fb 43 43 d9 89 5d 43 ba e3 c8 42 c1 1b 28 43
       195.98337 221.53847 100.44478 168.10841
000110 d1 41 1b 43 fa 32 01 43 bc d2 bd 42 25 61 88 42
       155.2571 129.19913 94.91159 68.189735
000120 95 af bf 42 f9 1d 00 43 27 f6 e3 42 0c 00 43 43
       95.84293 128.11708 113.98077 195.00018
000130 44 5d 58 43 a7 77 e0 42 4b c4 fa 42 f9 9d db 42
       216.36432 112.233696 125.383385 109.80854
000140 fb 27 15 43 ed da 3b 43 1f 62 22 43 25 6b d1 42
       149.15617 187.85518 162.38329 104.70927
000150 f9 5a 43 42 53 cf d7 42 73 b6 5a 43 5b 91 04 43
       48.83884 107.90493 218.71269 132.5678
000160 cf c9 8d 42 0d a1 51 42 c1 9c 10 43 16 e2 53 42
       70.89416 52.407276 144.61232 52.970787
000170 a0 0b df 42 ce 40 74 43 39 89 69 43 42 aa ad 42
       111.522705 244.25314 233.53603 86.832535
000180 34 65 85 43 f7 3f 39 43 d2 84 d3 42 05 2f e8 42
       266.79065 185.24986 105.759415 116.091835
000190 0d 48 bd 42 f8 b9 a7 42 ee e6 01 43 6d ee cb 42
       94.640724 83.86322 129.90207 101.965675
0001a0 71 17 13 43 90 ea a9 42 22 b0 8d 43 37 03 4b 43
       147.09157 84.95813 283.37604 203.01256
0001b0 56 dd ba 42 a0 d3 f0 42 73 8b 11 43 f5 05 22 43
       93.4323 120.41333 145.54472 162.02327
0001c0 4f 1a 39 43 e5 7a 89 43 4b e7 e2 42 d8 5e 3c 43
       185.10277 274.9601 113.451744 188.37048
0001d0 40 95 ab 42 c8 07 81 42 f1 ed f8 42 9c 73 b5 42
       85.791504 64.5152 124.46473 90.7258
0001e0 63 c4 ac 42 b9 ce 26 43 89 e0 ab 43 0d 22 0c 43
       86.38357 166.80751 343.75418 140.13301
0001f0 13 9f d6 42 9d 0b 75 42 b2 e9 28 43 65 79 28 43
       107.31069 61.26134 168.91287 168.4742

encoder2.0.weight f4 [128, 128]
000000 33 1d c4 3d 1f 9c d8 3c a2 f2 65 3c 31 df f3 3d
       0.09575882 0.026441632 0.014034899 0.11907805
000010 5d 85 27 3d 45 5d 6f bd b3 85 75 3d 56 8c 66 3c
       0.04089867 -0.058438558 0.05994196 0.014071545
000020 69 e9 ab 3d 1f d6 3d bc 07 7a 07 3c df ea 1c bd
       0.08394129 -0.011586695 0.00826884 -0.038309928
000030 97 07 cd 3d 62 7f 94 bc 1a 9a 7c 3d 28 7a e9 3d
       0.10011213 -0.018127147 0.0616704 0.114002526
000040 57 ea ae bd 68 c4 26 bd 7a d7 3c bd 7a 24 1d bd
       -0.085407905 -0.04071465 -0.046103932 -0.038364865
000050 5b a5 4b 3d 38 1f 50 3d e6 a1 1c bc 9f 92 55 3d
       0.049718242 0.050811023 -0.009560084 0.052141782
000060 ca c2 41 bd a2 50 70 bd f8 d6 00 3d bd 4e 35 bd
       -0.047304906 -0.058670647 0.03145501 -0.044264544
000070 95 99 69 bd 5b 0f 00 bb 54 67 23 3d 44 cc 4b 3d
       -0.057031233 -0.0019540403 0.039893463 0.04975535
000080 f2 09 44 3c 12 d0 51 3c 28 86 bf bd a9 cc 1f bd
       0.011965262 0.0128059555 -0.0935176 -0.03901354
000090 12 de 94 3d 1e 64 23 bc 55 db 4b bb c4 29 9e bc
       0.07268919 -0.0099726 -0.0031106074 -0.019307025
0000a0 fa fc 27 bd a2 8e 25 3d e3 11 fa bd 44 06 9b 3c
       -0.04101274 0.04041923 -0.12210443 0.018923886
0000b0 5c d7 51 3d ab 8f 36 3d 42 7e ec bc a6 62 89 3d
       0.051230773 0.044570606 -0.028868798 0.06708269
0000c0 80 a0 7c bd 56 b6 83 3d 52 f0 18 bd 6a da 20 3d
       -0.061676502 0.06431262 -0.037338562 0.039270796
0000d0 d0 e1 f1 3d 13 ce 2a 3d 30 7e bb 3d 8d 30 d2 bc
       0.118106484 0.041700434 0.09154928 -0.025657916
0000e0 a4 c8 09 3c d4 de db bd 95 0c 04 be 92 72 cc 3d
       0.008409653 -0.107358605 -0.12895425 0.0998279
0000f0 fc 15 d1 bc 18 c5 03 3d 72 cf 78 bd 5a e6 3e 3d
       -0.025523178 0.032170385 -0.06074471 0.0466064
000100 74 53 b3 bd 50 be 8b 3d 27 7b 0f 3d 83 e7 8b bd
       -0.08756152 0.068234086 0.035029557 -0.06831267
000110 7c 81 f3 bb ec e4 3b bc c0 26 63 bd 78 8c 28 bd
       -0.007431207 -0.011468153 -0.055456877 -0.041149586
000120 00 ce b6 3d 17 b6 8a 3d 7e a7 47 3d 15 86 cf 3d
       0.0892601 0.06773012 0.048743717 0.10132996
000130 11 09 87 3c de 83 9f 3d 03 90 31 bd 72 87 c2 3c
       0.016483815 0.077888235 -0.04335023 0.023746226
000140 26 a3 a7 bd f8 46 4a bd 15 3a c9 bc 4c d0 e4 bc
       -0.08185415 -0.049384087 -0.024563828 -0.027931355
000150 4c 41 57 3d 78 0f 78 3c b1 4d 05 bd f4 a7 be 3c
       0.052552506 0.015140407 -0.032544795 0.023273446
000160 33 44 33 bc 58 ed eb 3d 37 8a 85 3b 9b 41 2b 3d
       -0.010941553 0.11519879 0.0040753144 0.041810613
000170 fd d5 d3 bb 89 61 72 bd 8b 46 41 3d 92 41 5a bd
       -0.0064647184 -0.059175048 0.047186416 -0.05328519
000180 0f b3 ce bd 63 d2 a0 bd 3b 73 1c bd d9 95 dc bc
       -0.100927465 -0.07852628 -0.03819583 -0.026926922
000190 c1 b3 12 3d e4 13 b9 3d c4 d2 68 3d 46 de c9 3d
       0.035815958 0.09036997 0.056841627 0.098568484
0001a0 a2 69 ad 3d 00 1a 64 bd 6e 58 c2 bc 9e f6 96 3c
       0.084674135 -0.055688858 -0.023723807 0.018428143
0001b0 0c 8c 70 3c 36 bf b2 bd ec a4 08 bd ce 0e 60 bc
       0.014681827 -0.08727877 -0.033360407 -0.013675405
0001c0 aa d3 83 bd 78 01 08 3c 44 96 51 3c 32 c1 33 bd
       -0.06436856 0.008301131 0.012792174 -0.043885417
0001d0 0b de 62 bd 38 75 89 3d be 7f 0b bd ed 53 d3 3d
       -0.055387538 0.06711811 -0.03405737 0.10318742
0001e0 59 02 b2 bd 23 b3 00 bd e8 72 82 3d df ba 9f 3d
       -0.08691854 -0.031420838 0.06369573 0.07799315
0001f0 76 f0 a3 bc fc 05 f9 bd 1c e0 8d 3c ad c6 df 3d
       -0.020012122 -0.121593446 0.017318778 0.10926566
000200 67 95 94 bc 4c 31 3a bc 04 8b 03 3e 83 0d b9 3d
       -0.018137647 -0.011364292 0.12845999 0.0903578
000210 02 6e b4 3d 94 20 99 3d 62 be 34 3d f9 8d 85 3d
       0.08810045 0.07476917 0.044126876 0.0652122
000220 4d 55 45 3d fa 4c a6 3d 1f 9f 09 3e dd 19 06 3c
       0.048177052 0.08120151 0.13439606 0.008184877
000230 75 b8 c8 bd 00 3e d5 bc b3 ea 90 3d 65 15 64 3d
       -0.098008074 -0.02603054 0.07076015 0.055684466
000240 02 1c e4 bc 41 f5 0d 3b cf 84 9b 3d 86 71 30 3c
       -0.027845386 0.0021661075 0.075936906 0.010769254
000250 d9 6c 02 bb 57 10 3c 3d 34 55 73 bd b0 4c 4f 3d
       -0.0019901304 0.04591402 -0.059407428 0.050610244
000260 a4 6c 1c bd ce fe 54 bd c5 d7 40 bb 49 f4 1b bd
       -0.038189545 -0.052000813 -0.0029425484 -0.038074765
000270 2a c5 97 bd a5 a9 bd 3d a7 b1 49 3d 0f c0 21 bc
       -0.07410653 0.09260873 0.049241688 -0.0098724505
000280 62 17 32 3e 6f 8f 29 bd 36 41 ad 3c 7a ea 15 3e
       0.17391732 -0.041396555 0.021149259 0.14640227
000290 2d 70 45 3c d5 8b ce 3d a7 56 ef bc 92 2b 67 3d
       0.012050671 0.100852646 -0.029216124 0.056438036
0002a0 5a c6 9b bd 98 df 27 3d 59 f8 91 3d e5 b6 90 3d
       -0.07606192 0.04098472 0.07127447 0.07066134
0002b0 5e 46 5a 3d a4 4f 65 bd c9 b1 21 be 98 24 42 bc
       0.053289764 -0.055984154 -0.15790476 -0.011849545
0002c0 59 6d 1f 3c 65 d6 9a bc df 69 03 bc 22 76 b7 bc
       0.00973066 -0.01890106 -0.008020847 -0.022395197
0002d0 ad 88 8c 3d 44 bf cf bd 6d a5 dc 3d 76 38 2c 3e
       0.06862006 -0.10143903 0.1077374 0.16818413
0002e0 4f 77 b6 bd d9 8e e8 3d 40 4a 9d bd a2 f1 bd 3d
       -0.08909475 0.11355371 -0.07680178 0.092746034
0002f0 d3 3e 03 3d 45 ac 66 bd 68 55 d3 3a 18 5b 8c bd
       0.032042336 -0.056316633 0.0016123476 -0.06853312
000300 f4 82 89 3c 30 b8 3e 3d a8 cb 26 3d 3f 67 29 3d
       0.016786076 0.046562374 0.040721565 0.04135823
000310 7d 90 c2 bd df 4a 9c 3d 8a b7 d9 ba 5f 61 fa bc
       -0.09500215 0.07631468 -0.0016610485 -0.030564008
000320 b6 62 38 3d 29 8d 34 3d e1 f5 9b bd 7b 06 af bc
       0.045016013 0.044079933 -0.07615257 -0.021365395
000330 fd f8 6a 3d 54 27 aa bd 49 ee bb 3d f1 11 ac 3b
       0.05736636 -0.083082825 0.09176309 0.005251162
000340 42 1f bb bd f4 59 dc bc 7d da 01 3d 58 54 62 3d
       -0.09136821 -0.026898362 0.031702507 0.055256218
000350 a8 4d fe bc 76 24 8e 3d 0f f4 45 bd d8 b2 b5 bd
       -0.031042889 0.06940548 -0.048328456 -0.08872002
000360 f0 81 5c 3d 38 ed 61 3d 62 da de 3c 9a bf f7 3d
       0.053834856 0.05515787 0.027203742 0.12097092
000370 53 09 96 bc aa ec ca 3d 04 d2 d2 3d c5 73 6b bd
       -0.018314993 0.09908421 0.102939636 -0.057483453
000380 43 2b 25 bd 71 a7 74 3c 69 82 11 bb be 69 e2 bc
       -0.04032446 0.014932499 -0.0022202975 -0.027638312
000390 1e 9b f2 bc 27 2e e2 bc 66 b1 48 bd 63 08 4e bd
       -0.029614981 -0.027609898 -0.048997305 -0.050300967
0003a0 ab 13 be bc e7 cb 14 3c e1 38 8a 3c 18 2a 7e bd
       -0.023202738 0.009081817 0.016872825 -0.062051862
0003b0 a9 ca d7 3d 65 a0 ac bc ac 6a 25 3d e4 c1 50 3d
       0.10536701 -0.021072576 0.040384933 0.05096616
0003c0 b3 8e 19 bd b2 a2 3a 3d 25 dd 61 bd 62 49 11 3d
       -0.037489604 0.045565315 -0.05514254 0.035470374
0003d0 b4 0d 94 3d ff cb 8f bd 1a 23 88 bc ee d5 22 3c
       0.07229176 -0.07021331 -0.0166183 0.0099387
0003e0 64 e4 b8 bd 8d e5 67 3d 44 6e a1 3d ab 38 35 3d
       -0.09027937 0.0566154 0.078823596 0.044243496
0003f0 0d 82 37 3d ee 6a 21 3e c4 44 8f 3d fe d8 c2 3c
       0.04480176 0.15763447 0.06995538 0.02378511

encoder2.0.bias f4 [128]
000000 3a e5 4d 37 21 e7 4a b8 77 d6 71 37 de 12 bb 37
       1.2272323e-05 -4.837581e-05 1.4414653e-05 2.2300923e-05
000010 28 b3 17 36 89 a7 0b 3a c2 27 27 b8 b6 1b 61 b8
       2.2605036e-06 0.0005327394 -3.985293e-05 -5.3669988e-05
000020 0d b6 98 b7 6d 32 84 b7 6d 82 bd 37 d1 a2 9d b8
       -1.8204586e-05 -1.5759108e-05 2.259129e-05 -7.51667e-05
000030 2e f6 9e 37 27 b9 7b 37 55 22 56 38 c2 e2 29 b8
       1.8949704e-05 1.5003875e-05 5.105355e-05 -4.0503925e-05
000040 e3 3f 5e 38 7c 15 54 35 9e ee 27 b7 78 0b 93 37
       5.2988424e-05 7.900742e-07 -1.0009533e-05 1.7529106e-05
000050 fe 81 84 b8 1a 09 24 38 fd c4 88 b7 71 69 b2 31
       -6.3184634e-05 3.9109123e-05 -1.6304193e-05 5.192469e-09
000060 cc b2 a6 b7 35 7b 69 b8 98 f8 9f 38 52 7b c5 37
       -1.9872e-05 -5.5666274e-05 7.628015e-05 2.3541656e-05
000070 e1 d1 ba 38 d7 bc 5b 38 aa 95 12 b7 bb 50 f5 b8
       8.908264e-05 5.238954e-05 -8.7371245e-06 -0.000116975476
000080 b6 ef 1e b9 ff d7 8a 36 37 7d 8e 37 a5 6d 05 39
       -0.00015157353 4.1378657e-06 1.6986027e-05 0.00012724714
000090 1d f1 83 38 3b 09 ba b8 ba be ee b8 df d9 05 36
       6.2914776e-05 -8.8708905e-05 -0.0001138425 1.9945362e-06
0000a0 67 dc 0b b8 74 27 d9 39 8e d3 db b8 03 3f 92 b7
       -3.3345448e-05 0.0004141886 -0.00010482139 -1.7433898e-05
0000b0 17 d0 fc 37 67 47 67 b6 78 a2 8b b7 65 d0 1f 38
       3.013764e-05 -3.4463244e-06 -1.6645747e-05 3.8102637e-05
0000c0 bf 06 78 b6 f4 84 07 b7 a0 03 19 38 f8 27 73 b9
       -3.6958807e-06 -8.077583e-06 3.648142e-05 -0.00023189175
0000d0 b5 3a 82 37 95 dc ff 36 a7 85 1e 37 37 51 03 b7
       1.5524545e-05 7.6252713e-06 9.448652e-06 -7.827118e-06
0000e0 ec 48 ef b8 c3 56 dd 38 57 62 1d b8 be 03 ed 36
       -0.00011409991 0.00010554262 -3.7523303e-05 7.063586e-06
0000f0 f3 f7 11 b9 10 91 96 b6 0a 53 ec b7 eb d3 59 38
       -0.00013920646 -4.487236e-06 -2.817206e-05 5.1934196e-05
000100 3b 5a e0 35 52 f9 54 38 29 25 23 38 1b 16 d6 b6
       1.6715561e-06 5.0776936e-05 3.8896836e-05 -6.3802704e-06
000110 ff cd 85 38 e2 50 d7 38 83 f2 8b 36 46 a2 77 b8
       6.380304e-05 0.000102670645 4.170755e-06 -5.9040518e-05
000120 f8 83 c8 b6 27 71 a4 b6 f9 ed 9f b8 2a 2d c3 b5
       -5.9758277e-06 -4.9007535e-06 -7.626037e-05 -1.4541777e-06
000130 92 b7 3e 36 85 ca 0e b8 74 4b 86 b8 30 55 9c 39
       2.8419058e-06 -3.404405e-05 -6.403672e-05 0.00029818108
000140 db 31 39 39 ce a1 2f 38 22 08 16 36 36 a7 0e 38
       0.00017661547 4.1873944e-05 2.2356476e-06 3.4011166e-05
000150 b4 12 0a b8 3e d0 2e 35 aa 2c db b7 7a bc 43 b7
       -3.2919183e-05 6.5123083e-07 -2.6127633e-05 -1.1666789e-05
000160 31 e5 e6 b7 d3 fc 8d b8 9e 06 cd b9 9a 94 6e b7
       -2.7524862e-05 -6.770496e-05 -0.00039105577 -1.4220504e-05
000170 5c c9 1e 39 bb 67 a3 b7 31 8c 01 38 b4 f3 13 b7
       0.00015143066 -1.9479417e-05 3.088656e-05 -8.818624e-06
000180 34 f3 95 b8 a0 73 9f b8 45 ad 39 b8 bc 63 9a b7
       -7.150174e-05 -7.603248e-05 -4.4268807e-05 -1.8404673e-05
000190 1b 69 6d 39 b3 85 aa 37 b4 6f a9 b8 34 67 cb 36
       0.00022641236 2.0327838e-05 -8.079354e-05 6.061886e-06
0001a0 1d 0a 18 b6 ec 25 bc b8 4c 13 79 37 69 73 69 b7
       -2.2655652e-06 -8.971602e-05 1.4846049e-05 -1.3914753e-05
0001b0 5f 3d 2c b9 7d 77 8d 38 fb d8 9e 37 c3 82 c8 36
       -0.00016426061 6.74566e-05 1.8936107e-05 5.975687e-06
0001c0 6a 67 6c b7 c3 a0 16 b6 33 1f b7 37 ed d2 c7 b8
       -1.4090774e-05 -2.2445317e-06 2.1829828e-05 -9.5283474e-05
0001d0 44 e3 78 36 e7 4d 77 38 a6 5f 8b 37 9f a9 a1 35
       3.7087166e-06 5.896194e-05 1.6614631e-05 1.2044801e-06
0001e0 04 af 7a 37 a5 11 6a b6 e2 dc 64 b8 92 bf 0e b9
       1.494191e-05 -3.4878988e-06 -5.456515e-05 -0.00013613541
0001f0 7e 8f b6 39 33 aa a8 37 57 86 b6 38 1f 65 e2 b7
       0.00034820655 2.0106416e-05 8.703459e-05 -2.6988388e-05

encoder2.1.weight f4 [128]
000000 dd 62 75 3f ae 44 70 3f 2d 29 71 3f 99 15 74 3f
       0.9585398 0.93854797 0.94203454 0.95345455
000010 e3 09 80 3f e4 fc 79 3f 8e d8 82 3f 82 1b 80 3f
       1.0003017 0.97651505 1.0222337 1.0008395
000020 ba 03 6f 3f bb 50 7b 3f bc 12 7b 3f 8b 61 78 3f
       0.9336506 0.9817006 0.9807546 0.9702384
000030 b7 c9 83 3f d7 3e 7f 3f 5a c6 83 3f f1 dd 7a 3f
       1.0295933 0.9970526 1.0294907 0.97994906
000040 a7 dc 71 3f 50 49 7f 3f b3 a8 72 3f 90 d7 84 3f
       0.94477314 0.9972124 0.94788665 1.0378284
000050 e4 64 7f 3f 0f 44 75 3f 38 3e 6d 3f 90 82 73 3f
       0.9976332 0.95806974 0.92673063 0.951211
000060 39 f1 73 3f 2c 23 72 3f 5e b8 7a 3f 1d 88 86 3f
       0.9528995 0.9458492 0.9793757 1.0510288
000070 d4 c5 6d 3f da d1 81 3f 34 55 82 3f e8 90 81 3f
       0.92879987 1.0142167 1.0182252 1.0122347
000080 f9 ee 81 3f c2 cc 6e 3f 5d 2c 6c 3f 4d 92 88 3f
       1.0151054 0.93281186 0.92255193 1.0669647
000090 03 08 84 3f dc 54 81 3f 57 f9 81 3f 55 1d 72 3f
       1.0314945 1.0104022 1.0154217 0.9457601
0000a0 42 dd 7c 3f 1c cc 78 3f bd d3 7d 3f 66 33 7a 3f
       0.9877511 0.97186446 0.9915121 0.9773468
0000b0 a6 b3 83 3f 32 7f 7b 3f 9d 39 7e 3f fb 2b 7b 3f
       1.0289199 0.9824096 0.9930666 0.98113984
0000c0 68 bd 78 3f 98 84 86 3f 9c 5f 85 3f 5e 0a 82 3f
       0.9716401 1.0509214 1.0419803 1.0159414
0000d0 00 04 83 3f b1 9a 7e 3f 14 6e 73 3f ac 78 71 3f
       1.0235596 0.9945479 0.9508984 0.94324756
0000e0 d9 22 8a 3f 6b 3e 78 3f 0d 44 7b 3f 00 4c 83 3f
       1.0791885 0.9697024 0.9815071 1.0257568
0000f0 70 0d 7f 3f ec f1 82 3f 7f 8e 83 3f 11 15 84 3f
       0.9962988 1.0230079 1.0277861 1.0318929
000100 84 d9 83 3f 50 a2 86 3f 69 52 7b 3f ae 2d 75 3f
       1.0300756 1.0518284 0.9817262 0.95772827
000110 be 85 84 3f be 04 7f 3f 68 4b 80 3f 14 4e 75 3f
       1.0353315 0.9961661 1.0023012 0.9582226
000120 b6 61 85 3f b4 52 7c 3f 46 63 7b 3f ab 7b 76 3f
       1.0420444 0.98563695 0.98198354 0.9628245
000130 e9 88 7f 3f 8e ec 81 3f a9 45 7c 3f ce 22 8b 3f
       0.99818283 1.0150316 0.9854379 1.0869997
000140 89 b5 87 3f d2 82 6d 3f 68 c7 7e 3f 1d bc 78 3f
       1.0602275 0.9277774 0.9952302 0.9716204
000150 78 91 78 3f 6e 0a 7e 3f a1 fe 6d 3f 50 5a 7a 3f
       0.9709697 0.99234664 0.9296666 0.97794056
000160 09 d9 7e 3f 06 c9 66 3f 1b 74 69 3f cf 52 78 3f
       0.9954992 0.9015049 0.9119279 0.97001356
000170 a0 78 80 3f c1 d0 85 3f 1e b7 85 3f 9f 68 5f 3f
       1.0036812 1.0454332 1.0446508 0.87269014
000180 46 7a 7c 3f 08 3e 83 3f bb 6c 83 3f e8 92 7b 3f
       0.98624074 1.0253305 1.0267557 0.98271036
000190 8a 49 78 3f 43 b1 90 3f c3 ba 78 3f 23 75 7b 3f
       0.9698721 1.1304096 0.97159976 0.9822561
0001a0 96 78 7b 3f 5c fe 74 3f d0 67 6d 3f be 75 7c 3f
       0.98230875 0.9570062 0.9273653 0.9861716
0001b0 a5 44 87 3f 2d 06 7a 3f e9 7b 6b 3f d1 77 78 3f
       1.0567824 0.97665673 0.91985947 0.97057825
0001c0 96 68 72 3f be 6a 78 3f fe 66 75 3f de 43 81 3f
       0.94690835 0.97037876 0.9586028 1.0098836
0001d0 76 d4 79 3f 66 ad 84 3f ef 80 7e 3f f1 32 73 3f
       0.97589815 1.0365417 0.9941549 0.94999605
0001e0 7b 83 7d 3f a5 ef 7b 3f d0 1c 81 3f 33 85 80 3f
       0.9902875 0.98412544 1.0086918 1.0040649
0001f0 e8 30 80 3f bb f3 79 3f fb b7 8d 3f e6 cc 7c 3f
       1.0014925 0.9763753 1.1071771 0.9875015

encoder2.1.bias f4 [128]
000000 36 88 46 3d c3 6d 83 3c 87 35 63 3c 8e 9c ca bc
       0.048469745 0.01604355 0.013867742 -0.024732854
000010 12 3e b5 3d 68 4f 9e 3d 7c 7a c3 3d c1 ae 18 3c
       0.088497296 0.07729989 0.095448464 0.009319008
000020 24 4c 50 bc 6a 1d 02 bd 02 38 8a bd 4d f8 e9 3d
       -0.012713466 -0.031766333 -0.06748964 0.11424313
000030 19 2c 70 3c 73 39 42 bd 9b 29 0a bc a9 d2 96 bc
       0.014658951 -0.04741807 -0.008432771 -0.018410997
000040 bd 7e af bd 6e 1b cf bc d4 c5 79 3c d5 59 28 3d
       -0.08569095 -0.025281634 0.01524492 0.041101296
000050 fa 75 67 3d 5d 5f 8c bd df a0 d3 bd 08 14 7f bc
       0.056508996 -0.068541266 -0.10333418 -0.015568741
000060 e6 da 60 bb c3 32 89 bd 8b 3b dc 3d 0f b4 90 3c
       -0.003431016 -0.06699135 0.107535444 0.017663984
000070 cd 90 a6 bd 77 9d 5e bd 1b ac 52 bc 8e 1b d9 bb
       -0.08133087 -0.05434939 -0.012858416 -0.006625599
000080 20 65 df 3d a3 3e 07 3d 1e 33 4a bc 31 a3 b7 bc
       0.1090796 0.03301872 -0.012341289 -0.022416683
000090 d9 37 01 3d ab 2f 90 3d a5 04 5e 3d 51 34 d9 bd
       0.0315474 0.07040342 0.054203648 -0.10605682
0000a0 8f 8f 02 3d ac 4f 83 bd 5c e1 86 3d 09 9f 7c bc
       0.03187519 -0.064116806 0.06585953 -0.015418776
0000b0 33 88 c8 3c f5 c1 70 bd 77 af 55 bc 4b 7e f2 bc
       0.024479007 -0.05877872 -0.013042322 -0.029601237
0000c0 f4 fe 81 bd 0e e9 c7 bc d7 8e 03 bd 27 ef 74 3d
       -0.063474566 -0.024403121 -0.032118645 0.059798386
0000d0 12 eb 2b bc b8 d0 a8 3d d8 97 21 bd 8c 86 32 bd
       -0.010493057 0.08242935 -0.03945145 -0.043585345
0000e0 d7 c3 d5 bc 0d fc 44 bb 42 a3 20 3d bb 24 ed bc
       -0.02609436 -0.003005746 0.039218195 -0.028948179
0000f0 f1 3c 94 ba 5c 7e 1e 3d d6 27 de 3b 01 de 36 3d
       -0.0011309666 0.038694724 0.006779651 0.044645313
000100 8d 9c ff 3c d5 ab 90 3d e5 13 58 3a df 12 d8 3b
       0.031202579 0.07064024 0.00082427106 0.0065940465
000110 b8 60 15 bb 8a 0a 61 bd b9 b4 26 bc a3 2a b8 3c
       -0.0022793245 -0.05494169 -0.010174924 0.022481268
000120 bc b4 71 3b fa ca 84 3d 0d 46 81 3c df 0b f6 bc
       0.0036881408 0.06484027 0.015780473 -0.030034957
000130 bf 4b 66 3d 07 35 d8 bc f8 64 29 bd 08 eb cf 3c
       0.05622458 -0.026392473 -0.041356057 0.025380626
000140 44 59 ff 3d ea 2c f9 bc 90 4e 3c 3d 29 de 81 bc
       0.12468198 -0.030416925 0.04597336 -0.015853005
000150 78 d5 3b 3c da 40 78 bc 88 46 bf bd 49 66 a8 bd
       0.011464469 -0.015152181 -0.09339625 -0.08222634
000160 b1 a1 82 bd 85 76 1d bc cd 7b 14 bc 8b f8 15 3d
       -0.063784964 -0.009610777 -0.0090627195 0.036613982
000170 13 a2 43 3d bc a9 6a bd 5b d7 d0 3d 3f 0c b1 bd
       0.047761988 -0.057290778 0.10197326 -0.08644914
000180 64 b8 7d bc 7c 1c 62 3d 5f 2d 45 bc 57 2c 03 3d
       -0.015485857 0.055202946 -0.012034743 0.032024708
000190 37 81 7d 3d 4c cb b0 3c b8 0f 15 bc 93 a4 1f bd
       0.061890807 0.021581315 -0.009097986 -0.03897531
0001a0 9d cf 82 bd 57 52 6d bd 19 96 76 bd 18 41 d5 bb
       -0.06387255 -0.057939854 -0.060201738 -0.006508004
0001b0 14 77 0f bd 3f 98 51 bd 3e d5 89 3b 96 59 8a bd
       -0.03502567 -0.051170584 0.0042063287 -0.067553684
0001c0 d3 44 56 3c 04 47 8f bd 90 d0 66 bd b0 03 89 bd
       0.013077932 -0.06995967 -0.056351244 -0.066901565
0001d0 09 7a 0e bd eb 06 60 bc 97 09 24 bd 56 32 71 bd
       -0.03478435 -0.013673524 -0.040048208 -0.058885895
0001e0 0a 39 ca 3b 7c fb 5f 3c f3 50 3f 3a 5e 9b f1 3d
       0.0061713504 0.013670798 0.0007298134 0.11797212
0001f0 c5 04 7e 3d 3f 60 0b bd ca ca 04 3e 4b 1b 1f bd
       0.062016267 -0.034027334 0.12967983 -0.038844388

encoder2.1.running_mean f4 [128]
000000 a6 74 1d 3f 18 27 e0 3f 15 db 1c 40 da a7 af be
       0.61506116 1.751193 2.4508717 -0.34307748
000010 4c 56 53 c0 47 6a 54 c0 15 09 ad bf cb f1 5c 3f
       -3.3021421 -3.3189867 -1.3518397 0.86306447
000020 ad 4f ca 3e 3c 2d a9 bf 67 1d 7c 3f d0 2c 10 c0
       0.39513913 -1.321693 0.98482364 -2.2527351
000030 ad 8f 43 3e e5 24 54 3e c9 bd 1b 40 f2 5b 04 3f
       0.19097777 0.20717199 2.4334586 0.517028
000040 c1 25 4a 3f fc 8b 08 3f bc d3 2e 40 fe e8 63 bf
       0.7896386 0.533386 2.7316732 -0.8902739
000050 2f 1c 09 40 1a 35 7d 3e e2 1b 87 3c 14 74 91 3f
       2.1423452 0.24727288 0.016492788 1.1363549
000060 8d 9e 0f 40 07 8b 30 c0 56 d5 f3 bf e8 35 50 bf
       2.2440522 -2.7584856 -1.904948 -0.81332254
000070 f1 78 80 3f 2e 11 32 3f 4d 23 a1 3e cd e9 30 40
       1.0036908 0.69557464 0.31472245 2.76427
000080 21 f7 21 c0 b9 89 26 40 10 e1 1c bf 4f 3c a3 3f
       -2.5307086 2.602156 -0.6128092 1.275278
000090 85 a9 bd 3e 23 3d 2b c0 3b c5 41 40 7d ea 45 3f
       0.37043396 -2.6756065 3.027663 0.77310926
0000a0 6e c1 1c bf bc f2 f4 3f b1 1e 12 c0 03 6b 4b 3e
       -0.6123265 1.9136577 -2.2831233 0.1986504
0000b0 bf 00 5a 3f ae 3d 89 bf 65 77 f9 bf ea 8b 89 bf
       0.8515739 -1.0721948 -1.9489561 -1.0745823
0000c0 51 8d 9f be 5c e2 36 3f ba eb 7c 3f f9 b7 15 c0
       -0.31162503 0.71439147 0.9879719 -2.3393538
0000d0 ae 4d a5 3f 1f 61 d7 3f 37 c4 f8 be 4a 1e 2d bf
       1.2914331 1.6826514 -0.485872 -0.6762434
0000e0 6b 9a af 3f 83 7a 29 c0 5f 8a 91 bf 7f c5 f2 3e
       1.3719 -2.6481025 -1.1370353 0.47416303
0000f0 cc 98 16 40 a3 60 cd bf a1 20 0a bf c5 f2 ba 3f
       2.353076 -1.6045116 -0.5395604 1.4605337
000100 e9 37 00 3f 27 55 cf bd bc 40 5c bf 78 09 45 bf
       0.5008531 -0.101236634 -0.86036277 -0.76967573
000110 05 a1 05 40 bd a1 c9 3f 05 7f 96 bd 40 45 c2 3f
       2.0879529 1.5752484 -0.07348446 1.5177383
000120 16 d8 4a 3f 16 22 26 40 30 fd 34 c0 02 16 a2 be
       0.7923597 2.5958304 -2.8279533 -0.31657416
000130 a9 b9 69 be b4 3c 17 bf 35 d6 83 3f 4c f9 1b 40
       -0.2282473 -0.59077 1.0299746 2.4370909
000140 2e 42 97 bf 49 6a 14 3e a7 46 48 3f 24 3d d5 3f
       -1.1817071 0.1449367 0.78232807 1.6659284
000150 47 e3 44 bf 35 57 bf 3f 36 dc 31 40 3f 1d ea bf
       -0.769093 1.4948488 2.7790656 -1.8290175
000160 39 fc cf 3d 1f 14 4a 40 3f 5b 66 40 59 fe 99 3f
       0.101555295 3.157478 3.5993192 1.2030746
000170 61 7e 37 c0 6f 9a 15 3d 7a 8e 2f c0 99 b2 3a bf
       -2.8670886 0.036524232 -2.743071 -0.7292877
000180 fa b5 20 c0 b1 01 a3 3f 55 2a 9f bf a6 52 d5 bf
       -2.511107 1.2734891 -1.2434794 -1.6665847
000190 bb 5d 00 c0 99 d2 d2 3e d0 0f e8 3c 8e 9f 7f 3f
       -2.0057209 0.41176298 0.028327852 0.99852836
0001a0 a2 42 79 bf 0a a7 11 40 3b 53 5e bf 60 2d f0 3e
       -0.973673 2.2758203 -0.8684575 0.46909618
0001b0 2d 43 f2 3f ef 72 7e 3f c3 3e 25 3f c0 2e 7d be
       1.892675 0.99394125 0.6454889 -0.24724865
0001c0 1f 6a 55 bf 8a 71 df be 93 a9 02 c0 bc 63 dc 3f
       -0.8336505 -0.4364131 -2.0416 1.7217937
0001d0 fe c5 4b bf 77 27 bf 3f 12 8f 8f 3f 65 5f 7c bf
       -0.7959899 1.4933919 1.1215537 -0.9858306
0001e0 58 bd 12 c0 02 a0 87 bf bf f8 32 3f 11 c0 40 c0
       -2.2928066 -1.0595706 0.69910806 -3.0117228
0001f0 df 13 57 40 68 51 31 bf af f8 4c be 72 0a 07 3f
       3.3605878 -0.6926484 -0.2001674 0.52750313

encoder2.1.running_var f4 [128]
000000 81 0b 91 3f 63 95 63 3f 43 3f 25 3f 20 b6 e7 3f
       1.1331636 0.8889982 0.64549655 1.8102455
000010 a6 2a 74 3f 6e 08 98 3f 24 c5 42 3f 66 4a cd 3f
       0.95377576 1.1877573 0.7608206 1.603833
000020 67 f5 ca 3f e6 1a 23 40 1c 98 ca 3f 64 10 59 3f
       1.5856141 2.5485168 1.582767 0.84790635
000030 4c 4f 9e 3f ba 31 bd 3f f6 01 02 3f b8 e3 a1 3f
       1.236795 1.47808 0.5078424 1.2647619
000040 b0 a5 1d 3f fe f3 1a 40 b9 7d ab 3f 67 68 43 3f
       0.61580944 2.421142 1.3397743 0.7633118
000050 f3 16 0a 40 e2 3a a4 3f bd e5 72 40 34 9b 34 3f
       2.1576507 1.283047 3.795272 0.7054932
000060 a7 81 a6 3f 80 85 dc 3f 2a 5c 39 3f d8 34 70 3f
       1.3008317 1.7228241 0.72406256 0.93830633
000070 27 ea 8b 3e 1b b9 f4 3f 20 4b 9a 3f 15 40 2a 3f
       0.27327082 1.911899 1.2054176 0.6650403
000080 7a 4c 3f 3f 09 89 96 3f d7 c5 9b 3f 2a 36 40 3f
       0.7472607 1.176057 1.2169751 0.7508265
000090 db 23 98 3f e9 29 8c 3f 55 08 82 3f bf eb 89 3f
       1.1885942 1.095029 1.0158793 1.0775069
0000a0 0a 0c 0c 3f fa 60 4f 3f 65 dd e5 3e 88 57 85 3f
       0.5470587 0.8100735 0.44895473 1.0417337
0000b0 58 23 0e 3f 14 52 2e 40 92 c8 9a 3f 83 ee d5 3f
       0.5552268 2.7237597 1.2092459 1.6713413
0000c0 74 e2 87 40 a8 c5 0e 40 d1 be 75 3f fe 1e 02 3f
       4.246393 2.230814 0.9599429 0.5082854
0000d0 20 d1 86 3f 49 41 59 3f 7a 60 70 40 22 69 2b 3f
       1.053257 0.8486524 3.7558885 0.66957295
0000e0 20 e3 0d 40 0f 84 68 3f b4 e3 10 3f 7c 0e 58 40
       2.2169876 0.90826505 0.5659745 3.375884
0000f0 e4 cd c4 3f 87 2e 2b 3f fb f9 04 3f 45 5b 78 3f
       1.5375333 0.6686787 0.5194394 0.97014266
000100 b2 2d 98 3f f6 54 b0 3f 0f 98 82 3f 9b 45 fa 3f
       1.1888945 1.3775928 1.0202655 1.9552492
000110 9f bd 38 3f 68 fe 2f 3f 2f ba b3 3f f2 46 66 3f
       0.7216434 0.6874757 1.4041194 0.89952004
000120 16 78 d1 3f 32 bc 00 40 73 c8 6a 3f 16 01 a3 3f
       1.6364772 2.0114865 0.9171211 1.2734706
000130 d3 0d 95 3f f0 a7 c2 3f a3 c3 5e 3f 66 24 51 3f
       1.1644844 1.52075 0.8701727 0.81696165
000140 a3 86 82 3f c6 a0 a3 3f c6 e4 41 3f 4c 7d 8c 3f
       1.0197338 1.2783439 0.75739706 1.0975738
000150 d0 19 00 3f ba 15 2d 3f 4d 44 4d 3f 14 f6 49 40
       0.50039387 0.6761128 0.80182344 3.1556444
000160 8b 68 24 40 f1 4d e6 3f 93 76 13 40 db 2f 03 40
       2.5688808 1.7992536 2.3041122 2.0497959
000170 cb 64 3c 3f 5f 07 1f 40 e7 b5 d1 3f 19 f1 56 40
       0.735913 2.484825 1.6383637 3.3584654
000180 d7 dc 9a 3f c7 e7 15 3f 1c 0a 49 3f 32 e0 e4 3e
       1.2098645 0.5855679 0.7853105 0.44702297
000190 e0 d7 8c 3f c2 71 36 3f c2 80 88 3f d8 5d 78 3f
       1.100338 0.7126733 1.0664294 0.97018194
0001a0 fe c2 1b 40 e8 6a 2f 3f a7 20 aa 3f 2d 74 c8 3f
       2.4337764 0.685225 1.3291215 1.5660454
0001b0 a1 09 9e 3f 1b 16 46 3f bd 22 2f 3f 61 3e a0 3f
       1.2346689 0.7737748 0.6841238 1.2519037
0001c0 0b 1f ad 3f 08 11 a3 40 71 3f ae 3f 88 64 22 3f
       1.3525099 5.095829 1.3613111 0.6343465
0001d0 b4 6f 4c 40 65 8e 94 3f 5e 0c 9a 3f 20 f1 9c 40
       3.1943178 1.1605955 1.2035024 4.904434
0001e0 a8 f3 4f 40 c7 c1 ae 3f 88 b3 03 40 f2 14 4a 3f
       3.2492466 1.3652886 2.0578327 0.7893821
0001f0 e2 1b 1e 3f 83 23 02 40 87 10 04 3f 8d 92 9b 3f
       0.61761296 2.0334175 0.5158772 1.2154099
